purning_test.pt (torch, 17793 bytes, 11 tensors)

layers.0.weight f4 [10, 1]
0	0x00000000	0.0
1	0x00000000	0.0
2	0x00000000	0.0
3	0x00000000	0.0
4	0x00000000	0.0
5	0x00000000	0.0
6	0x00000000	0.0
7	0x00000000	0.0
8	0x00000000	0.0
9	0x00000000	0.0

layers.0.bias f4 [10]
0	0x3f6f2265	0.93411857
1	0xbb2f4ab0	-0.0026747398
2	0xbb4ce35c	-0.0031263446
3	0xbf8d0148	-1.1016016
4	0x3eb03de5	0.34422222
5	0xbf7a5066	-0.9777893
6	0xbf38ba40	-0.72159195
7	0xbf954338	-1.1661139
8	0x3ed50e08	0.41612267
9	0xbf2b71d6	-0.66970575

layers.2.weight f4 [20, 10]
0	0x00000000	0.0
1	0x3c51e330	0.012810513
2	0x00000000	0.0
3	0x00000000	0.0
4	0x3d8d58d4	0.06901708
5	0x00000000	0.0
6	0x00000000	0.0
7	0x00000000	0.0
8	0xbd81e8a3	-0.063432
9	0x00000000	0.0
10	0xbd99f4dd	-0.07517407
11	0x00000000	0.0
12	0x00000000	0.0
13	0x00000000	0.0
14	0x3c2cdd30	0.010550782
15	0xbe8986b2	-0.26860577
16	0x00000000	0.0
17	0x00000000	0.0
18	0xbe9bb496	-0.30411214
19	0x00000000	0.0
20	0x00000000	0.0
21	0x3e02f6c6	0.12789449
22	0x00000000	0.0
23	0x00000000	0.0
24	0xbd477571	-0.048695985
25	0x00000000	0.0
26	0x00000000	0.0
27	0x00000000	0.0
28	0x3e34e299	0.17664565
29	0x3e6e3876	0.23263726
30	0x00000000	0.0
31	0x00000000	0.0
32	0x00000000	0.0
33	0xbe8d096d	-0.27546254
34	0xbf0aa548	-0.5415845
35	0xbe8e0c58	-0.27743793
36	0x00000000	0.0
37	0xbe91dc99	-0.28488615
38	0xbd21df26	-0.03951945
39	0x00000000	0.0
40	0xbf014ccf	-0.50507826
41	0xbe9adfbb	-0.30248818
42	0xbd9a3734	-0.075300604
43	0x00000000	0.0
44	0x00000000	0.0
45	0xbded19b0	-0.11577165
46	0xbe06a1d5	-0.13147672
47	0xbe524db3	-0.20537452
48	0x00000000	0.0
49	0x00000000	0.0
50	0xbb9ace89	-0.004724328
51	0x00000000	0.0
52	0x00000000	0.0
53	0x00000000	0.0
54	0x00000000	0.0
55	0x00000000	0.0
56	0x00000000	0.0
57	0x00000000	0.0
58	0x00000000	0.0
59	0xbcd59190	-0.026070386
60	0xbd67f708	-0.05663207
61	0xbe2b1a6d	-0.167093
62	0x00000000	0.0
63	0xbc67d320	-0.014149457
64	0xbe18024b	-0.14844625
65	0x00000000	0.0
66	0xbdd077db	-0.101791106
67	0x00000000	0.0
68	0xbc962a37	-0.018330676
69	0xbe45027e	-0.19239232
70	0x00000000	0.0
71	0x3d56f6cd	0.05248146
72	0x3e284fbf	0.1643667
73	0x00000000	0.0
74	0x3e9ce06f	0.3063998
75	0x00000000	0.0
76	0x00000000	0.0
77	0x00000000	0.0
78	0x3de1cdb0	0.1102556
79	0x00000000	0.0
80	0xbe0ff142	-0.14056876
81	0x00000000	0.0
82	0x00000000	0.0
83	0x00000000	0.0
84	0x00000000	0.0
85	0x00000000	0.0
86	0x00000000	0.0
87	0x00000000	0.0
88	0x00000000	0.0
89	0x00000000	0.0
90	0x00000000	0.0
91	0xbe573d7c	-0.21019548
92	0xbe85c0a8	-0.26123548
93	0x00000000	0.0
94	0xbd8bb6b0	-0.06821954
95	0xbd6f7d48	-0.058469087
96	0xbdfb8fb4	-0.122832686
97	0xbe83cd96	-0.25742787
98	0xbea257d7	-0.3170764
99	0xbc3d9920	-0.011572152
100	0x00000000	0.0
101	0x00000000	0.0
102	0x00000000	0.0
103	0x00000000	0.0
104	0x00000000	0.0
105	0x00000000	0.0
106	0x00000000	0.0
107	0x00000000	0.0
108	0x00000000	0.0
109	0x00000000	0.0
110	0x00000000	0.0
111	0x3c993379	0.018701302
112	0x00000000	0.0
113	0xbe6eb020	-0.23309374
114	0xbe4fb1d1	-0.20282675
115	0x00000000	0.0
116	0x3d21c483	0.03949405
117	0xbd7bafdb	-0.061447006
118	0xbbf5949e	-0.007494523
119	0x00000000	0.0
120	0x00000000	0.0
121	0x00000000	0.0
122	0xbc2ed866	-0.010671711
123	0x00000000	0.0
124	0x00000000	0.0
125	0x00000000	0.0
126	0x00000000	0.0
127	0x00000000	0.0
128	0x00000000	0.0
129	0x00000000	0.0
130	0xbe468b82	-0.19389156
131	0x3e267cf8	0.1625861
132	0x3da27fcd	0.07934532
133	0x00000000	0.0
134	0x3d919a45	0.07109503
135	0xbd2142c0	-0.0393703
136	0x3e88915f	0.2667341
137	0xbda06c51	-0.0783316
138	0x3db3e0a5	0.08783082
139	0x3e6ad516	0.22932848
140	0x00000000	0.0
141	0x00000000	0.0
142	0x00000000	0.0
143	0x00000000	0.0
144	0x00000000	0.0
145	0x00000000	0.0
146	0x00000000	0.0
147	0x00000000	0.0
148	0x00000000	0.0
149	0x00000000	0.0
150	0xbd204a0f	-0.039133128
151	0x00000000	0.0
152	0x3cb55b20	0.022138178
153	0x00000000	0.0
154	0xbe240073	-0.16015796
155	0xbd2377c0	-0.039909124
156	0xbe9846d0	-0.29741526
157	0xbe0956d1	-0.13412024
158	0xbb1b96d5	-0.0023741026
159	0xbe0fa801	-0.14028932
160	0x00000000	0.0
161	0x00000000	0.0
162	0x00000000	0.0
163	0x00000000	0.0
164	0x00000000	0.0
165	0x00000000	0.0
166	0x00000000	0.0
167	0x00000000	0.0
168	0x00000000	0.0
169	0x00000000	0.0
170	0xbdababbe	-0.083823666
171	0x00000000	0.0
172	0x00000000	0.0
173	0x3d7ea0d3	0.062165093
174	0xbea20a96	-0.316487
175	0x00000000	0.0
176	0x00000000	0.0
177	0xbdd5a7d2	-0.104324
178	0xbf094d1b	-0.5363328
179	0xbe64109c	-0.22271961
180	0x00000000	0.0
181	0x00000000	0.0
182	0xbd51a1ba	-0.051179625
183	0x3dc46ed7	0.095914535
184	0x00000000	0.0
185	0xbdbaf906	-0.09129529
186	0xbc8d2b70	-0.017232627
187	0x00000000	0.0
188	0xbe2be44f	-0.16786312
189	0x3dbc0290	0.09180176
190	0xbde9b4e2	-0.11411454
191	0x00000000	0.0
192	0x00000000	0.0
193	0x00000000	0.0
194	0x3d93ddbf	0.07220029
195	0x3d7ca830	0.061683834
196	0x00000000	0.0
197	0xbd5c838c	-0.05383639
198	0x00000000	0.0
199	0x00000000	0.0

layers.2.bias f4 [20]
0	0xbede0dd5	-0.43369928
1	0xbed8c790	-0.42339754
2	0x3ee7cfc4	0.452757
3	0x3e5791f8	0.21051776
4	0x3dda87b2	0.10670413
5	0xbeda9a0e	-0.4269566
6	0x3d109ff9	0.03530881
7	0x3e862824	0.262025
8	0x3eb6a8d7	0.3567569
9	0xbd97c20d	-0.07410059
10	0x3de92450	0.11383879
11	0xbd920e28	-0.07131606
12	0xbe2542f0	-0.16138816
13	0xbeaa9eab	-0.3332418
14	0xbd6fb3bf	-0.05852103
15	0xbe8a2488	-0.26980996
16	0xbea249af	-0.3169684
17	0x3e2e0314	0.16993362
18	0xbe624756	-0.22097525
19	0xbe287741	-0.16451742

layers.4.weight f4 [40, 20]
0	0x3d13e1f9	0.036104176
1	0x3d90fd9d	0.07079623
2	0xbe4bb599	-0.19893493
3	0x00000000	0.0
4	0xbdaf8d18	-0.08571833
5	0x00000000	0.0
6	0xbd653094	-0.05595453
7	0xbcd8c591	-0.026461395
8	0x3dd55f63	0.10418584
9	0x3d77c4e8	0.06049052
10	0x00000000	0.0
11	0xbe3f3687	-0.18673144
12	0xbdd7b14f	-0.10531866
13	0xbd85f5bd	-0.065410115
14	0xbde70587	-0.11280351
15	0xbdfd716a	-0.12375148
16	0xbd5e74be	-0.054310553
17	0xbe3a2881	-0.18179514
18	0xba045b93	-0.0005049046
19	0x3de2e898	0.1107952
20	0x00000000	0.0
21	0x00000000	0.0
22	0x3e9c3997	0.30512688
23	0x3d0cbf92	0.034362383
24	0xbd2902a5	-0.041262288
25	0x00000000	0.0
26	0xbcd3dca7	-0.025862051
27	0x3d5b7bd4	0.05358489
28	0x3e327040	0.17425632
29	0x00000000	0.0
30	0xbd59e164	-0.053193465
31	0x3c90d022	0.01767737
32	0x00000000	0.0
33	0xbcfbf6aa	-0.030757267
34	0x00000000	0.0
35	0x3d1de318	0.03854665
36	0x00000000	0.0
37	0x00000000	0.0
38	0x3ce89ed3	0.028396046
39	0x00000000	0.0
40	0xbdd21f37	-0.1025986
41	0x3bf9cd20	0.0076233298
42	0x00000000	0.0
43	0x00000000	0.0
44	0xbd5af68d	-0.053457785
45	0x3cee70ca	0.029106516
46	0x00000000	0.0
47	0x3cd46361	0.025926294
48	0x00000000	0.0
49	0x00000000	0.0
50	0xbe6a0ff1	-0.22857644
51	0x00000000	0.0
52	0xbcc360bd	-0.02384984
53	0xbe701255	-0.23444493
54	0x00000000	0.0
55	0x3cd555a0	0.026041806
56	0xbe21655e	-0.15761325
57	0x00000000	0.0
58	0xbde44d98	-0.11147612
59	0x3d391432	0.045185275
60	0x3d2b4b53	0.04181988
61	0x00000000	0.0
62	0xbed20588	-0.41019845
63	0x00000000	0.0
64	0x00000000	0.0
65	0xbe87cbec	-0.26522768
66	0x00000000	0.0
67	0xbe172012	-0.14758328
68	0xbe0fc8d4	-0.14041454
69	0x00000000	0.0
70	0x00000000	0.0
71	0x00000000	0.0
72	0x00000000	0.0
73	0x00000000	0.0
74	0x00000000	0.0
75	0x00000000	0.0
76	0x3cb622de	0.022233423
77	0xbdcaf59e	-0.09910129
78	0x00000000	0.0
79	0x00000000	0.0
80	0x00000000	0.0
81	0x3e516cd1	0.20451666
82	0x3d8547aa	0.065078095
83	0x3dfbe868	0.12300187
84	0x3cee76d0	0.029109389
85	0x3e04cda9	0.12969078
86	0xbbebec68	-0.0071998127
87	0x00000000	0.0
88	0x00000000	0.0
89	0x00000000	0.0
90	0x00000000	0.0
91	0x00000000	0.0
92	0x3beca901	0.0072222953
93	0x3dc19078	0.09451383
94	0x3e64277e	0.2228069
95	0x00000000	0.0
96	0x00000000	0.0
97	0x3d239cdd	0.03994452
98	0x00000000	0.0
99	0xbb7e8cde	-0.0038841288
100	0x3e16aef6	0.1471518
101	0xbd7189e8	-0.05896941
102	0x00000000	0.0
103	0xbe32062e	-0.1738517
104	0x3e4346d8	0.19069993
105	0x3e119528	0.14217055
106	0xbd5ccd38	-0.05390665
107	0x3e0570a7	0.13031255
108	0xbe2ce0fe	-0.16882703
109	0x3c30ab10	0.010782972
110	0xbe37a8bc	-0.17935461
111	0xbd902c14	-0.07039657
112	0x3ddcb8ed	0.10777459
113	0x3dc60c98	0.09670371
114	0xbdd45fee	-0.1036986
115	0x3e4b57b2	0.19857672
116	0x3d61fe48	0.055174142
117	0xbe086d32	-0.13322905
118	0xbd28c572	-0.041203924
119	0x3dbb6718	0.09150523
120	0xbdb90c89	-0.09035594
121	0xbe49924a	-0.19684711
122	0x00000000	0.0
123	0x00000000	0.0
124	0xbdac68ac	-0.08418402
125	0xbe5c443a	-0.21510401
126	0x00000000	0.0
127	0x00000000	0.0
128	0x00000000	0.0
129	0x00000000	0.0
130	0x00000000	0.0
131	0x00000000	0.0
132	0x00000000	0.0
133	0x00000000	0.0
134	0xbe900c32	-0.28134304
135	0xbdcb9a9e	-0.099416
136	0x00000000	0.0
137	0xbd869777	-0.065718584
138	0xbe9c70dd	-0.30554858
139	0x00000000	0.0
140	0x00000000	0.0
141	0x00000000	0.0
142	0x3c5b3d73	0.01338135
143	0x00000000	0.0
144	0x3d1d31bf	0.03837752
145	0x00000000	0.0
146	0x00000000	0.0
147	0x3df7d2b0	0.12100732
148	0x00000000	0.0
149	0x3e0947e8	0.13406336
150	0x00000000	0.0
151	0x3db61773	0.08891191
152	0x00000000	0.0
153	0x3e15520d	0.14582081
154	0x00000000	0.0
155	0x3d2d8458	0.04236254
156	0x3d8a5067	0.06753617
157	0x00000000	0.0
158	0x3d012d8a	0.03153757
159	0x00000000	0.0
160	0xbe2cd450	-0.16877866
161	0xbde835b3	-0.11338367
162	0xbe8740cc	-0.26416624
163	0xbe26406d	-0.16235514
164	0x3cfdbe7b	0.030974617
165	0x00000000	0.0
166	0xbc82c840	-0.015964627
167	0xbe3d6d5c	-0.18498749
168	0xbe4497af	-0.19198488
169	0x00000000	0.0
170	0x00000000	0.0
171	0x00000000	0.0
172	0xbe43815a	-0.19092312
173	0xbe34b499	-0.17647018
174	0xbc64ce20	-0.01396516
175	0xbdb125ee	-0.08649813
176	0x00000000	0.0
177	0xbda97e36	-0.08276026
178	0x00000000	0.0
179	0x3cc96850	0.024585873
180	0x3d207fd8	0.03918442
181	0x3e2ef0d2	0.17084053
182	0xbea63426	-0.3246166
183	0xbe498d30	-0.19682765
184	0x3c109c48	0.008826323
185	0xbd21e3ec	-0.039524004
186	0xbd2e4850	-0.04254943
187	0xbe16691a	-0.1468853
188	0xbde7d6b2	-0.11320247
189	0x3dd4102c	0.10354647
190	0x00000000	0.0
191	0x3e030808	0.12796032
192	0xbd665a7a	-0.05623863
193	0xbd00e730	-0.031470478
194	0xbe568c15	-0.20951875
195	0xbb3ee5c0	-0.002912864
196	0x00000000	0.0
197	0x3da82230	0.08209646
198	0x3e2be388	0.16786015
199	0xbd442b04	-0.047892585
200	0x00000000	0.0
201	0x00000000	0.0
202	0xbdeaa29b	-0.11456796
203	0xbdfa209f	-0.12213253
204	0x00000000	0.0
205	0x00000000	0.0
206	0x00000000	0.0
207	0xbe4387ea	-0.19094816
208	0xbd8e46ef	-0.06947123
209	0xbdc26b46	-0.09493117
210	0x3ca71402	0.020395283
211	0xbab4adf0	-0.0013784748
212	0x00000000	0.0
213	0x00000000	0.0
214	0x00000000	0.0
215	0xbd9608ea	-0.07325919
216	0xbe2cbc01	-0.16868593
217	0xbd9e176c	-0.07719311
218	0xbdcbd1e3	-0.09952142
219	0x00000000	0.0
220	0xbc3338d1	-0.010938839
221	0x3e2de3c6	0.1698142
222	0x00000000	0.0
223	0xbd53be09	-0.051694904
224	0x3cc87317	0.024468942
225	0xbe549d00	-0.20763016
226	0xbe1ab9b4	-0.15109903
227	0xbd5937a5	-0.053031582
228	0x3d7ef6a3	0.06224693
229	0xbde905ab	-0.11378034
230	0xbea5569a	-0.32292634
231	0x3e5d5fb2	0.21618536
232	0x3d6edcc7	0.05831602
233	0xbdb60db0	-0.088893294
234	0x3e97b5b2	0.2963081
235	0xbc381fc5	-0.011238043
236	0x3da38381	0.07984067
237	0xbc2a97c3	-0.010412159
238	0xbd914f67	-0.07095223
239	0x3e227abf	0.15867136
240	0xbe275dfd	-0.16344447
241	0x3d73e1a0	0.059541345
242	0x3d68f837	0.05687734
243	0xbe4e4296	-0.20142588
244	0x3db37cbf	0.08764028
245	0x3dbecfa4	0.09316948
246	0x3de571b0	0.11203325
247	0x3cbaa3ad	0.022783125
248	0xbd9fbe25	-0.07799939
249	0x3e60980e	0.21933004
250	0xbe2caedd	-0.1686358
251	0x3c75a227	0.014992273
252	0x3de57883	0.112046264
253	0xbe59090a	-0.21194854
254	0xbdcaa987	-0.09895616
255	0xbd88f7f8	-0.06687921

layers.4.bias f4 [40]
0	0xbdcb2ff1	-0.099212535
1	0x3d9572b4	0.072972685
2	0xbd3d5ad4	-0.0462292
3	0xbdb139dc	-0.08653614
4	0xbd384bf6	-0.044994317
5	0xbd7b8bd8	-0.061412662
6	0x3e825e5d	0.25462618
7	0x3db432ff	0.08798789
8	0xbeb62f4b	-0.35582957
9	0xbeb384b0	-0.3506217
10	0x3dcad46a	0.09903796
11	0xbc748855	-0.014925082
12	0x3d5c5132	0.05378837
13	0xbe4fc9e0	-0.20291853
14	0xbd9cc8f6	-0.07655518
15	0xbed489f8	-0.41511512
16	0xbdbbcce9	-0.09169943
17	0x3d718e2d	0.05897348
18	0xbc23a0b8	-0.009987049
19	0xbd6cb5b3	-0.05779047
20	0xbdfe23d0	-0.124091744
21	0xbccb7444	-0.024835713
22	0x3eaf6e0b	0.34263644
23	0x3e9c1a26	0.304887
24	0xbdb0037e	-0.08594416
25	0xbe3bf67b	-0.18355744
26	0xbe570554	-0.20998126
27	0xbe92b33a	-0.28652364
28	0x3e0621e8	0.13098872
29	0xbbd382f8	-0.0064548217
30	0x3eba4148	0.3637793
31	0xbda166e4	-0.07880953
32	0xbe171440	-0.14753819
33	0xbe91ebd8	-0.28500247
34	0xbd9acae1	-0.07558227
35	0xbe5989e3	-0.21244006
36	0x3c409f7d	0.011756775
37	0x3d2069ca	0.03916339
38	0x3c772354	0.0150841065
39	0x3e5f2557	0.21791588

layers.6.weight f4 [40, 40]
0	0x3d936cb2	0.07198466
1	0x00000000	0.0
2	0x3ded9125	0.1159995
3	0xbbfa2256	-0.0076334877
4	0x3d54fef3	0.05200095
5	0x3e128b0f	0.14310859
6	0x3dfd5b8c	0.12370977
7	0x00000000	0.0
8	0x00000000	0.0
9	0x3cc7f8b0	0.024410576
10	0x00000000	0.0
11	0xbd959ff8	-0.07305902
12	0x00000000	0.0
13	0x3deb77e6	0.11497478
14	0xbc4f55d0	-0.012654737
15	0x00000000	0.0
16	0xbba02cc0	-0.004888147
17	0x3d6f274b	0.058387082
18	0x00000000	0.0
19	0x3d22e401	0.039768223
20	0x3dc8bfd6	0.09802215
21	0x3e0f9b0b	0.14023988
22	0x00000000	0.0
23	0x3cecd838	0.028911695
24	0xbc80c521	-0.015718998
25	0xbd8e2942	-0.06941463
26	0xbd4c6d44	-0.04990889
27	0xbd7e4490	-0.062077105
28	0x3ca06ec6	0.01958407
29	0x3cc120f5	0.023575285
30	0xbda450fa	-0.080232576
31	0xbd301b39	-0.04299471
32	0x00000000	0.0
33	0x3dcdcb17	0.10048502
34	0x3da95c01	0.082695015
35	0x3e06b931	0.13156582
36	0x00000000	0.0
37	0xbd974362	-0.07385899
38	0x3d65e55e	0.056126945
39	0x3d1518c7	0.036400583
40	0x3dbf62ce	0.093450174
41	0x3db99e76	0.09063427
42	0xbd43fc7a	-0.047848202
43	0x3c7183b0	0.014740869
44	0x3db3307f	0.08749484
45	0x3dd28a3e	0.10280274
46	0x3ded1034	0.11575356
47	0x3ddb9340	0.10721445
48	0x3dd0b80a	0.10191353
49	0xbc5a68a0	-0.013330609
50	0x00000000	0.0
51	0x00000000	0.0
52	0x00000000	0.0
53	0x3ca00ac8	0.01953639
54	0x3d146a28	0.03623405
55	0x00000000	0.0
56	0xbd101a38	-0.035181254
57	0xbd373f4a	-0.04473809
58	0x00000000	0.0
59	0x00000000	0.0
60	0x00000000	0.0
61	0xbcc71961	-0.024304094
62	0x3dbe733e	0.092993245
63	0xbdb93871	-0.090439685
64	0x3db880da	0.090089515
65	0xbd4403e0	-0.047855258
66	0x3d484f60	0.048903823
67	0xbd092734	-0.033484653
68	0xbac0214d	-0.0014658362
69	0x00000000	0.0
70	0x00000000	0.0
71	0x3c409760	0.011754841
72	0x3ca0a860	0.019611537
73	0xbcba2b28	-0.022725657
74	0xbc5f9b1b	-0.01364782
75	0x3d8ea96c	0.069659084
76	0x00000000	0.0
77	0xbd8c32ea	-0.068456486
78	0x00000000	0.0
79	0x3d391f60	0.045195937
80	0x3dc51aae	0.09624229
81	0x3b592c4f	0.0033137982
82	0xbded45e0	-0.11585593
83	0xbd94c90f	-0.072649114
84	0x3d353d1c	0.04424773
85	0xbe058c10	-0.13041711
86	0x00000000	0.0
87	0xbd9acc18	-0.07558459
88	0xbd9ffe0a	-0.07812126
89	0xbdc7ac34	-0.09749642
90	0x3e3b2fa6	0.18279895
91	0x3e623e93	0.22094183
92	0xbca13904	-0.019680507
93	0x3d33732c	0.04381101
94	0xbe160b46	-0.14652738
95	0x3dad7bb0	0.08470857
96	0xbd81e21e	-0.063419566
97	0x3e46ca0e	0.19413015
98	0x3de0a9a5	0.10969857
99	0x3e7ea5c3	0.2486792
100	0x3dbb4c9b	0.09145471
101	0xbdf11ede	-0.117734656
102	0x00000000	0.0
103	0xbcedee7e	-0.029044386
104	0x3c539132	0.012913035
105	0x3e866b59	0.26253775
106	0x3d4bf024	0.049789563
107	0x00000000	0.0
108	0xbd33c078	-0.043884724
109	0x3d3ff57c	0.04686497
110	0x3d0816d7	0.033224907
111	0x3e92f25b	0.28700528
112	0xbdbbada5	-0.091639794
113	0x3e7afbdb	0.24510138
114	0xbd13f26a	-0.036119856
115	0x3c8104c0	0.015749335
116	0xbd03e3f7	-0.032199826
117	0x3d61847e	0.055057995
118	0xbd9a5e51	-0.07537521
119	0x3d5ef084	0.054428592
120	0x00000000	0.0
121	0xbe06773e	-0.13131425
122	0x00000000	0.0
123	0x3d719e76	0.05898901
124	0xbdc120d7	-0.09430092
125	0xbdf3f1aa	-0.11911328
126	0xbafaa89e	-0.0019123738
127	0x00000000	0.0
128	0x00000000	0.0
129	0x3d404641	0.046942
130	0xbe45d22b	-0.19318454
131	0x3cc5dd59	0.024153398
132	0x3bbd107b	0.005769787
133	0xbc9547e0	-0.01822275
134	0xbe20b369	-0.1569344
135	0xbe0c91e3	-0.13727526
136	0xbc3675af	-0.011136456
137	0xbde8e98c	-0.113726705
138	0xbe01d55a	-0.12679043
139	0xbe57be17	-0.21068607
140	0x3b7d503e	0.0038652564
141	0x00000000	0.0
142	0x00000000	0.0
143	0xbe5e1541	-0.21687795
144	0xbe9fc5d0	-0.31205606
145	0x00000000	0.0
146	0xbdfecdf4	-0.12441626
147	0xbcfa8df9	-0.030585276
148	0x00000000	0.0
149	0xbe803638	-0.25041366
150	0xbdd8ea92	-0.10591616
151	0xbe4556ed	-0.19271441
152	0x00000000	0.0
153	0xbca4e4a9	-0.020128565
154	0x3ab453b2	0.0013757853
155	0x3d7445e0	0.05963695
156	0xbdfe8f04	-0.12429622
157	0x3d53e799	0.05173454
158	0xbe02c246	-0.12769422
159	0x00000000	0.0
160	0x00000000	0.0
161	0x3cf496a5	0.02985699
162	0xbdc4e2f1	-0.09613598
163	0xbe34c649	-0.17653765
164	0xbcf16c86	-0.029470693
165	0xbd2f0c40	-0.042736292
166	0x00000000	0.0
167	0xbd8752cf	-0.06607591
168	0xbd52a529	-0.05142704
169	0x3d011675	0.031515557
170	0xbd6b1d56	-0.057401024
171	0x00000000	0.0
172	0xbe0cf371	-0.1376474
173	0xbe00cdbc	-0.12578481
174	0xbdab10fe	-0.083528504
175	0xbe1bd6e6	-0.15218696
176	0xbd714ea5	-0.058912892
177	0xbd9d44ac	-0.07679114
178	0x3c963703	0.018336779
179	0xbe066581	-0.13124658
180	0xbc9b93e3	-0.018991416
181	0xbbde87c7	-0.0067910883
182	0x3d69b7cf	0.05706006
183	0x3d6e040e	0.058109336
184	0xbd455c62	-0.048183806
185	0xbd45e134	-0.048310474
186	0xbdfc2d08	-0.123132765
187	0xbe5ed06a	-0.21759191
188	0xbd655ad2	-0.055994816
189	0x00000000	0.0
190	0xbdc947c4	-0.09828141
191	0xbde49203	-0.11160662
192	0x00000000	0.0
193	0x3d84b81c	0.064804286
194	0x00000000	0.0
195	0x3c5734a0	0.013135105
196	0xbe1137fd	-0.14181514
197	0xbe085333	-0.13312988
198	0x3cda43d0	0.026643664
199	0x00000000	0.0
200	0x00000000	0.0
201	0x3dae5dd9	0.08513994
202	0xbd9333b9	-0.071876
203	0xbe5e827f	-0.21729468
204	0x3dd0eb99	0.10201187
205	0xbd9ead94	-0.07747951
206	0x00000000	0.0
207	0x00000000	0.0
208	0xbe206429	-0.15663208
209	0xbce8b0d5	-0.028404633
210	0xbe267f98	-0.1625961
211	0xbd659380	-0.05604887
212	0x00000000	0.0
213	0x3ca93a48	0.020657673
214	0x3c72b20f	0.01481296
215	0xbd7e8893	-0.062141966
216	0x3d6e195f	0.058129665
217	0xbe597e56	-0.212396
218	0x3dbc35b2	0.09189929
219	0xbd03b624	-0.032156125
220	0x3ddbb819	0.10728473
221	0x00000000	0.0
222	0x00000000	0.0
223	0xbd0e7a62	-0.034784682
224	0xbe8f81ef	-0.2802882
225	0xbd93cf38	-0.07217258
226	0x00000000	0.0
227	0x3cb17333	0.021661377
228	0x3d837ca9	0.064202614
229	0x3bfea310	0.0077709034
230	0xbd58146d	-0.052753855
231	0x3d972c86	0.07381539
232	0x3ceefe36	0.029173952
233	0x00000000	0.0
234	0xbc972b43	-0.018453246
235	0xbd65fdc6	-0.05615022
236	0xbe03ffe9	-0.1289059
237	0x00000000	0.0
238	0xbce5bbb6	-0.02804361
239	0xb96bd175	-0.00022489375
240	0xbce818a4	-0.028332062
241	0x3ce739a9	0.028225737
242	0x3d93284e	0.07185422
243	0x3e07b3fe	0.13252255
244	0x00000000	0.0
245	0xbc185cb8	-0.00929945
246	0xbd518a0a	-0.051157035
247	0x00000000	0.0
248	0x00000000	0.0
249	0x00000000	0.0
250	0x3de25041	0.110504635
251	0x3dbcba2c	0.09215197
252	0x3df518f7	0.11967652
253	0x00000000	0.0
254	0x00000000	0.0
255	0x3c013543	0.007886234

layers.6.bias f4 [40]
0	0xbe114659	-0.14186992
1	0xbe406f7c	-0.18792528
2	0xbf03c579	-0.51473194
3	0x3e07cf87	0.13262759
4	0x3d1bd60a	0.03804592
5	0x3bd43494	0.0064759944
6	0xbb25b900	-0.002528727
7	0xbe10f11e	-0.14154479
8	0xbee35c83	-0.44406518
9	0xbd26a4bc	-0.040684447
10	0xbea936b6	-0.33049554
11	0x3e407a3c	0.18796629
12	0x3cd77fdc	0.026306085
13	0xbd86759a	-0.065653995
14	0x3ccee54d	0.025255824
15	0xbd5fa109	-0.054596934
16	0x3e0eabb9	0.13932694
17	0xbdce324e	-0.100681886
18	0xbe82768c	-0.2548107
19	0xbe2135d9	-0.15743198
20	0xbdcc4d58	-0.0997569
21	0x3e9037cb	0.28167567
22	0xbda7bee2	-0.08190705
23	0x3e5f0acc	0.21781462
24	0xbe418149	-0.18896975
25	0x3e2ceb85	0.16886719
26	0x3dd6abe6	0.10482006
27	0x3c68913a	0.014194781
28	0xbde3dc84	-0.111260444
29	0xbe079ec1	-0.13244154
30	0xbdaf3053	-0.08554139
31	0xbf4e059d	-0.80477315
32	0xbdf12a04	-0.11775592
33	0xbebd3ab4	-0.3695885
34	0xbdf5f375	-0.12009326
35	0xbe65a1a1	-0.22424938
36	0xbd9df7ce	-0.077132806
37	0xbd82c512	-0.063852444
38	0xbd8367f9	-0.064163156
39	0x3ca8650f	0.020556001

layers.8.weight f4 [20, 40]
0	0x3d0bbfc6	0.034118436
1	0x3ddef846	0.10887198
2	0xbda3b12c	-0.07992777
3	0x3e325675	0.17415793
4	0x3c9be9b0	0.01903233
5	0xbdc8b634	-0.098003775
6	0x3d1491cf	0.036271866
7	0xbd45b7c6	-0.048270963
8	0xbd496006	-0.04916384
9	0xbd537ac4	-0.05163075
10	0xbdc9447f	-0.09827518
11	0xbe716fdd	-0.23577829
12	0xbcf8f3e1	-0.030389728
13	0xbdffe860	-0.12495494
14	0xbd66e939	-0.056374762
15	0xbc73f01c	-0.0148887895
16	0xbdc98ae9	-0.09840948
17	0xbe130520	-0.14357424
18	0xbdbd96e1	-0.092572935
19	0xbdd425e4	-0.103587896
20	0x3d5accac	0.053417847
21	0x3dc9cd99	0.09853668
22	0xbb20c002	-0.0024528508
23	0xbd4c241c	-0.049839124
24	0xbcedf740	-0.029048562
25	0x3cb994b3	0.022653913
26	0xbd18758d	-0.03722148
27	0xbe625afc	-0.2210502
28	0x3d31ba2d	0.04339044
29	0xbe0f1227	-0.13971768
30	0x3d909472	0.07059564
31	0xbcedbeaa	-0.02902158
32	0xbe0791c6	-0.13239202
33	0x3d271962	0.04079569
34	0x3d8b1f90	0.067931294
35	0xbd08f936	-0.03344079
36	0xbda51ef5	-0.08062545
37	0x3c03fa1b	0.008055235
38	0x3d3fe058	0.04684481
39	0xbdeff7fa	-0.1171722
40	0xbde100cc	-0.1098648
41	0xbe1b8c95	-0.15190347
42	0xbd6f51e0	-0.05842769
43	0x3e3a18a5	0.18173464
44	0xbe2f5325	-0.17121561
45	0xbdf74e4d	-0.120754816
46	0x3dbc9372	0.092078105
47	0xbc84fb80	-0.016233206
48	0x3d75af3c	0.05998157
49	0xbd2543f2	-0.040348
50	0xbda150fe	-0.07876776
51	0x3d65afcd	0.05607586
52	0x3df7126e	0.12064062
53	0x3cfa2ee8	0.030539945
54	0xbd3ef764	-0.04662265
55	0xbdef3921	-0.11680818
56	0x3cfb3fc5	0.030670056
57	0xbd1b563b	-0.037924033
58	0x3da3e1f0	0.080020785
59	0x3d4c7c8f	0.049923476
60	0x3d9dd5a8	0.07706767
61	0x3db727b0	0.08943117
62	0x3d14e080	0.036346912
63	0x3e1c10ad	0.15240736
64	0x3a8f0980	0.0010912865
65	0xbe16b1ed	-0.14716311
66	0x3d1b2516	0.037877165
67	0xbd89cf72	-0.0672902
68	0xbda5d63d	-0.08097503
69	0x3daf2d00	0.08553505
70	0x3d7769df	0.0604037
71	0xbe6121bd	-0.21985526
72	0xbd9870e1	-0.07443405
73	0xbe233220	-0.1593709
74	0x3d8e30df	0.06942915
75	0x3d8563f7	0.065132074
76	0x3d917cda	0.07103892
77	0x39d5b819	0.0004076369
78	0x3d7dc91c	0.06195937
79	0xbe0d4096	-0.13794169
80	0x3d98e049	0.07464654
81	0xbd0ae27e	-0.033907406
82	0xbe49a966	-0.19693527
83	0xbc72a40a	-0.014809618
84	0xbd82261c	-0.06354925
85	0xbc6c808a	-0.014434943
86	0x3df595d5	0.11991469
87	0xbdfca162	-0.12335469
88	0x3e18bd75	0.14916022
89	0x3d4c3baa	0.049861588
90	0xbd1ad09b	-0.037796598
91	0xbe9a2cde	-0.30112356
92	0xbe3e1e3f	-0.18566225
93	0x3d80ff70	0.06298721
94	0xba44bc7e	-0.0007504894
95	0xbc8bb4fa	-0.01705407
96	0x3e09deca	0.13463894
97	0x3db0dba2	0.08635642
98	0x3db8b94e	0.09019719
99	0x3bcbe80c	0.0062227305
100	0xbddcaf32	-0.10775603
101	0x3e13763c	0.14400572
102	0xbd92a9a1	-0.071612604
103	0xbda94cd2	-0.082666054
104	0xbdabe75a	-0.08393736
105	0xbe3fef9d	-0.18743749
106	0x3db1012f	0.08642804
107	0xbe3a69b1	-0.1820438
108	0xbe2371c5	-0.15961368
109	0x3e04037f	0.12891959
110	0xbe345087	-0.17608844
111	0xbe534d8c	-0.2063505
112	0xbe19aa2f	-0.15006326
113	0xbd49096e	-0.04908126
114	0x3cf0bf6e	0.029388156
115	0xbd7c585e	-0.06160771
116	0x3e1f8a7d	0.15580173
117	0x3e3792c4	0.1792708
118	0x3dad2916	0.08455102
119	0xbe5bc31a	-0.21461144
120	0x00000000	0.0
121	0x3e0862cb	0.13318937
122	0x3e4fd480	0.20295906
123	0xbc92b281	-0.017907383
124	0x00000000	0.0
125	0x3dcac3ef	0.099006526
126	0x00000000	0.0
127	0x00000000	0.0
128	0x3d7ac6bf	0.061224695
129	0x3d64e9ed	0.05588715
130	0xbd7ff961	-0.062493686
131	0x00000000	0.0
132	0xbc968f44	-0.018378861
133	0x3dd772c6	0.10519938
134	0xbce57aaf	-0.028012602
135	0xbd9fcc0b	-0.0780259
136	0x3d3f8ed4	0.04676707
137	0x3d5e0040	0.054199457
138	0x3d88a5b0	0.066722274
139	0xbc41f6a3	-0.011838588
140	0x3cf300e0	0.029663503
141	0x3d802a83	0.062581085
142	0x3d6010d0	0.054703534
143	0xbd8f7c85	-0.07006172
144	0x3e14a2e6	0.14515266
145	0xbd9aeedb	-0.07565089
146	0x3dcfe916	0.101518795
147	0x3df6fcac	0.12059912
148	0x3d96704c	0.07345638
149	0x3c8a6471	0.016893597
150	0xbd9a7982	-0.07542707
151	0x3d09b69c	0.033621415
152	0x00000000	0.0
153	0x3d693039	0.056930754
154	0x3d48e5bd	0.04904722
155	0xbd9fe5da	-0.078075126
156	0xbd4b75a1	-0.049672727
157	0xbbf32425	-0.0074200802
158	0x00000000	0.0
159	0x3e0a5cbc	0.13511938
160	0xbd9a7cf6	-0.07543366
161	0x3dc3af76	0.09554951
162	0xbd3b1486	-0.04567387
163	0x00000000	0.0
164	0x3cb8cd93	0.022558963
165	0x00000000	0.0
166	0xbda6daea	-0.08147223
167	0xbdb0307c	-0.08602998
168	0xba2a15e7	-0.0006488249
169	0xbc7c0373	-0.015381682
170	0xbe3c41e6	-0.18384513
171	0x00000000	0.0
172	0x00000000	0.0
173	0xbc635e97	-0.013877532
174	0x3dc8c604	0.098033935
175	0xbe9c1114	-0.3048178
176	0x00000000	0.0
177	0x00000000	0.0
178	0x00000000	0.0
179	0x3d9fd2cf	0.078038804
180	0x00000000	0.0
181	0x00000000	0.0
182	0x3d1ce06b	0.03829996
183	0x00000000	0.0
184	0x3d06910b	0.032853168
185	0x00000000	0.0
186	0x3d1f3c22	0.038875706
187	0x3c91da30	0.017804235
188	0x3d56f72a	0.052481808
189	0xbe1ca4ca	-0.15297237
190	0xbdf6ebaf	-0.12056672
191	0xbdb54356	-0.08850734
192	0xbe01efd8	-0.1268915
193	0xbdd4f1ec	-0.103977054
194	0xbd988e73	-0.07449045
195	0x3b946ae6	0.004529345
196	0xbdb56a38	-0.0885815
197	0x00000000	0.0
198	0xbd4246e4	-0.047430888
199	0xbd76b569	-0.0602316
200	0x3c74cd10	0.014941469
201	0x3e0f342b	0.13984744
202	0xbddb0ad2	-0.10695423
203	0x3d761aec	0.06008427
204	0x3e0e14e3	0.13875155
205	0x3dfa9c0a	0.12236793
206	0xbbcda880	-0.0062761903
207	0x3dfa99f6	0.12236397
208	0xbc823d20	-0.015898287
209	0xbbdaf1c0	-0.006681651
210	0x3d2b9098	0.041885942
211	0xbe1cff9f	-0.15331887
212	0xbe213b02	-0.15745166
213	0xbd443e0a	-0.047910728
214	0x3d4f1dc4	0.050565496
215	0x3db439f8	0.08800119
216	0xbe1b8ba2	-0.15189984
217	0x3d16150c	0.036641166
218	0x3d978e82	0.07400228
219	0x3db404be	0.08789967
220	0xbdd24f40	-0.10269022
221	0x3dabc336	0.08386843
222	0xbe0d869a	-0.13820878
223	0x3d7eceac	0.062208816
224	0x3d7e5bd4	0.062099293
225	0xbd7a39b4	-0.061090186
226	0x3da4cdfe	0.080471024
227	0xbd8e53ad	-0.06949554
228	0xbc671650	-0.014104441
229	0xbdffc971	-0.12489594
230	0x3da13a42	0.0787244
231	0x3d6e0bac	0.0581166
232	0xbd85e867	-0.06538468
233	0x3d59b020	0.05314648
234	0x3c988978	0.018620238
235	0xbda466bc	-0.080274075
236	0xbdd1dd68	-0.10247308
237	0xbde6943e	-0.11258744
238	0x3e0ff9c1	0.14060117
239	0xbdc3b66d	-0.09556279
240	0xbdb4dc94	-0.088311344
241	0x3a881300	0.0010381639
242	0xbd66b1fc	-0.056322083
243	0x3d86e53a	0.0658669
244	0xbde6a472	-0.11261834
245	0xbdefe1ab	-0.117129646
246	0xbe1a936a	-0.15095297
247	0x3dbbdd88	0.09173113
248	0xbc51221b	-0.012764479
249	0x3d42b908	0.04753974
250	0x3e35344b	0.1769573
251	0xbe1909e3	-0.14945178
252	0x3dc98c38	0.09841198
253	0xbbed16c7	-0.0072353813
254	0x3d9cd5e6	0.076579854
255	0x3e5a7411	0.21333338

layers.8.bias f4 [20]
0	0x3e426b39	0.18986215
1	0x3e0b97d0	0.1363213
2	0x3e8089c3	0.25105104
3	0xbe2cdc72	-0.16880968
4	0x3e88bf78	0.2670858
5	0xbdd8bd5a	-0.10582991
6	0xbda34da6	-0.07973795
7	0x3dc98550	0.098398805
8	0xbdbb601e	-0.09149192
9	0x3e339061	0.17535545
10	0x3ece7981	0.40327075
11	0x3d9e3387	0.07724672
12	0xbda7311a	-0.08163662
13	0xbd4ce6d8	-0.050024837
14	0xbe57044f	-0.20997737
15	0x3deae9a6	0.11470346
16	0x3e38281b	0.17984049
17	0xbdd595ca	-0.104289606
18	0xbe1f2800	-0.15542603
19	0xbf4e4ff3	-0.8059074

layers.10.weight f4 [1, 20]
0	0x00000000	0.0
1	0x00000000	0.0
2	0x00000000	0.0
3	0x3e065969	0.13120045
4	0x00000000	0.0
5	0x00000000	0.0
6	0x00000000	0.0
7	0x3d92a6e9	0.07160742
8	0x3e075d80	0.13219261
9	0x00000000	0.0
10	0x00000000	0.0
11	0x00000000	0.0
12	0x00000000	0.0
13	0x3ddd7e1b	0.10815068
14	0x3e926fd6	0.2860095
15	0x3dc67cf7	0.09691804
16	0x00000000	0.0
17	0x3da1ac89	0.078942366
18	0x00000000	0.0
19	0x3f31d83a	0.6947056
