purning_test.pt (torch, 90799 bytes, 17 tensors)

layers.0.weight f4 [10, 1]
2.3222337 1.0582954 -0.818962 0.8509013 -1.785391 -0.09596896 -0.12064648 3.3021731
-0.33707044 -1.6199164
00000000: 7a9f 1440 3976 873f 7ea7 51bf abd4 593f
00000010: b187 e4bf 608b c4bd 8015 f7bd ce56 5340
00000020: 7f94 acbe 6c59 cfbf

layers.0.bias f4 [10]
0.5238493 -0.24028884 -0.6588898 0.372677 0.00029846118 -0.856987 -0.7629088 0.7162968
0.020758035 -0.10451779
00000000: fd1a 063f 470e 76be 00ad 28bf 85cf be3e
00000010: c87a 9c39 8063 5bbf fe4d 43bf 3a5f 373f
00000020: c10c aa3c 6c0d d6bd

layers.2.weight f4 [20, 10]
0.26916745 -0.051849067 0.25298372 -0.03707099 -0.022283435 -0.078482434 0.2126117 -0.15222251
0.10606074 -0.11455108 0.42471182 0.30590627 -0.09459874 0.17568156 -0.17305511 -0.048072398
-0.035313874 0.21834148 -0.31789532 0.016474515 -0.11951095 -0.29408234 0.24438158 -0.2744721
-0.12466799 -0.22512062 -0.2765888 0.18664035 0.15396228 0.31081018 -0.2652856 0.23651314
0.21347693 -0.15291557 0.058183543 0.14939442 0.1019232 0.070925236 0.05983321 0.14438385
-0.14711028 0.11218081 -0.03860861 -0.15761045 0.4082463 -0.015920281 0.10348785 -0.752832
-0.040982816 0.4332308 0.49314818 0.26889265 0.17922059 0.423189 -0.4883684 0.19368944
0.13683572 1.044957 0.05518743 -0.3422042 0.13133408 -0.21212895 -0.14529032 -0.027655449
-0.11224165 0.3134081 0.18063307 -0.4847327 -0.17580009 0.33863288 -0.20348412 -0.21895048
-0.09322527 -0.29198685 -0.12347418 0.055185765 -0.09823114 -0.16093165 0.14851937 0.1420339
0.30048162 0.06262983 0.1925132 0.107650615 -0.27054095 -0.0151797235 -0.26033106 0.53792834
-0.35135943 -0.019375354 -0.3306985 0.05788369 -0.26178667 -0.12744291 0.0065668896 -0.027225494
-0.14294603 -0.11059646 0.0968239 0.23916352 -0.2420637 -0.30762017 0.25146988 -0.22819042
-0.12317185 -0.15233168 0.15837747 -0.23719072 -0.31219938 -0.07034439 -0.1406978 -0.3022159
0.28892222 -0.11692454 -0.3032462 -0.18802045 0.096015215 -0.12731339 0.18185353 -0.19833896
0.96321756 0.3783503 -0.07945129 0.26496175 -0.71694577 -0.16053854 0.2655978 1.1067715
0.028257098 -0.24904044 -0.36325893 -0.5564784 -0.0753919 0.061051052 0.5017642 0.01859188
-0.23125377 -0.6260165 0.10293949 0.6416789 -0.15425864 -0.40492234 -0.17057766 -0.38218227
0.27928525 -0.16170813 -0.18362533 -0.17354798 -0.017210495 0.16640905 -0.11013621 -0.2593269
-0.1067629 -0.28787327 0.2049425 -0.24846217 0.28376642 -0.15867662 0.019528896 0.23894879
0.294868 -0.18966742 -0.15004165 -0.23706044 -0.31462836 -0.14907509 0.24236217 0.06362865
0.1222914 0.04183459 0.66456383 0.044024713 -0.026153356 0.3620141 -0.06451507 -0.19838797
0.18811545 0.91612244 -0.043621883 -0.48510328 0.28282347 0.24154013 -0.18714607 -0.08917155
-0.32989794 0.29278734 0.052406162 0.09765136 -0.052894097 0.26840276 -0.0890394 0.2153399
0.28556612 -0.12723236 -0.03542891 -0.30528495 -0.16186917 -0.20512906 0.026581978 0.32927418
00000000: 51d0 893e b05f 54bd 1587 813e c0d7 17bd
00000010: c08b b6bc 66bb a0bd e2b6 593e 38e0 1bbe
00000020: 6036 d93d c299 eabd d473 d93e bf9f 9c3e
00000030: fcbc c1bd dee5 333e 5c35 31be 90e7 44bd
00000040: 48a5 10bd e994 5f3e 2dc3 a2be 90f5 863c
00000050: 28c2 f4bd f691 96be 2a3f 7a3e 9b87 8cbe
00000060: ee51 ffbd 0586 66be 0c9d 8dbe a61e 3f3e
00000070: 4aa8 1d3e 8322 9f3e 84d3 87be 8030 723e
00000080: b299 5a3e e695 1cbe de51 6e3d dafa 183e
00000090: 1cbd d03d 4041 913d ab13 753d 5cd9 133e
000000a0: 14a4 16be 0dbf e53d 1024 1ebd a264 21be
000000b0: a905 d13e 406b 82bc 70f1 d33d 99b9 40bf
000000c0: 99dd 27bd 6dd0 dd3e eb7d fc3e 4cac 893e
000000d0: 9a85 373e 3bac d83e 6c0b fabe 8656 463e
000000e0: aa1e 0c3e 27c1 853f 370c 623d 6435 afbe
000000f0: 717c 063e 5538 59be fcc6 14be ae8d e2bc
00000100: f3de e5bd 0777 a03e e0f7 383e e22e f8be
00000110: f004 34be 4a61 ad3e 245e 50be 8e34 60be
00000120: e4ec bebd 4d7f 95be 08e0 fcbd 780a 623d
00000130: 682d c9bd 44cb 24be 7615 183e 5671 113e
00000140: bad8 993e 1144 803d 2e22 453e ed77 dc3d
00000150: 5884 8abe 60b4 78bc 1d4a 85be acb5 093f
00000160: 62e5 b3be 10b9 9ebc 5051 a9be 7317 6d3d
00000170: e708 86be 6580 02be 102f d73b 0008 dfbc
00000180: 7260 12be 6680 e2bd 9c4b c63d 48e7 743e
00000190: 8cdf 77be 6480 9dbe a9c0 803e c0aa 69be
000001a0: 8641 fcbd d6fc 1bbe b42d 223e 20e2 72be
000001b0: 99d8 9fbe b810 90bd 1613 10be 0bbc 9abe
000001c0: 9ded 933e 2276 efbd 1643 9bbe 6f88 40be
000001d0: a0a3 c43d 715e 02be d037 3a3e 5e19 4bbe
000001e0: 6d95 763f 21b7 c13e 5cb7 a2bd 11a9 873e
000001f0: c289 37bf 3764 24be 6ffc 873e b0aa 8d3f
00000200: 6e7b e73c 7504 7fbe 13fd b9be 5e75 0ebf
00000210: 1267 9abd ab10 7a3d 9e73 003f 004e 983c
00000220: cacd 6cbe 9e42 20bf f0d1 d23d 1245 243f
00000230: faf5 1dbe fb51 cfbe e9ab 2ebe 65ad c3be
00000240: 7afe 8e3e d196 25be 4708 3cbe 90b6 31be
00000250: 06fd 8cbc 2267 2a3e 188f e1bd 7fc6 84be
00000260: 82a6 dabd 2064 93be 72dc 513e de6c 7ebe
00000270: d549 913e 207c 22be 10fb 9f3c feae 743e
00000280: f0f8 963e 2d38 42be 85a4 19be f9bf 72be
00000290: f816 a1be 24a7 18be ca2d 783e bd4f 823d
000002a0: ea73 fa3d bf5a 2b3d db20 2a3f 4253 343d
000002b0: 903f d6bc ea59 b93e 7a20 84bd 3726 4bbe
000002c0: 56a1 403e 0087 6a3f dcac 32bd 755f f8be
000002d0: 3dce 903e 4c56 773e 38a3 3fbe 939f b6bd
000002e0: 62e8 a8be 39e8 953e d8a7 563d 70fd c73d
000002f0: 7ba7 58bd 166c 893e 4a5a b6bd 1082 5c3e
00000300: b935 923e 3349 02be e81d 11bd 4f4e 9cbe
00000310: 08c1 25be 5a0d 52be 73c2 d93c a096 a83e

layers.2.bias f4 [20]
-0.10270758 0.06753702 -0.29590207 0.038852572 -0.017437857 0.1506524 0.08307188 -0.3116331
0.14997067 0.07660918 -0.039669752 -0.250668 0.28837907 -0.23489231 0.13083781 -0.2683289
0.26785624 0.09678004 -0.1216814 0.06985939
00000000: 5a58 d2bd d950 8a3d 7a80 97be e023 1f3d
00000010: d6d9 8ebc 9f44 1a3e 9721 aa3d 608e 9fbe
00000020: e991 193e 46e5 9c3d c07c 22bd 8e57 80be
00000030: 6ca6 933e 9c87 70be 59fa 053e 6862 89be
00000040: 7424 893e 9d34 c63d 1934 f9bd 7112 8f3d

layers.4.weight f4 [40, 20]
0.10043657 0.18386681 0.1963459 0.02843703 -0.09142942 0.1154014 0.21255973 0.005197063
-0.1612848 -0.17078146 -0.025190085 -0.17576113 0.099745706 0.10883691 0.14743753 0.02125822
-0.20142005 0.006194573 -0.097485155 0.030284502 -0.15652156 0.23873523 -0.011246949 0.22086957
-0.1227435 0.14067517 0.16655341 0.00061938167 0.20515971 -0.068944335 0.038102835 -0.09843205
0.088591255 0.0078969 -0.19857384 -0.065941945 0.09009075 -0.14009982 0.07179848 -0.103200324
-0.11833955 0.14396131 -0.11116477 -0.20391276 0.2868767 -0.27610755 0.1781831 0.18525073
-0.20017076 0.16442661 0.010446116 -0.16708753 -0.14395988 0.29485172 0.22294572 0.024831355
0.056103736 -0.25203672 0.054349188 0.1357372 -0.0601701 -0.20501773 0.08741149 0.13526069
0.12726039 -0.23883137 -0.06051205 -0.15409255 0.013871271 0.16986999 -0.085126966 -0.042527318
-0.047056396 0.21046647 0.04267525 0.05418971 0.0529323 -0.35277683 0.07877572 -0.10043671
-0.1305757 -0.16988578 0.19751164 -0.13822953 0.12611014 -0.1317732 -0.16367236 0.0057590604
-0.012910133 -0.08412447 0.18089068 0.08344236 -0.21149205 -0.087501526 0.12939093 0.038372815
0.13849424 -0.006724998 0.04773119 -0.12170226 0.063097954 0.003559234 -0.14199857 -0.10496031
0.08160879 0.32941344 0.18257776 -0.10749568 -0.0147517305 -0.017838074 0.16231391 0.03968817
0.43940946 -0.27799854 0.17640582 0.09021577 0.1251704 0.1606326 -0.07783235 -0.15327194
-0.102862254 0.2512254 -0.19905046 0.1933484 -0.10681091 0.298315 -0.0711683 0.05589935
0.21975945 -0.15540256 -0.09734301 -0.17549062 0.2767582 0.19444846 -0.11011788 -0.12669897
0.18359159 0.035188578 -0.07719462 0.03660864 0.078661144 0.029446218 0.14786476 0.20637812
-0.094476976 -0.03895286 -0.086342156 -0.088277236 0.14803825 0.20559531 -0.11389613 0.02992171
0.06702986 -0.23226884 0.10981944 -0.20657128 -0.12316863 0.25729096 0.0017821161 0.081089914
-0.035185933 0.20759909 0.13472736 -0.07154888 0.049623743 -0.15829724 0.08833382 0.049618363
0.13592497 0.18781556 0.08757815 -0.14514223 -0.15771018 -0.14855006 0.059300505 0.17367494
0.16496961 -0.10019857 0.12897986 0.010184005 0.1685288 0.08744499 0.06568819 0.12002048
0.015214846 -0.1581751 0.097280204 0.1655272 -0.17234246 -0.04444295 0.057724595 0.059506744
0.18921006 0.013522163 -0.041830957 -0.09777829 0.16416338 -0.10491111 -0.053240255 -0.08285135
0.09944984 -0.1771753 -0.2030801 -0.033909824 0.1068008 -0.17727566 0.093489096 0.21517566
-0.105894536 -0.15197232 0.11704874 -0.03619723 -0.24449351 0.33093193 -0.09106031 -0.12942529
-0.16801558 -0.17643963 0.016392218 0.088387944 -0.15968041 0.07020135 0.14994407 0.20910922
0.068758644 0.2156441 0.14699987 0.12728155 -0.091202214 0.20006715 -0.022226185 -0.14257088
0.14220214 0.20077622 -0.090425126 -0.207699 0.1676704 -0.11043552 -0.024056097 0.20903252
0.108009964 -0.17892683 -0.20402089 0.018110795 0.10286846 -0.27221525 0.02521397 -0.10536139
-0.03120592 -0.1168379 0.086848855 0.18051961 -0.18012851 0.2975481 0.01616989 -0.19276923
00000000: b0b1 cd3d 9547 3c3e e60e 493e c6f4 e83c
00000010: 593f bbbd 9257 ec3d 42a9 593e 204c aa3b
00000020: d827 25be 56e1 2ebe 705b cebc bafa 33be
00000030: 7a47 cc3d e3e5 de3d ddf9 163e b825 ae3c
00000040: 0f41 4ebe d8fb ca3b 4ca6 c7bd 3417 f83c
00000050: 3047 20be 0277 743e 2045 38bc a22b 623e
00000060: f260 fbbd 270d 103e fa8c 2a3e 005e 223a
00000070: 6315 523e b032 8dbd b811 1c3d be96 c9bd
00000080: 556f b53d 0062 013c f156 4bbe 920c 87bd
00000090: 8081 b83d 5476 0fbe 150b 933d b15a d3bd
000000a0: 025c f2bd 986a 133e 5baa e3bd 82ce 50be
000000b0: 81e1 923e f85d 8dbe a175 363e 5eb2 3d3e
000000c0: 90f9 4cbe 735f 283e 3026 2b3c fe18 2bbe
000000d0: 386a 13be cef6 963e e24b 643e 206b cb3c
000000e0: 08cd 653d f50a 81be 419d 5e3d b1fe 0a3e
000000f0: ec74 76bd 2bf0 51be cc04 b33d c781 0a3e
00000100: 8c50 023e 3690 74be 7cdb 77bd 70ca 1dbe
00000110: 5444 633c 66f2 2d3e 0c57 aebd 2031 2ebd
00000120: 35be 40bd 8684 573e 3ecc 2e3d 08f6 5d3d
00000130: 8acf 583d 2a9f b4be 2a55 a13d c3b1 cdbd
00000140: a3b5 05be 8af6 2dbe 7e40 4a3e 0b8c 0dbe
00000150: 0423 013e 8eef 06be ba99 27be 80b6 bc3b
00000160: 0685 53bc 7349 acbd 683b 393e d4e3 aa3d
00000170: 5f91 58be 0034 b3bd 0e7f 043e d02c 1d3d
00000180: 6fd1 0d3e 5f5d dcbb c881 433d 093f f9bd
00000190: 8039 813d 0a42 693b 1368 11be 6ef5 d6bd
000001a0: 8222 a73d e1a8 a83e aaf5 3a3e b226 dcbd
000001b0: 3eb1 71bc 2721 92bc 9e35 263e 1090 223d
000001c0: 47fa e03e d355 8ebe baa3 343e 0cc3 b83d
000001d0: ab2c 003e df7c 243e 9166 9fbd 52f3 1cbe
000001e0: 72a9 d2bd 9ea0 803e e2d3 4bbe 1ffd 453e
000001f0: aebf dabd bebc 983e b0c0 91bd b8f6 643d
00000200: 9f08 613e d921 1fbe c65b c7bd d0b3 33be
00000210: 40b3 8d3e 7f1d 473e 7c85 e1bd 60bd 01be
00000220: 6fff 3b3e e621 103d 3718 9ebd f1f2 153d
00000230: 1819 a13d 3239 f13c dc69 173e c954 533e
00000240: 257d c1bd 098d 1fbd 28d4 b0bd b2ca b4bd
00000250: 5797 173e 9487 523e 6042 e9bd 601e f53c
00000260: f446 893d e2d7 6dbe 04e9 e03d 6c87 53be
00000270: d63f fcbd a4bb 833e e595 e93a 7812 a63d
00000280: 201f 10bd db94 543e f8f5 093e 3888 92bd
00000290: 4442 4b3d ac18 22be 5de8 b43d a03c 4b3d
000002a0: ea2f 0b3e b952 403e 2c5c b33d 2aa0 14be
000002b0: c77e 21be 821d 18be 16e5 723d d8d7 313e
000002c0: cbed 283e e834 cdbd 4c13 043e d0da 263c
000002d0: d092 2c3e 5c16 b33d 8887 863d 4ccd f53d
000002e0: b047 793c a7f8 21be d83a c73d f67f 293e
000002f0: 8b7a 30be d009 36bd a070 6c3d 58bd 733d
00000300: 48c0 413e 108c 5d3c f056 2bbd fc3f c8bd
00000310: 721a 283e a3db d6bd 7412 5abd f8ad a9bd
00000320: 5cac cb3d 716d 35be 3bf4 4fbe 07e5 0abd
00000330: 61ba da3d c087 35be 3677 bf3d 0257 5c3e
00000340: 3cdf d8bd a29e 1bbe 40b7 ef3d 8c43 14bd
00000350: 825c 7abe e96f a93e d47d babd 1088 04be
00000360: 470c 2cbe 97ac 34be f948 863c bd04 b53d
00000370: 4383 23be bac5 8f3d f08a 193e ba20 563e
00000380: 55d1 8c3d cfd1 5c3e 2287 163e 1856 023e
00000390: 3ac8 babd 67de 4c3e b013 b6bc 1afe 11be
000003a0: 709d 113e 4898 4d3e cf30 b9bd 0caf 54be
000003b0: cab1 2b3e 052c e2bd 4b11 c5bc 9f0c 563e
000003c0: 5434 dd3d 9838 37be daea 50be 175d 943c
000003d0: b3ac d23d cc5f 8bbe 878d ce3c b6c7 d7bd
000003e0: 8fa3 ffbc b548 efbd d0dd b13d 22da 383e
000003f0: 9c73 38be 3958 983e b876 843c 4c65 45be

layers.4.bias f4 [40]
-0.031171393 -0.097462595 0.12742761 0.15596285 0.017646981 0.028794201 -0.11732672 0.010060949
0.017831216 -0.15144426 0.21290168 0.030595096 0.15339154 0.027492568 -0.025733046 0.057258297
0.04252347 0.1418705 -0.017923666 -0.030591875 0.017094836 0.16467483 0.004757855 -0.19100192
0.07261268 0.05598359 -0.08233516 0.043306094 -0.17810312 0.11372058 0.05531248 -0.1954951
0.13153759 -0.110014044 0.10289899 0.15214276 -0.038809806 -0.009198236 0.1247525 0.0011411898
00000000: 265b ffbc 789a c7bd 627c 023e bab4 1f3e
00000010: 6790 903c d1e1 eb3c fe48 f0bd aed6 243c
00000020: c512 923c 3414 1bbe e602 5a3e 91a2 fa3c
00000030: ac12 1d3e 1838 e13c 1cce d2bc ad87 6a3d
00000040: 172d 2e3d 8046 113e a7d4 92bc d09b fabc
00000050: 780a 8c3c 85a0 283e c8e7 9b3b 0296 43be
00000060: f5b5 943d 0d4f 653d 569f a8bd bb61 313d
00000070: aa60 36be 56e6 e83d 578f 623d de2f 48be
00000080: cab1 063e 0b4f e1bd b5bc d23d 50cb 1b3e
00000090: 08f7 1ebd 33b4 16bc 3d7e ff3d fa93 953a

layers.6.weight f4 [80, 40]
-0.070867516 0.023196664 0.089785345 0.09420394 0.07778074 0.16564259 0.050178643 0.123385675
-0.0231371 -0.07073734 0.021793185 -0.017225487 -0.0536953 0.25225666 -0.09030069 0.079350814
-0.052564614 -0.04649808 0.16986062 0.06707537 -0.098613605 -0.06845069 0.12551393 0.14221953
-0.07252204 0.08054369 -0.12999144 -0.0020303654 -0.1532891 0.06942629 0.12509926 -0.14196515
-0.12342025 0.15316524 0.09263653 -0.12785374 -0.0661293 -0.14267582 -0.15857291 0.2035728
0.12780018 0.0031811341 -0.13627796 -0.13670638 0.08119862 -0.11538541 -0.11189137 0.016394474
-0.025255501 0.072400376 0.068021715 0.08347475 -0.08111152 -0.010628609 -0.12783922 -0.022316443
0.14210738 -0.053875867 -0.09274037 -0.15172021 -0.0039492995 0.09079543 -0.11831071 -0.012190774
-0.10630472 0.024051206 0.109611586 -0.14302273 0.15040676 0.10432989 0.16292815 0.09736271
0.036019832 -0.061743952 -0.021335931 -0.02923511 -0.113945946 -0.13979593 -0.03677001 0.16399637
-0.06707739 -0.06368859 0.08705609 -0.041381083 0.06591021 -0.028703302 -0.10272266 -0.033964753
-0.0979522 0.11274062 0.027019806 0.1399241 -0.09085342 -0.073523484 -0.069307074 0.10708482
0.033089437 -0.036992922 -0.11054054 -0.05878579 -0.077182256 0.07566307 0.053284675 0.14858313
-0.1281245 -0.1656606 0.13621537 -0.15048736 -0.026641771 0.057292134 0.13230224 -0.004572004
-0.012533831 0.12734441 -0.1495326 -0.0070589436 -0.011578774 0.11803033 -0.07594341 0.04477489
0.14029454 0.15377663 -0.13370152 0.13617049 0.0836855 -0.054573625 0.13451518 -0.08630409
-0.06375769 0.09945689 0.09487049 -0.14154954 -0.08500455 0.10884337 -0.15025711 -0.13535886
-0.11885169 0.07309647 -0.0896999 -0.09307192 0.068994805 0.013524264 0.048875347 -0.14738104
-0.15505277 -0.12197019 -0.11581892 0.0890166 0.06861426 -0.06848293 -0.094417736 0.07214296
-0.033983372 -0.12321394 0.1058505 -0.12902522 -0.15234755 0.053027287 -0.049397774 0.0829611
-0.053985596 -0.052148644 0.090248406 -0.06963471 0.117004454 0.23025389 0.16843334 0.047735006
0.013297698 -0.1107865 -0.11717657 -0.103730015 -0.06776651 0.11854621 -0.04213563 0.13282645
0.21962246 0.04636121 0.15266578 0.14188235 -0.05890674 -0.13774255 0.029453514 -0.09624021
-0.10891472 0.16593152 0.026958153 -0.124152444 0.12597783 0.19691849 0.12643632 0.08623287
0.09634627 0.0640097 0.055883076 0.008984288 -0.0019121915 -0.06609039 -0.13046587 0.20742899
0.14845471 0.055824954 -0.00073974725 -0.17056264 0.12764405 0.16873461 0.24315155 0.09060465
0.044897214 0.12530221 -0.10158685 0.16689755 -0.1445425 0.29883075 -0.13096981 0.03527612
0.18124558 -0.10279459 0.20710741 -0.026132852 -0.040107258 -0.09379418 -0.1370832 0.09586753
0.035251014 0.04277219 -0.014795944 -0.14680883 -0.032156274 0.27991194 0.14211082 -0.11751509
0.11206301 0.15881817 0.04026337 -0.19946954 -0.07907598 -0.03620031 -0.045520645 0.108117536
-0.07333514 0.02154462 -0.0061800526 -0.05956108 0.09695042 -0.049024668 -0.144301 -0.013189271
0.062258177 -0.047505483 0.016748901 0.14055653 0.028445214 -0.103357606 0.07399385 0.12761702
00000000: fd22 91bd ee06 be3c 61e1 b73d ffed c03d
00000010: 824b 9f3d 369e 293e 1f88 4d3d a1b1 fc3d
00000020: 048a bdbc bdde 90bd 9f87 b23c 771c 8dbc
00000030: 9aef 5bbd c927 813e 91ef b8bd ae82 a23d
00000040: fe4d 57bd c574 3ebd f1ef 2d3e d05e 893d
00000050: eef5 c9bd e02f 8cbd b986 003e ffa1 113e
00000060: 6f86 94bd 17f4 a43d 7a1c 05be e10f 05bb
00000070: d1f7 1cbe 5f2f 8e3d 051a 003e 505f 11be
00000080: c2c3 fcbd 59d7 1c3e 39b8 bd3d 17ec 02be
00000090: cc6e 87bd 9c19 12be f060 22be 6375 503e
000000a0: 0dde 023e 937a 503b 738c 0bbe c2fc 0bbe
000000b0: 764b a63d 304f ecbd 4d27 e5bd b44d 863c
000000c0: a0e4 cebc a646 943d f84e 8b3d cff4 aa3d
000000d0: cc1d a6bd 9e23 2ebc 49e8 02be f9d0 b6bc
000000e0: 9984 113e f1ac 5cbd aaee bdbd 8b5c 1bbe
000000f0: 2069 81bb f4f2 b93d e34c f2bd d0bb 47bc
00000100: 4ab6 d9bd 0907 c53c 0a7c e03d 8d74 12be
00000110: 3b04 1a3e e9aa d53d a3d6 263e 1a66 c73d
00000120: 8889 133d 3ae7 7cbd b1c8 aebc 787e efbc
00000130: 7e5c e9bd aa26 0fbe 269c 16bd aaee 273e
00000140: df5f 89bd 2a6f 82bd 774a b23d 367f 29bd
00000150: effb 863d 3023 ebbc 4260 d2bd a01e 0bbd
00000160: 2a9b c8bd 8ee4 e63d a458 dd3c 4348 0f3e
00000170: 5c11 babd 7b93 96bd def0 8dbd 494f db3d
00000180: ca88 073d e485 17bd 1463 e2bd 5ec9 70bd
00000190: bb11 9ebd 3df5 9a3d 0841 5a3d 2d26 183e
000001a0: 1233 03be efa2 29be 0b7c 0b3e 5c19 1abe
000001b0: d83f dabc 28ab 6a3d 3d7a 073e c0d0 95bb
000001c0: b35a 4dbc 9366 023e 131f 19be b64e e7bb
000001d0: e6b4 3dbc e3b9 f13d 3888 9bbd e065 373d
000001e0: 5fa9 0f3e 9f77 1d3e 0de9 08be 4770 0b3e
000001f0: 4e63 ab3d 9888 5fbd 59be 093e 33c0 b0bd
00000200: 6493 82bd 0eb0 cb3d 764b c23d 5df2 10be
00000210: de16 aebd 46e9 de3d 00dd 19be 839b 0abe
00000220: 8468 f3bd 9ab3 953d 95b4 b7bd 7e9c bebd
00000230: 264d 8d3d e094 5d3c 8431 483d 0eeb 16be
00000240: 27c6 1ebe 82cb f9bd 7832 edbd 564e b63d
00000250: a285 8c3d c740 8cbd 165e c1bd b0bf 933d
00000260: 2632 0bbd 9757 fcbd 26c8 d83d 301f 04be
00000270: ff00 1cbe 2433 593d 5255 4abd 82e7 a93d
00000280: 0020 5dbd d199 55bd 28d4 b83d a59c 8ebd
00000290: 08a0 ef3d adc7 6b3e ca79 2c3e c885 433d
000002a0: 97de 593c 08e4 e2bd 45fa efbd 6770 d4bd
000002b0: 2bc9 8abd 5bc8 f23d 6996 2cbd a803 083e
000002c0: b6e4 603e 41e5 3d3d 6b54 1c3e 9b49 113e
000002d0: 3248 71bd 620c 0dbe 7f48 f13c 9619 c5bd
000002e0: ae0e dfbd f4e9 293e 58d7 dc3c a343 febd
000002f0: 5500 013e 00a5 493e 8678 013e dc9a b03d
00000300: 3151 c53d 8517 833d a7e5 643d d632 133c
00000310: 80a2 faba 665a 87bd d898 05be 4468 543e
00000320: 8304 183e b5a8 643d 99eb 41ba f9a7 2ebe
00000330: 1fb5 023e c4c8 2c3e b8fc 783e ee8e b93d
00000340: 24e6 373d 394f 003e c40c d0bd 31e7 2a3e
00000350: f302 14be 5800 993e f31c 06be b17d 103d
00000360: 7198 393e f885 d2bd f713 543e 9014 d6bc
00000370: 8247 24bd 2a17 c0bd 8a5f 0cbe 3256 c43d
00000380: 5e63 103d e431 2f3d b06a 72bc 0e55 16be
00000390: 4cb6 03bd 9e50 8f3e 8085 113e c0ab f0bd
000003a0: 4b81 e53d 3ba1 223e 34eb 243d be41 4cbe
000003b0: 96f2 a1bd c746 14bd db73 3abd ba6c dd3d
000003c0: bc30 96bd 587e b03c 0a82 cabb 52f6 73bd
000003d0: f18d c63d 17ce 48bd a4c3 13be d017 58bc
000003e0: 6e02 7f3d 1c95 42bd fe34 893c 0dee 0f3e
000003f0: f005 e93c 27ad d3bd 168a 973d 09ae 023e

layers.6.bias f4 [80]
0.016097635 -0.115480125 0.04027325 0.01838985 -0.028983215 0.021348953 0.04270936 0.07158388
-0.07117056 0.04050861 -0.10341227 0.11567477 0.016871275 -0.10869919 0.08064974 0.046519056
0.021776456 0.1400772 -0.10720335 -0.08086101 0.092204385 -0.00526507 0.055366356 -0.08059603
0.054165624 0.011462936 0.068271466 -0.09985337 -0.046831913 -0.009008504 0.040295683 -0.06691029
-0.14743678 0.011356879 0.013739634 0.011241127 -0.09105444 -0.14610709 -0.12945563 0.05961343
0.005413721 -0.13632438 0.12876348 -0.10410969 -0.010815261 -0.15040612 -0.005744017 0.0956487
0.0320243 -0.081419 -0.07143784 0.0053651407 0.016674198 -0.113073125 -0.124000624 -0.004127682
-0.06984297 -0.11994449 0.042045526 0.03004931 0.019825224 0.09992445 -0.05338488 0.10354775
0.08370405 0.018856186 -0.019366404 0.07232842 0.0480346 -0.1735875 0.07283424 -0.0779047
-0.01647212 -0.0977907 0.13410546 0.040695325 0.1551292 0.01353013 -0.16859531 -0.10551384
00000000: 30df 833c d880 ecbd 90f5 243d 50a6 963c
00000010: 356e edbc 00e4 ae3c 03f0 2e3d 929a 923d
00000020: dfc1 91bd 5bec 253d d0c9 d3bd e5e6 ec3d
00000030: a135 8a3c ae9d debd b12b a53d c48a 3e3d
00000040: 8a64 b23c 6670 0f3e 6e8d dbbd 759a a5bd
00000050: a7d5 bc3d 9c86 acbb d5c7 623d 880f a5bd
00000060: c6dc 5d3d 0acf 3b3c e9d1 8b3d ec7f ccbd
00000070: d2d2 3fbd 6898 13bc 160d 253d 4308 89bd
00000080: abf9 16be 3412 3a3c 341c 613c b42c 383c
00000090: c07a babd 199d 15be 0490 04be 362d 743d
000000a0: 9565 b13b 9e98 0bbe 93da 033e 7637 d5bd
000000b0: 7e32 31bc 1004 1abe 4f38 bcbb 77e3 c33d
000000c0: ea2b 033d 01bf a6bd 014e 92bd 10ce af3b
000000d0: 5498 883c e292 e7bd 0af4 fdbd 8241 87bb
000000e0: d509 8fbd 75a5 f5bd ee37 2c3d f829 f63c
000000f0: 8268 a23c 31a5 cc3d 1baa 5abd d810 d43d
00000100: 076d ab3d 4a78 9a3c 4ba6 9ebc ec20 943d
00000110: eebf 443d ecc0 31be 1e2a 953d 808c 9fbd
00000120: 8af0 86bc 7e46 c8bd f152 093e 24b0 263d
00000130: 30da 1e3e 7aad 5d3c 40a4 2cbe a417 d8bd

layers.8.weight f4 [80, 80]
0.007219751 -0.080989264 0.043841463 -0.057928927 0.00689969 -0.05088581 -0.08276497 -0.105471164
-0.085371636 -0.033270925 -0.07166506 -0.103522755 0.035680726 0.09447372 0.040896256 0.0057241735
0.06418876 -0.051414635 0.09866809 0.10014078 -0.090645045 -0.039875086 -0.05313271 -0.025506571
-0.047955412 -0.05385598 0.09887753 0.06307626 -0.06535293 0.07696423 -0.028166937 0.02620317
-0.10452672 -0.0016452344 0.012951699 -0.099115096 -0.010320583 -0.07301609 -0.034087315 -0.08498076
0.069210336 -0.025383651 -0.029294163 0.07035895 -0.039582893 -0.060248572 0.0043530073 -0.012501138
0.07264909 -0.011564828 -0.03630394 0.016038358 0.00030431262 -0.03171446 0.049692363 -0.0072306716
0.037515044 -0.032739807 0.043310978 -0.034651823 0.03006044 -0.086107135 0.029505292 0.00050978875
0.106630705 -0.086617365 -0.006953202 0.07917373 0.049819376 0.06983496 0.026471905 0.054231957
0.10038102 -0.018508442 0.09418417 -0.103549205 -0.087949604 -0.10433385 -0.002644674 0.052517068
-0.025719939 0.111242235 -0.060930654 0.050951645 0.01953153 -0.08577212 0.01447202 -0.14028326
-0.08876324 -0.11064737 -0.05595761 -0.046062063 -0.0725243 0.022830814 0.03360856 0.010355618
-0.077040985 0.07859431 0.08453666 0.078572795 0.036041185 -0.068676785 -0.10473429 0.0382998
-0.028060688 0.009787394 0.04782945 0.1108357 0.0069524935 -0.055719722 0.022017831 -0.070848815
-0.0069931746 0.060658455 0.06277834 -0.039309308 -0.071025796 0.054500237 0.05328104 0.13428518
-0.065366276 0.10059093 0.1107715 -0.07225255 0.13179614 0.0018270768 0.05900669 -0.15121488
0.0386343 0.030069768 0.09191 0.04657904 0.06150111 0.06616263 0.06232387 0.0157476
-0.038312934 -0.048432466 0.14041081 0.05236454 -0.035900045 0.07712416 -0.06622181 -0.04792472
0.047246937 0.054611072 0.06465998 0.042660918 -0.05129937 -0.0036304588 -0.06943107 -0.051609907
-0.060300477 -0.049327962 -0.02285964 0.03939322 0.04991231 0.039789345 -0.05944723 0.012608505
0.09334346 -0.07571491 0.031166613 0.04235767 -0.03172208 0.09850842 0.011375502 -0.058235213
-0.07970555 0.04200131 0.020210728 0.03870138 -0.035285927 -0.088724546 0.031783212 0.024770785
0.11561288 0.107116304 0.022017166 0.00589814 -0.025654566 -0.106474504 0.099613495 0.029989678
0.08668868 0.10430491 -0.008398284 -0.10608282 -0.06033455 0.10910914 -0.022101708 0.0057685077
-0.022474796 0.032697782 0.09588845 0.092747666 0.055603255 -0.07676462 -0.099063665 -0.040782973
0.022847647 -0.011600122 -0.08804813 -0.08188032 0.006260376 -0.07686984 -0.061066937 0.012735142
-0.093198486 -0.080445975 -0.092969045 -0.06646703 0.01964857 -0.05434225 0.015013143 -0.054445695
0.03616044 0.05787255 0.08492338 -0.10581728 0.0027993652 -0.07268348 -0.038787745 -0.0024399913
0.03704833 -0.085764565 -0.0044471854 0.080024056 -0.04918863 -0.009184022 -0.041650333 0.053937554
-0.009203214 0.046253216 0.0073412014 -0.014096782 -0.012932924 -0.009095084 -0.049989235 -0.04678032
0.09410797 0.02716653 0.04859571 0.07556923 0.0416418 -0.061168313 -0.04731603 -0.05094455
0.045133084 -0.09578214 0.08460608 0.072573185 0.047352165 -0.021266244 0.094683275 0.08484101
00000000: a993 ec3b b3dd a5bd 1b93 333d e246 6dbd
00000010: cb16 e23b a46d 50bd ae80 a9bd 4401 d8bd
00000020: 53d7 aebd 1847 08bd 22c5 92bd bd03 d4bd
00000030: f425 123d 707b c13d d582 273d d991 bb3b
00000040: 6675 833d 2798 52bd 7f12 ca3d 9c16 cd3d
00000050: 1ca4 b9bd 0f54 23bd afa1 59bd 28f3 d0bc
00000060: e56c 44bd 1798 5cbd 4d80 ca3d 202e 813d
00000070: c2d7 85bd 6c9f 9d3d 59be e6bc 08a8 d63c
00000080: 1b12 d6bd e8a4 d7ba 5d33 543c dbfc cabd
00000090: aa17 29bc 7689 95bd 249f 0bbd 650a aebd
000000a0: 26be 8d3d 60f1 cfbc 50fa efbc 5a18 903d
000000b0: ac21 22bd 35c7 76bd aca3 8e3b 93d1 4cbc
000000c0: 0cc9 943d 687a 3dbc 71b3 14bd e062 833c
000000d0: 268c 9f39 06e7 01bd 388a 4b3d 45ef ecbb
000000e0: 60a9 193d 2d1a 06bd da66 313d 12ef 0dbd
000000f0: 5041 f63c f058 b0bd 15b5 f13c 58a3 053a
00000100: 3361 da3d 7264 b1bd b0d7 e3bb d625 a23d
00000110: 670f 4c3d a205 8f3d 9cdb d83c 5422 5e3d
00000120: 9094 cd3d 049f 97bc a1e3 c03d 9b11 d4bd
00000130: ec1e b4bd fcac d5bd 4452 2dbb 231c 573d
00000140: 9fb2 d2bc f8d2 e33d 6c92 79bd acb2 503d
00000150: 9600 a03c 4ba9 afbd 0d1c 6d3c 6aa6 0fbe
00000160: 80c9 b5bd 179b e2bd cf33 65bd 93ab 3cbd
00000170: 9f87 94bd b007 bb3c 21a9 093d 9caa 293c
00000180: aac7 9dbd 0ef6 a03d 8e21 ad3d c6ea a03d
00000190: ec9f 133d 6aa6 8cbd ee7e d6bd 40e0 1c3d
000001a0: 87df e5bc 4e5b 203c d0e8 433d d4fd e23d
000001b0: bed1 e33b 5d3a 64bd bd5e b43c 2f19 91bd
000001c0: 0027 e5bb 0075 783d ee91 803d cc02 21bd
000001d0: f975 91bd a43b 5f3d 383d 5a3d 0e82 093e
000001e0: c1de 85bd 9e02 ce3d 2bdc e23d 25f9 93bd
000001f0: 91f5 063e 867a ef3a 00b1 713d 13d8 1abe
00000200: 003f 1e3d e054 f63c 4f3b bc3d aac9 3e3d
00000210: 97e8 7b3d 4680 873d 5047 7f3d 1c01 813c
00000220: 06ee 1cbd 1f61 46bd dac7 0f3e 337c 563d
00000230: ed0b 13bd 46f3 9d3d 4d9f 87bd b64c 44bd
00000240: 0186 413d dcaf 5f3d 746c 843d 37bd 2e3d
00000250: 4a1f 52bd feec 6dbb e031 8ebd e964 53bd
00000260: a2fd 76bd 1e0c 4abd 2444 bbbc c95a 213d
00000270: da70 4c3d 27fa 223d f07e 73bd e793 4e3c
00000280: db2a bf3d 6b10 9bbd 2051 ff3c 3c7f 2d3d
00000290: 03ef 01bd c8be c93d 5060 3a3c 0c88 6ebd
000002a0: aa3c a3bd 9109 2c3d f890 a53c 5785 1e3d
000002b0: fa87 10bd 37b5 b5bd 1d2f 023d 1aec ca3c
000002c0: 72c6 ec3d cb5f db3d 585d b43c 2f45 c13b
000002d0: 8629 d2bc 4e0f dabd 2902 cc3d eaac f53c
000002e0: d689 b13d d09d d53d f598 09bc f341 d9bd
000002f0: 5c21 77bd 9d74 df3d a40e b5bc c005 bd3b
00000300: 101d b8bc 1cee 053d 2a61 c43d 7df2 bd3d
00000310: 3dc0 633d c536 9dbd e4e1 cabd 0c0c 27bd
00000320: fd2a bb3c 700e 3ebc 9452 b4bd dfb0 a7bd
00000330: d723 cd3b ef6d 9dbd 5321 7abd 0fa7 503c
00000340: d9de bebd dcc0 a4bd 8e66 bebd de1f 88bd
00000350: 0af6 a03c fb95 5ebd b0f9 753c 7302 5fbd
00000360: f81c 143d c40b 6d3d 4fec ad3d bbb6 d8bd
00000370: 8e75 373b 14db 94bd e6df 1ebd 43e8 1fbb
00000380: fdbf 173d 55a5 afbd b2b9 91bb a7e3 a33d
00000390: 047a 49bd 9578 16bc 8a99 2abd a0ed 5c3d
000003a0: 14c9 16bc 0374 3d3d 768e f03b 30f6 66bc
000003b0: 9de4 53bc 8c03 15bc 83c1 4cbd b99c 3fbd
000003c0: aebb c03d 588c de3c 4c0c 473d 0ac4 9a3d
000003d0: 9890 2a3d a08b 7abd 74ce 41bd 3cab 50bd
000003e0: 78dd 383d 6d29 c4bd f445 ad3d 40a1 943d
000003f0: 58f4 413d 8c36 aebc 4ee9 c13d 20c1 ad3d

layers.8.bias f4 [80]
-0.022012489 0.06995161 -0.048781402 -0.12745333 0.04350323 -0.10395746 -0.06040718 -0.037281513
-0.01609751 -0.09313727 -0.008193426 0.21102732 -0.025632365 0.057625107 -0.033656232 -0.073943324
-0.06289357 0.07205479 0.00788052 -0.12952901 -0.10935686 0.01556135 -0.073166 -0.04785181
0.04673486 -0.098490074 -0.096830055 -0.04481618 -0.10347144 -0.030119501 -0.023888404 -0.1033946
0.017486975 -0.09358616 -0.09189235 -0.08749764 0.031881098 -0.052481875 0.017897906 0.044470333
-0.018587664 -0.054722827 -0.108340874 -0.04604103 -0.06979888 0.02489027 0.02684303 0.017311305
-0.13365665 0.13806343 0.0731214 -0.08532732 -0.014654928 -0.006662516 0.041589387 -0.02097911
0.050081942 0.02324466 -0.07379822 -0.082300276 0.17195362 -0.021583572 0.050906822 -0.011993771
0.020958839 0.035293993 0.11531618 -0.020032926 -0.08114924 -0.0037726916 0.094376914 -0.006268602
0.0049864147 0.06705701 -0.10222958 0.0018255478 -0.028813597 0.04847957 0.014686143 -0.04496374
00000000: 8953 b4bc ca42 8f3d 02cf 47bd 2083 02be
00000010: 7130 323d a6e7 d4bd 856d 77bd 80b4 18bd
00000020: edde 83bc c1be bebd b83d 06bc 8c17 583e
00000030: f7fa d1bc 4e08 6c3d 1edb 09bd 996f 97bd
00000040: 58ce 80bd 7691 933d 4c1d 013c 41a3 04be
00000050: 7df6 dfbd 08f5 7e3c 0ed8 95bd 4200 44bd
00000060: 0d6d 3f3d 2ab5 c9bd d64e c6bd 2c91 37bd
00000070: d6e8 d3bd 2cbd f6bc 9db1 c3bc 8cc0 d3bd
00000080: d840 8f3c 1aaa bfbd 0e32 bcbd f631 b3bd
00000090: c195 023d 3cf7 56bd a19e 923c 8626 363d
000000a0: 2845 98bc 0b25 60bd d2e1 ddbd 8595 3cbd
000000b0: b7f2 8ebd aee6 cb3c eae5 db3c 70d0 8d3c
000000c0: 4add 08be 8060 0d3e acc0 953d 17c0 aebd
000000d0: 391b 70bc 3c51 dabb a259 2a3d 62dc abbc
000000e0: b922 4d3d 966b be3c 8523 97bd 0c8d a8bd
000000f0: 9c14 303e 08d0 b0bc ac83 503d 8681 44bc
00000100: dfb1 ab3c 6f90 103d e42a ec3d 171c a4bc
00000110: 9331 a6bd 433f 77bb af48 c13d d868 cdbb
00000120: 1465 a33b 3055 893d be5d d1bd 3847 ef3a
00000130: 7e0a ecbc 8392 463d 269e 703c e62b 38bd

layers.10.weight f4 [80, 80]
0.0659154 -0.096964344 -0.03680975 0.111431666 -0.1174878 -0.09712743 0.09432838 0.09889038
-0.03345342 -0.08609852 0.058096815 -0.02704568 0.0032758648 0.013180171 0.021830395 0.08039144
0.095805414 -0.014266616 -0.06094838 0.07812045 -0.02304893 0.07187657 -0.0100555755 -0.08991478
0.050816108 -0.10982697 0.007465765 0.08212068 -0.0022648126 0.083590575 -0.0365701 -0.038642794
-0.009247941 -0.092398986 0.09204659 0.051271148 -0.083884805 0.10673541 -0.039676823 0.058606967
-0.04059074 -0.007869583 0.011453606 0.09207948 -0.107472174 -0.11207112 -0.07254986 -0.02913877
0.04632937 0.056650728 0.098115325 -0.06630273 0.071943484 -0.13232702 -0.041987516 -0.014393352
0.026050363 -0.10720402 -0.072319746 0.0068565425 0.11246292 0.009198161 -0.019329023 -0.10163965
0.10628824 0.120541215 -0.04509905 -0.056415837 -0.050292995 0.1002634 0.03020044 -0.042200558
0.0027433448 0.10792386 -0.033152446 -0.06037555 -0.08812712 -0.06968508 0.03173567 0.108297646
-0.10702774 -0.050774213 0.099387 0.07610753 -0.099209 0.042305674 -0.0024023752 0.03258521
0.09075749 -2.46449e-05 0.101242885 -0.096995845 0.08162007 0.118874975 0.051879838 0.047560006
-0.028519407 -0.09456196 0.047439516 -0.046359368 0.048391223 -0.01062763 -0.06211158 -0.020977221
-0.104703486 0.12951759 0.08738248 0.11297069 0.11925315 0.11603503 0.097402774 -0.062345028
-0.03541141 0.070767134 -0.07032105 -0.043912042 0.123604245 0.028185396 0.043825377 0.002173491
-0.014340974 0.030239005 0.07050316 0.042663343 0.0028080791 0.050121613 0.08849255 0.050974004
-0.00819435 -0.045844115 -0.06091037 -0.021616034 -0.01652133 0.016823933 -0.098387875 -0.009585437
0.108374864 -0.08022203 0.064635806 0.04610799 0.028273374 0.13700777 0.101223126 0.058384765
-0.0975399 0.032500226 -0.0070066266 -0.009695615 -0.010671943 -0.0019052181 0.052448303 -0.038907453
-0.082932636 0.09490021 -0.0037546158 -0.03483156 0.12705757 0.120767616 -0.083190195 0.038967848
0.107991554 -0.11060076 -0.09657687 0.080652 -0.08161492 -0.08886878 -0.005480818 -0.015983941
-0.016316937 -0.05289518 -0.08829303 0.026915936 0.08886764 -0.07307388 -0.06117371 -0.103829175
0.07885525 0.07367262 0.009971996 -0.08417422 -0.09426914 0.017272746 -0.010453195 -0.0811487
-0.051091067 -0.11572741 0.093358144 -0.022773033 0.04148316 -0.038070645 -0.019679286 -0.00765106
-0.044047955 -0.051141776 0.032944202 -0.0033057127 0.1037698 0.09736096 -0.060956027 -0.029559085
-0.036222436 0.09428856 0.017303586 0.046078283 0.06560915 -0.026374321 0.0043966053 0.0041303434
-0.0046214093 -0.08547054 0.043151177 -0.06585272 -0.034664296 -0.086858526 0.019550214 -0.056417666
0.042581845 -0.0088617485 0.042485237 -0.03911124 0.10849645 0.027287528 0.04511528 0.0060840566
-0.07788974 0.08280082 0.051737983 -0.097216316 -0.0059949085 0.016857242 0.0056297025 -0.0060353354
-0.09994776 0.094036005 0.0886286 -0.026359098 0.06612612 -0.084779315 0.05714345 -0.08151785
0.0024715338 0.005290951 0.05280592 0.007391952 -0.0034219725 -0.0696471 -0.084648766 -0.049243607
0.1144093 0.051386543 0.109443836 -0.052812323 0.10095476 -0.06313675 -0.104485296 -0.10596677
00000000: a7fe 863d 3e95 c6bd d2c5 16bd 4936 e43d
00000010: 729d f0bd bfea c6bd 3d2f c13d 0a87 ca3d
00000020: 7406 09bd 6c54 b0bd edf6 6d3d e78e ddbc
00000030: e4af 563b a5f1 573c a8d5 b23c 44a4 a43d
00000040: a135 c43d 86be 69bc 02a5 79bd 9dfd 9f3d
00000050: 1cd1 bcbc 0634 933d 24c0 24bc 3d25 b8bd
00000060: 8d24 503d f6ec e0bd 60a3 f43b e32e a83d
00000070: 406d 14bb 8931 ab3d 87ca 15bd e847 1ebd
00000080: ad84 17bc ae3b bdbd ec82 bc3d b201 523d
00000090: cccb abbd 1898 da3d 2a84 22bd dc0d 703d
000000a0: 7a42 26bd 6cef 00bc e8a7 3b3c 2b94 bc3d
000000b0: 5f1a dcbd 8b85 e5bd 0595 94bd 6eb4 eebc
000000c0: dec3 3d3d 980a 683d b0f0 c83d bac9 87bd
000000d0: 1b57 933d bc80 07be 1afb 2bbd 18d2 6bbc
000000e0: 9267 d53c c88d dbbd 601c 94bd d9ac e03b
000000f0: f652 e63d e2b3 163c e657 9ebc 7328 d0bd
00000100: a6ad d93d 50de f63d c8b9 38bd 4b14 67bd
00000110: 0700 4ebd e656 cd3d ea66 f73c 7eda 2cbd
00000120: b0c9 333b 2f07 dd3d dcca 07bd 5a4c 77bd
00000130: fe7b b4bd 0db7 8ebd 43fd 013d 28cb dd3d
00000140: 5c31 dbbd 9ff8 4fbd 698b cb3d 44de 9b3d
00000150: 172e cbbd b748 2d3d 2b71 1dbb 1278 053d
00000160: 10df b93d 85bc ceb7 6e58 cf3d c2a5 c6bd
00000170: 6c28 a73d b974 f33d f47f 543d 48ce 423d
00000180: 88a1 e9bc b3a9 c1bd f04f 423d 52e3 3dbd
00000190: e035 463d 831f 2ebc b668 7ebd 6cd8 abbc
000001a0: c86e d6bd 42a0 043e 96f5 b23d 2d5d e73d
000001b0: ff3a f43d c6a3 ed3d 1b7b c73d 805d 7fbd
000001c0: 8e0b 11bd 5cee 903d 7c04 90bd 1ddd 33bd
000001d0: 3924 fd3d 0fe5 e63c 3d82 333d 2171 0e3b
000001e0: 68f6 6abc cab7 f73c f663 903d c2bf 2e3d
000001f0: c007 383b 524c 4d3d 953b b53d 1eca 503d
00000200: 9841 06bc 0ac7 3bbd 277d 79bd 1c14 b1bc
00000210: be57 87bc 58d2 893c 957f c9bd 3d0c 1dbc
00000220: a4f3 dd3d 734b a4bd c75f 843d bbdb 3c3d
00000230: 909d e73c c44b 0c3e 124e cf3d dd24 6f3d
00000240: 00c3 c7bd f51e 053d d897 e5bb 5bda 1ebc
00000250: 60d9 2ebc 83b8 f9ba 08d4 563d 6c5d 1fbd
00000260: 96d8 a9bd 0b5b c23d 0010 76bb 8aab 0ebd
00000270: 611b 023e 0355 f73d 9f5f aabd c09c 1f3d
00000280: ad2a dd3d a782 e2bd 18ca c5bd e02c a53d
00000290: b925 a7bd d600 b6bd 6f98 b3bb c1f0 82bc
000002a0: 19ab 85bc 9ea8 58bd fad2 b4bd cf7e dc3c
000002b0: 3d00 b63d c2a7 95bd 4991 7abd 64a4 d4bd
000002c0: dc7e a13d ace1 963d 9561 233c 8963 acbd
000002d0: 2e10 c1bd 937f 8d3c e143 2bbc 4a31 a6bd
000002e0: de44 51bd 7e02 edbd 8e32 bf3d 838e babc
000002f0: 3fea 293d f7ef 1bbd 7436 a1bc beb5 fabb
00000300: a16b 34bd 0a7a 51bd 80f0 063d a8a4 58bb
00000310: 4385 d43d 2f65 c73d 07ad 79bd e525 f2bc
00000320: fa5d 14bd 5c1a c13d 40c0 8d3c 95bc 3c3d
00000330: 175e 863d f60e d8bc 6611 903b d557 873b
00000340: 316f 97bb 2e0b afbd 4abf 303d cadd 86bd
00000350: 26fc 0dbd e2e2 b1bd c527 a03c 3616 67bd
00000360: 4d6a 2e3d de30 11bc 0005 2e3d 1c33 20bd
00000370: 6333 de3d 188a df3c cdca 383d c45c c73b
00000380: a884 9fbd 7a93 a93d 35eb 533d 5919 c7bd
00000390: f070 c4bb 3318 8a3c 5e79 b83b 10c4 c5bb
000003a0: 69b1 ccbd f395 c03d e982 b53d 09ef d7bc
000003b0: 226d 873d c7a0 adbd 400f 6a3d d5f2 a6bd
000003c0: 75f9 213b b75f ad3b 054b 583d 3038 f23b
000003d0: 2c43 60bb 24a3 8ebd 555c adbd aab3 49bd
000003e0: 6c4f ea3d b27a 523d 1724 e03d bc51 58bd
000003f0: 5fc1 ce3d d74d 81bd 63fc d5bd 1b05 d9bd

layers.10.bias f4 [80]
0.050868023 0.011377786 0.11014355 -0.02453385 -0.018959217 -0.014986735 0.029006189 0.006587648
-0.07483109 0.022993358 -0.10616897 -0.04590024 0.09586314 -0.049289763 0.007181957 -0.028546456
-0.024188135 0.065939784 0.023908509 -0.018847333 0.097728044 0.19588038 0.039479446 -0.09364019
0.09733818 0.059080224 -0.08715437 -0.09775477 -0.0043091793 -0.09182604 -0.06456787 0.038114503
-0.034883708 0.008355378 0.026780061 0.057979878 0.056898735 -0.09014648 0.021952527 -0.0019436309
-0.082617685 -0.07132792 0.0032348344 -0.010750717 -0.019019887 0.010348707 0.011153484 -0.0048166616
-0.09282156 -0.02193208 -0.057222422 0.15423875 0.022861963 0.08086622 0.054460183 -0.070493914
0.06922121 -0.10808195 -0.008673787 0.16908696 -0.041929223 0.12380323 -0.058275256 0.05722664
-0.08400877 -0.017774919 -0.11772129 -0.0051783216 -0.057021786 -0.024499513 -0.06997888 0.01430517
-0.002490951 0.016372997 -0.03136787 -0.0063996417 -0.021492416 -0.007658081 0.0315331 -0.08647204
00000000: fd5a 503d e569 3a3c f192 e13d 36fb c8bc
00000010: 5c50 9bbc ec8a 75bc 639e ed3c 32dd d73b
00000020: 0b41 99bd 915c bc3c 1e6f d9bd e401 3cbd
00000030: e553 c43d 10e4 49bd 9f56 eb3b 42da e9bc
00000040: 3226 c6bc 700b 873d c7db c33c b965 9abc
00000050: a425 c83d de94 483e 33b5 213d 6ec6 bfbd
00000060: 3d59 c73d 1bfe 713d fe7d b2bd a733 c8bd
00000070: 0434 8dbb 4a0f bcbd 293c 84bd f41d 1c3d
00000080: 38e2 0ebd ffe4 083c dc61 db3c 4f7c 6d3d
00000090: a60e 693d b89e b8bd c9d5 b33c 6ec1 feba
000000a0: 7633 a9bd 5f14 92bd 84ff 533b c623 30bc
000000b0: 98cf 9bbc a08d 293c 1abd 363c 16d5 9dbb
000000c0: 3b19 bebd e8aa b3bc 0f62 6abd c3f0 1d3e
000000d0: 0349 bb3c 309d a53d a411 5f3d 1d5f 90bd
000000e0: dac3 8d3d 125a ddbd 801c 0ebc 2225 2d3e
000000f0: fabd 2bbd 8c8c fd3d 09b2 6ebd 7b66 6a3d
00000100: ca0c acbd b59c 91bc dc17 f1bd e9ae a9bb
00000110: ad8f 69bd 34b3 c8bc 1651 8fbd 3b60 6a3c
00000120: 393f 23bb aa20 863c 987b 00bd 16b4 d1bb
00000130: dd10 b0bc a4f0 fabb da28 013d 4118 b1bd

layers.12.weight f4 [40, 80]
-0.02681642 -0.05729467 0.060364 -0.02553667 0.07486364 0.10247186 -0.08211885 0.061143696
-0.09726027 0.0075096595 -0.09689607 0.050407358 -0.08811261 0.060774658 -0.10995115 0.07817721
-0.038706765 -0.060556002 -0.009866833 -0.009662284 -0.035699837 0.027240282 -0.058964364 -0.009883784
-0.054064415 -0.038964078 -0.08872538 0.068944916 -0.10818228 0.070675135 -0.09814858 -0.09241873
-0.0451667 0.028547317 -0.05611099 -0.07531824 -0.10919404 -0.08408427 0.0728872 0.004943572
-0.09644611 0.096996106 0.008524794 -0.05114825 -0.08007194 0.048244115 -0.030305471 0.08040392
0.09832221 0.10926941 -0.08942638 -0.09243222 -0.051287502 0.023459341 -0.0836322 0.03222829
-0.040245302 -0.09569 -0.03159658 -0.05058649 -0.10489055 -0.092012 -0.020219475 -0.06913494
0.09209837 0.025795901 0.104951136 0.023964763 0.110988095 -0.007852446 -0.06236541 0.09709058
0.04618772 -0.06690297 -0.10691739 0.10702759 0.046170518 0.047607258 0.09868715 -0.07754078
0.16424991 -0.034735214 0.07006629 0.032350264 0.13401525 -0.026671316 -0.14254718 0.058337014
0.0828584 -0.21715535 0.030494304 0.06977196 0.29509845 -0.008009907 -0.089620374 -0.040723823
0.05058296 -0.0930711 -0.18581577 -0.03865494 0.16877101 0.15493903 -0.13519171 -0.046862073
0.042681094 0.19770406 -0.0008198197 -0.09325957 0.07057103 0.075636 -0.07000834 0.07994976
0.11682648 0.0015168026 -0.0054329704 -0.107202366 0.15972249 0.1115029 -0.12467249 0.054461364
0.028411819 0.036444068 0.004087149 0.13863304 0.008692421 -0.051257703 -0.1488576 0.06951601
0.05590066 -0.026187837 -0.09929084 0.008533055 0.08997791 0.2838793 -0.08876307 -0.035831634
0.085081816 -0.028195567 -0.08991769 0.10437026 -0.034528323 0.27969116 -0.02058085 0.10022472
0.041784406 0.072337076 -0.023181817 -0.018581932 -0.08543069 0.06970592 0.06072866 -0.04962336
-0.11906574 0.007252107 -0.09352118 0.032430008 0.063204095 -0.13986865 0.17295742 -0.002662912
0.008569299 0.03576898 0.08108997 -0.081357025 0.0027088178 -0.107215025 0.11097808 0.06320839
0.08437374 -0.10787935 0.07492926 -0.024863109 0.02102842 0.040636316 0.07374512 -0.10164648
0.08900808 -0.08994096 -0.037713997 -0.05329181 0.0759396 0.078773946 -0.026454352 0.010765985
0.060986444 0.10382597 0.06528852 -0.08581591 0.08453859 -0.110399134 -0.08637251 -0.09980629
0.0913709 -0.109658144 -0.06630504 -0.11210112 0.07841151 0.1035129 -0.040787905 0.045322623
-0.042946786 -0.034036547 0.011021353 -0.10600842 0.0823922 0.096740335 0.08862122 -0.1113857
-0.03206624 0.060220733 -0.038005285 -0.04572435 0.06371459 0.03525727 -0.11041052 0.10021547
-0.0012900893 0.05387467 -0.05594339 -0.074627884 -0.049425647 -0.05244815 -0.045003206 0.10354011
-0.050554756 0.045088742 -0.05991156 0.06054443 -0.044914983 0.0563301 0.07834388 -0.091988765
-0.079868376 0.082716115 -0.08712425 0.023936749 0.09847784 -0.08664065 0.07272829 0.08615053
0.09942491 -0.090440996 0.041137137 0.056721438 -0.093310155 0.016188245 -0.033726797 -0.010604156
-0.07098243 -0.011129613 -0.075863086 0.07139305 0.10428013 -0.04518615 -0.034686305 0.022201443
00000000: 1cae dbbc d1ad 6abd 3e40 773d 4732 d1bc
00000010: 1c52 993d c4dc d13d ed2d a8bd d071 7a3d
00000020: 6430 c7bd 9713 f63b 7271 c6bd f277 4e3d
00000030: 6274 b4bd d9ee 783d 122e e1bd 601b a03d
00000040: fc8a 1ebd 9209 78bd 7fa8 21bc 8e4e 1ebc
00000050: fe39 12bd 0327 df3c 9e84 71bd 98ef 21bc
00000060: a672 5dbd cc98 1fbd a7b5 b5bd fe32 8d3d
00000070: ac8e ddbd 20be 903d 1f02 c9bd 0846 bdbd
00000080: b800 39bd 10dc e93c a3d4 65bd 7340 9abd
00000090: 20a1 dfbd 6034 acbd e245 953d b0fd a13b
000000a0: 8a85 c5bd e5a5 c63d 94ab 0b3c d480 51bd
000000b0: c2fc a3bd 9f9b 453d 2e43 f8bc cfaa a43d
000000c0: 285d c93d a4c8 df3d 2e25 b7bd 1b4d bdbd
000000d0: d812 52bd ce2d c03c 5c47 abbd d001 043d
000000e0: 42d8 24bd 1ef9 c3bd 6a6b 01bd c833 4fbd
000000f0: dbd0 d6bd ca70 bcbd 50a3 a5bc 9f96 8dbd
00000100: 129e bc3d ed51 d33c 9ff0 d63d c051 c43c
00000110: ba4d e33d 8ca7 00bc df72 7fbd 6dd7 c63d
00000120: 562f 3d3d 6d04 89bd 81f7 dabd 4831 db3d
00000130: 4c1d 3d3d d4ff 423d 7d1c ca3d b3cd 9ebd
00000140: 2131 283e 8346 0ebd ea7e 8f3d b681 043d
00000150: 4b3b 093e ce7d dabc e3f7 11be cbf2 6e3d
00000160: aab1 a93d f95d 5ebe 31cf f93c 9ae4 8e3d
00000170: 2517 973e fc3b 03bc e38a b7bd 06ce 26bd
00000180: 1430 4f3d 109c bebd 7d46 3ebe a454 1ebd
00000190: 4fd2 2c3e 56a8 1e3e b26f 0abe 72f2 3fbd
000001a0: 5fd2 2e3d ef72 4a3e 2be9 56ba e0fe bebd
000001b0: 8b87 903d 0ce7 9a3d 8860 8fbd b3bc a33d
000001c0: b942 ef3d 73cf c63a 0f07 b2bb ea8c dbbd
000001d0: 4b8e 233e a25b e43d 4a54 ffbd e112 5f3d
000001e0: e7bf e83c 6046 153d 7eed 853b d2f5 0d3e
000001f0: a86a 0e3c 99f3 51bd 206e 18be 695e 8e3d
00000200: 17f8 643d e087 d6bc ff58 cbbd 3ace 0b3c
00000210: 5746 b83d a158 913e 6ac9 b5bd 31c4 12bd
00000220: 603f ae3d 64fa e6bc c426 b8bd 13c0 d53d
00000230: 926d 0dbd ae33 8f3e 2c99 a8bc 9e42 cd3d
00000240: 2026 2b3d 7625 943d cbe7 bdbc 2339 98bc
00000250: 49f6 aebd fac1 8e3d 9ebe 783d dd41 4bbd
00000260: bdd8 f3bd 15a3 ed3b 0888 bfbd 54d5 043d
00000270: 2671 813d ba39 0fbe c01b 313e 4084 2ebb
00000280: 3f66 0c3c 7e82 123d 8012 a63d 839e a6bd
00000290: 6c86 313b 8d93 dbbd 7a48 e33d 6673 813d
000002a0: 24cc ac3d d9ef dcbd 8374 993d b8ad cbbc
000002b0: cb43 ac3c 4472 263d ae07 973d 082c d0bd
000002c0: de49 b63d f732 b8bd fe79 1abd 8348 5abd
000002d0: 3986 9b3d 3c54 a13d ccb6 d8bc d063 303c
000002e0: eccc 793d b6a2 d43d fdb5 853d 40c0 afbd
000002f0: 9122 ad3d f118 e2bd 12e4 b0bd 3d67 ccbd
00000300: ab20 bb3d 7394 e0bd f0ca 87bd 4695 e5bd
00000310: 3796 a03d 92fe d33d 3811 27bd 37a4 393d
00000320: f8e8 2fbd e869 0bbd e892 343c f11a d9bd
00000330: 3ebd a83d cc1f c63d 0b7f b53d 301e e4bd
00000340: e457 03bd 04aa 763d 6eab 1bbd 7549 3bbd
00000350: cc7c 823d ed69 103d e91e e2bd c53d cd3d
00000360: 3718 a9ba b0ab 5c3d e524 65bd 81d6 98bd
00000370: 8c72 4abd dfd3 56bd 4855 38bd d60c d43d
00000380: 8112 4fbd f9ae 383d d365 75bd 70fd 773d
00000390: c6f8 37bd 64ba 663d c272 a03d 9b64 bcbd
000003a0: 0892 a3bd 1167 a93d 336e b2bd 0017 c43c
000003b0: c0ae c93d a770 b1bd 92f2 943d b06f b03d
000003c0: 4a9f cb3d 2139 b9bd 6a7f 283d bd54 683d
000003d0: 6519 bfbd 369d 843c 1c25 0abd 0ebd 2dbc
000003e0: 3c5f 91bd fb58 36bc 1b5e 9bbd 8536 923d
000003f0: d290 d53d 1d15 39bd 3a13 0ebd cddf b53c

layers.12.bias f4 [40]
0.04491501 0.110073 -0.0965195 0.027603643 0.41608372 -0.017844759 -0.12347059 0.13327697
-0.00087026507 -0.101993844 0.009605026 0.23794147 0.008357207 -0.09956296 0.010499734 0.30698946
-0.11105009 0.25184023 0.036667973 0.120851085 -0.11057179 0.072254054 -0.11070114 -0.14607665
-0.088153996 -0.024261944 -0.07563089 -0.06291331 -0.07105695 -0.029350981 0.07457175 0.23875494
-0.105856605 0.047836594 -0.102226816 -0.12305259 -0.008110006 -0.04495714 -0.0677732 0.03568711
00000000: cdf8 373d f46d e13d 04ac c5bd 0921 e23c
00000010: ed08 d53e 2c2f 92bc 26de fcbd c279 083e
00000020: 8022 64ba 26e2 d0bd 665e 1d3c eea6 733e
00000030: abec 083c aae7 cbbd 1407 2c3c b92d 9d3e
00000040: 3b6e e3bd 34f1 803e 2831 163d c680 f73d
00000050: 7673 e2bd eff9 933d 47b7 e2bd 1e95 15be
00000060: 158a b4bd fcc0 c6bc 5ee4 9abd b2d8 80bd
00000070: 4e86 91bd 7871 f0bc 13b9 983d 2d7c 743e
00000080: 59cb d8bd 4ef0 433d 4b5c d1bd ff02 fcbd
00000090: d5df 04bc fa24 38bd adcc 8abd a62c 123d
