purning_test.pt (torch, 90799 bytes, 17 tensors)

layers.0.weight f4 [10, 1]
00000000: 379e 293f b60b 253f f03e 8c3d b39d 333f
00000010: d015 5dbf 4a58 49bf d75d 71bf a64d 68bf
00000020: 90e0 f73d 2633 163f
0.6625704 0.64470994 0.06847942 0.70162505 -0.8636141 -0.78650343 -0.94283813 -0.9074348
0.12103379 0.58671796

layers.0.bias f4 [10]
00000000: b060 26bf 0d17 803e ae6d 06bf fe79 2abf
00000010: 9fe2 663f 4019 59bd cbb0 e93e 74c0 65bf
00000020: 2886 80be e928 6b3f
-0.64991283 0.25017586 -0.5251111 -0.66592395 0.90189546 -0.053002596 0.45642695 -0.89746785
-0.25102353 0.918593

layers.2.weight f4 [20, 10]
00000000: b740 fd3d e3b1 e0bd 20db 7d3c ab36 64be
00000010: 767f 7dbe f0f5 90bc 7f4e 883d 02a1 6d3e
00000020: 2758 8bbe 666b dc3d a7fc 50be 8691 6b3e
00000030: 6672 463e 95ad 43be 169f 06be bc3f b4bd
00000040: 340e 64be e474 273e 4874 e53d 18a2 703e
00000050: aeb6 433e 8539 8ebe 6482 e5bd 00dd 62bc
00000060: 2231 d8bd 80a1 233e b09b adbc a393 943e
00000070: aa15 dfbd 8019 97be 3b4a 18be 8095 f9bd
00000080: ef52 83be 6b32 5ebe da1a 6d3e 8c14 73be
00000090: a864 fe3d 0044 60ba f4e6 863d 09ad 6ebe
000000a0: 59b4 f53d 24df 0a3e c902 8c3e 9a73 913e
000000b0: 05be 9b3e 20da 6ebc 6a2d 5ebe 41a9 96be
000000c0: d024 803d b1a4 c7b9 161e 95be fc59 97bd
000000d0: 9c0c 4cbe 8794 fe3b d346 193e 7481 123e
000000e0: 4989 923e b608 443e 14cb da3d a926 7e3d
000000f0: e8a0 cb3d 46d5 5a3e 3c76 88be c233 fdbd
00000100: fe5f dabd e2cd 6a3e 0069 35be b8e4 1fbd
00000110: e68b 123e 9eae 6dbe 9aea 3fbe 6679 85ba
00000120: a982 59be ccfe 843e a306 c93d ed1e 3abe
00000130: cbf8 1d3e d397 973e 78bb 6abd 4923 933e
00000140: 6082 81be 60f3 a43c 00aa 27bd e825 08bd
00000150: fe1b 283e 6d55 8e3e a4af 2d3e f20e 48be
00000160: 68f9 c23d 3967 06be e465 84bd 1b90 23be
00000170: 842b 8fbe b6b5 453e 2860 153d 7c19 46be
00000180: e741 873e 808d 523c 5472 ad3d 70a1 84bd
00000190: 2813 47be 300d d2bd 20ca ddbc 607f fa3d
000001a0: d783 9d3e 6e4f 9bbe b760 29be 54c5 e53d
000001b0: a05d e53c 060d 8abd e58c d03d 6f55 0dbe
000001c0: 1eef 733e f019 a63d 5b1f 753e fe6b 203e
000001d0: 7568 8f3e 17eb 8bbe d68a c6bd cb5a 8e3e
000001e0: 5c00 b73d e49a 89be c64e d4bd a815 1f3d
000001f0: c22f 52be 2a49 80be 9067 b43d c83b 6bbd
00000200: e499 123e 2d55 21be 61ee 58be 4070 26bc
00000210: b3bc 41be 9d83 9e3e 9806 b13d 1091 443d
00000220: 5ab7 263e 2803 f73d 64bd 78be f8a7 ea3d
00000230: 8599 26be 786a 8bbd d40c f73d 6d2d a0bd
00000240: 58c8 debd fa63 8abe c703 c83d 106e 0abd
00000250: 9e0d d1bd c4e6 583e 4be0 983e fbde fb3d
00000260: a08a c33c 2f95 8e3e f500 f23c a03e 9abc
00000270: 32d5 86be 6d1e 963e b088 0f3e 17da 313d
00000280: 705f 683d 8c3c 5ebe 70bb 0e3e 169e 5b3e
00000290: c59a 763e d231 38be 4522 233e 60a2 6bbc
000002a0: f82d 5c3d 99b7 a13d 9788 2b3e f5c4 37bd
000002b0: 727e 483e a5a1 53bd b794 85be 8627 603e
000002c0: 6ede 093e f074 2abd bc17 c1bd 122c 803e
000002d0: fb9f 52be 4b13 383e b3cc 8c3e 2369 9c3c
000002e0: 68ec 903e f0b9 d53d 2d4e 053e 5675 643e
000002f0: 9c45 95be c496 2c3d f63a 30be fc30 f53d
00000300: a005 473d dfdc 10be 6161 78be 26b7 f0bd
00000310: 3a2f 5ebe 8abc a2bd 00fd 53bd 083f 04bd
0.12365859 -0.10971429 0.015494138 -0.22286479 -0.24755654 -0.017695397 0.06655597 0.23205951
-0.27215692 0.10762672 -0.20408879 0.23004732 0.19379577 -0.19109185 -0.13146624 -0.08801219
-0.22271043 0.16353184 0.112038195 0.23499334 0.19112656 -0.2777826 -0.11206511 -0.013846636
-0.10556246 0.15979576 -0.021192402 0.29018888 -0.10892804 -0.29511642 -0.14872067 -0.12186718
-0.2564921 -0.2169892 0.23154774 -0.23738307 0.124215424 -0.00085550547 0.065870196 -0.23308195
0.11997289 0.13561684 0.27345875 0.2840851 0.3041841 -0.014578372 -0.21697012 -0.29426005
0.062570214 -0.00038078942 -0.29124516 -0.0739021 -0.19926685 0.0077691707 0.14968424 0.14307195
0.28620365 0.19143948 0.10683265 0.062048588 0.099428 0.2137042 -0.26652706 -0.12363388
-0.1066284 0.229301 -0.17715836 -0.039036483 0.1431118 -0.23211142 -0.18741837 -0.0010183274
-0.21241249 0.25975645 0.09815719 -0.1817586 0.15426938 0.2960802 -0.05730769 0.28737858
-0.2529478 0.020135581 -0.04093361 -0.033239275 0.16416928 0.2779955 0.16961533 -0.19536951
0.09520227 -0.13125314 -0.064647466 -0.1597294 -0.27962887 0.19307598 0.036468655 -0.19345659
0.26417467 0.012851119 0.08469072 -0.06476104 -0.19440901 -0.102564216 -0.02707392 0.12231326
0.30764648 -0.30334038 -0.165408 0.11219278 0.027998745 -0.06740765 0.101831235 -0.13802122
0.23821685 0.08110416 0.23937742 0.15666196 0.28009382 -0.27327797 -0.096944496 0.27803645
0.089356154 -0.26875985 -0.10366587 0.038839012 -0.2052603 -0.2505582 0.088088155 -0.05743006
0.14316517 -0.15755148 -0.21184684 -0.010158598 -0.1891964 0.30959788 0.08643836 0.047989905
0.1628088 0.12061149 -0.24290997 0.11457819 -0.162695 -0.06807417 0.12062994 -0.07821164
-0.10878056 -0.270294 0.097663455 -0.03379637 -0.102076754 0.2118178 0.29858622 0.122983895
0.023869812 0.27848193 0.029541472 -0.01882869 -0.2633453 0.29320088 0.14016986 0.043420877
0.05673164 -0.21702784 0.13938689 0.21447024 0.24082477 -0.17987755 0.15931042 -0.014381975
0.053754777 0.078963466 0.16751324 -0.044865567 0.19579485 -0.051667828 -0.26090023 0.21890077
0.13463756 -0.041615427 -0.09428355 0.25033623 -0.2056884 0.1797611 0.27499923 0.019093102
0.28305364 0.104358554 0.13018103 0.22310385 -0.2915467 0.04213597 -0.17209992 0.11972234
0.04858935 -0.14146756 -0.24255897 -0.11753683 -0.21697703 -0.07946117 -0.05175495 -0.032286674

layers.2.bias f4 [20]
00000000: 2d3c f13d 3bb6 363e 7cee bf3d a0d0 29bd
00000010: 6c1c 4d3e 09f3 923e 10b5 d13d 96eb c73d
00000020: f23b 8cbe a8c1 74be 239d 36be 3fdd 8ebe
00000030: 315a 8e3e 12ae 9bbe 2e4a af3d 9da2 713b
00000040: 90c7 9cbd fe74 273e 2eec 6f3e 9c2e 32be
0.11779056 0.17842953 0.09371659 -0.041458726 0.20030373 0.28701046 0.10239613 0.09761731
-0.27389485 -0.23901999 -0.1783338 -0.27903172 0.27803186 -0.30406243 0.085590705 0.0036870607
-0.07655251 0.16353223 0.23429939 -0.17400593

layers.4.weight f4 [40, 20]
00000000: a5bc 1fbd 9969 003e 7850 553e 64be 14be
00000010: 69e0 18be 440c 4bbd a80e 433e 3488 ecbd
00000020: aee3 49be 6868 ccbd 4c3c 5c3e 4cdd 63be
00000030: fdf3 3abe 7ce0 003e 4bdb b4bd e55e a33b
00000040: d515 2ebe a8c6 1abe 48df 153e 60b2 dbbc
00000050: 686f b53d 92a2 623e d8a1 2d3e f8fd a03d
00000060: 3d8d 63bd be2b 3f3e 6ee4 94bd a8b8 3cbe
00000070: 4625 483e 1043 9dbc deda 33be a394 a2bd
00000080: f10e 3cbe bed3 8abd 1b04 643e e838 67bd
00000090: d051 c43d 5f78 1b3e 26c8 353e d693 533e
000000a0: 3ec9 17be 5bd0 af3d a0ae e3bc 96a7 1cbe
000000b0: bcd4 6a3d 2014 1cbe 946e 9f3d 1940 cbbd
000000c0: 0001 1e3c aa9a 213e 40db a83b eb8a 9abc
000000d0: 84fc c83d f4ce f03d cce0 e1bd 1b6b 313e
000000e0: 4059 13be f8ac 00be 8b60 163e a884 573d
000000f0: e1fc 8d3d 5b8f 3fbe 30ae af3d ea15 2d3e
00000100: 41a0 99bc 7173 64be a297 483e d41b 533d
00000110: a0c1 92bc b07f 6cbd 1e8b 1dbe 8c89 89bc
00000120: 878e 3ebe 9eda b6bd 0f11 843d d0e0 323e
00000130: 1a0e 9fbd 94a6 2abd d206 fdbc 207b c6bd
00000140: 131d d2bb 62eb f53c 86e8 563e eaa9 35be
00000150: c6f3 86bd ce86 52be 383d c23d ff16 1bbe
00000160: c2c1 00be 2692 12be c855 02be b5b5 42bb
00000170: d805 d9bc f41b 343e f14c 55be 2e42 0bbe
00000180: 973b fcbd 0d47 1e3e 6f71 003e 5621 0e3e
00000190: 74d2 44be 70d8 e43c f065 033d a000 59bd
000001a0: 881b fd3d 271e 11be 3373 52be b0b7 303d
000001b0: fe40 04be feb1 1d3e c8ad 423e b2c4 5e3e
000001c0: 1c92 26be b881 bc3d 511c d0bd b88e 4f3d
000001d0: cbb5 21be 089e 373d 48f4 083d be86 4abe
000001e0: 46b9 5ebe 8d8c 0dbe 1063 9dbd d06e ea3d
000001f0: 7fd5 1d3e 9b9c 603d 645c c7bd 1ba0 343e
00000200: 9c1a 0a3e fbca cfbd ac56 50be 62e3 dd3d
00000210: 38da 413e 042f 92bd 046f 01bd fd8e 0fbe
00000220: c8fe 423d da6e b2bd d3dd 81bd 908c 7d3d
00000230: acbf 503e 7c6a 74bd b892 9d3d 8001 553d
00000240: f6f0 c5bd ac17 b0bd ac83 ce3d c025 1dbc
00000250: 1c20 003e babf 01be 9c76 70bd 58d1 de3d
00000260: b630 493e 401b f1bb f0e4 28be d2cb b1bd
00000270: 40eb e33c 2e0d 473e 385d bf3d 9fef 64be
00000280: a0f5 0e3d 1fe2 45be 8519 eebd b0fc 513d
00000290: 6a53 1abe 2ce2 543e 202a 773d 88fd bebc
000002a0: 4259 563e 4857 b43d e8a4 60be 0cc7 38be
000002b0: a077 d8bc 58c5 943d 3f4b 62be a03e be3d
000002c0: f832 b7bd d0d2 763c 9332 35be ccc4 b13d
000002d0: 44f5 eebd 1b61 a23b dc51 073e 30ba 323c
000002e0: 222f 4c3e 08db 1dbe 28d2 a63d fe19 703c
000002f0: 80cf 983c 8060 c7bd c479 de3d 07c8 223c
00000300: 58f8 903c 7e30 183e e80d 02be c59b 5c3e
00000310: 9cd2 4ebd 7699 483e 30f3 e1bd dc33 d13d
00000320: 3e86 47bd c88b 5c3e d886 233e dcf0 c3bd
00000330: 77b0 5439 121f 02be 602f df3c 52ba 5cbe
00000340: a389 62be f454 0ebd dc05 843d ea9b 4dbe
00000350: b41c 67bd 28d6 603e 125c 183e 2dcf 9b3d
00000360: b88b 76bd f92b ffbd b538 2c3e 2e92 2fbe
00000370: fe01 3f3e 02f1 a7bd d0a8 de3d f10e e6bd
00000380: 3109 44be 3fc8 f3b9 e06f 61bd 4b07 443e
00000390: e0c4 c93d 4cd5 2dbd 1018 f63d 7c49 b63d
000003a0: a4b5 f53d 1e87 603e 0caf f53d 3d5c be3c
000003b0: 7747 30be a2a6 36be 6663 543d 5098 f63d
000003c0: 6393 b83d 5068 f33d e811 033d 6e98 b0bd
000003d0: 8ece b9bd 683a 45bd e698 0c3e 6a92 a2bd
000003e0: ce96 f3bd 547a b0bd 1c8f ac3d 9350 62bd
000003f0: 7ba9 33be ab7b cdbd 47f7 563e bb9e 633e
-0.038998265 0.12540282 0.20831478 -0.14525753 -0.14929356 -0.049572244 0.1904856 -0.11549416
-0.19715759 -0.099808514 0.21507376 -0.22252387 -0.18257137 0.12585634 -0.08830889 0.0049856775
-0.17000516 -0.15114844 0.14635956 -0.026818454 0.0885914 0.22132328 0.1695627 0.07860941
-0.055554617 0.1866903 -0.07270132 -0.18429816 0.19545469 -0.019197017 -0.1756396 -0.079385065
-0.18365075 -0.06778668 0.22267191 -0.056450754 0.09585917 0.15182637 0.17752132 0.20661864
-0.14822862 0.085846625 -0.027793229 -0.15298304 0.057331786 -0.15242052 0.07784763 -0.09924335
0.009643793 0.15781656 0.0051530898 -0.01886507 0.098137885 0.11758223 -0.11029205 0.17326014
-0.14389515 -0.12565982 0.14685266 0.052616745 0.069329984 -0.1870703 0.085781455 0.16902891
-0.018753173 -0.22309662 0.19589093 0.05154021 -0.017914593 -0.05773896 -0.153851 -0.01678922
-0.18609057 -0.08928417 0.06448566 0.17468572 -0.077663615 -0.041662768 -0.030887041 -0.09691453
-0.0064121573 0.030019466 0.20987138 -0.17740598 -0.06589465 -0.20559236 0.09484333 -0.15145491
-0.12573913 -0.14313564 -0.12728035 -0.0029710357 -0.026492044 0.17588788 -0.20830132 -0.13599464
-0.12316053 0.15456791 0.12543271 0.13879904 -0.19220906 0.027935237 0.032079637 -0.05297911
0.12358767 -0.14171658 -0.20551758 0.043143928 -0.12915418 0.1539993 0.19011605 0.21754721
-0.16266674 0.092044294 -0.10161651 0.050673217 -0.15792005 0.044828445 0.03343609 -0.19777963
-0.21750364 -0.13823147 -0.0768491 0.11446917 0.15413474 0.05483685 -0.09734419 0.176392
0.13486713 -0.10146137 -0.20345563 0.108343855 0.189309 -0.07137874 -0.031600013 -0.1401939
0.04760626 -0.087125495 -0.06341138 0.06190163 0.20385617 -0.059671864 0.07694 0.052003384
-0.096651 -0.08598265 0.10083708 -0.00959152 0.12512249 -0.12670794 -0.058706865 0.10879773
0.19647488 -0.007357985 -0.16493583 -0.08681454 0.027822137 0.19438621 0.09343952 -0.22357033
0.034902215 -0.1932454 -0.11625961 0.051266372 -0.15070882 0.20789403 0.060342908 -0.023314252
0.20932487 0.0880571 -0.21937907 -0.1804468 -0.02642423 0.07264203 -0.22099017 0.092892885
-0.089452684 0.01506491 -0.17695074 0.08680114 -0.116678745 0.0049554235 0.1321482 0.010908648
0.19939855 -0.15415585 0.08145553 0.0146546345 0.018653631 -0.09735203 0.10863069 0.009935386
0.017696545 0.14862248 -0.12700617 0.21543796 -0.05049382 0.1958979 -0.110327125 0.102149695
-0.048712008 0.21537697 0.15969408 -0.09567425 0.00020283634 -0.12707165 0.02724427 -0.2155545
-0.22122817 -0.034748986 0.0644643 -0.20079008 -0.056423858 0.21956694 0.14878872 0.07607875
-0.06019184 -0.12459559 0.16818507 -0.17145607 0.18653104 -0.082002655 0.10872042 -0.112333186
-0.19144131 -0.00046497767 -0.055038333 0.19143407 0.09852004 -0.042439744 0.12016308 0.08900735
0.11997536 0.21926543 0.11996278 0.023237342 -0.17214762 -0.17837003 0.051852606 0.1204077
0.09012487 0.118851304 0.0319995 -0.08622824 -0.090726 -0.048151404 0.13730201 -0.079380825
-0.11893998 -0.08617082 0.084257334 -0.055252623 -0.1754512 -0.100333534 0.20992766 0.2222852

layers.4.bias f4 [40]
00000000: e1be 0d3e 530c 2fbe a949 573e b251 253e
00000010: 329c 153e e779 53be 4f60 d03d 1698 0fbe
00000020: 5055 e13c 3c76 193d 430d 0b3e c9d6 0d3e
00000030: 2c76 c53d 70e5 303c ab0f 053e dfb9 cdbd
00000040: ecc6 a43d 980a 863c 65fd d93c 1599 9abd
00000050: 9c0c bbbd c283 5fbe ad15 3bbe ac0d c93d
00000060: 4adb 93bd fc53 223e 6eb5 edbd 205e 403e
00000070: 529e 333e d81a 1cbe dd66 63bd 47c8 85bd
00000080: 3a7b dc3d 02a0 1d3e c88d 6fbd ff2f 923d
00000090: fd2e 643e e92b 573e 5cff b73d 7ef3 393e
0.13842346 -0.17094545 0.21024193 0.16144446 0.14610365 -0.20651971 0.101746194 -0.1402286
0.0275065 0.037466273 0.13579278 0.13851465 0.0964168 0.01079689 0.12994258 -0.10045218
0.08045754 0.016362473 0.026610086 -0.07548729 -0.091332644 -0.21827605 -0.18269987 0.09817061
-0.072195604 0.1585235 -0.116068706 0.18785906 0.17540863 -0.15244615 -0.05551802 -0.065323405
0.10765691 0.1539307 -0.058484823 0.07138061 0.2228355 0.21012844 0.08984253 0.18159291

layers.6.weight f4 [80, 40]
00000000: b155 1dbe d516 1b3e 5824 8cbc 42cc d5bd
00000010: 246d 463d 7f24 9bbd 08c3 2b3d 4c97 03be
00000020: 7373 063e 2c07 afbd 446f 0cbd b22f dd3d
00000030: 9aa1 12bd 1016 a33c a040 043d 08cd 613d
00000040: c685 c4bd b8a3 803d cab1 843d 50c5 b53d
00000050: c0c8 8e3d d12c 84bd eee1 c13d c028 d8bc
00000060: 701d 6dbc d840 f23c 8958 99bd 6077 e9bb
00000070: e093 ebbc 28ed be3c c8b0 9fbc 90c6 f03c
00000080: 3297 5ebd 1318 063e 1837 36bd 70c7 f33c
00000090: 1e6b bf3d a824 b33c 4963 0a3e a7a5 0cbe
000000a0: 7f5e c8bd e62f cbbd 3a93 883d 0a50 8a3d
000000b0: 8039 fdba 52e1 26bd 68fd 923c 92a2 1bbe
000000c0: 4dcd 99bd a025 4a3c a34d 0b3e 0e26 863d
000000d0: 00d3 8f3c 8050 fbba 0305 f5bd 63b2 113e
000000e0: 0acb 21be c25b c33d 72ae f43d 9d3f 003e
000000f0: 505c c2bc 4417 0f3d 3047 e03c 5c1a a83d
00000100: 38ec 57bd 5e13 fd3d 81c0 8ebd 0bcf bdbd
00000110: f09b 2b3d c244 1abe 1fe4 083e 2807 4f3d
00000120: 6325 06be 9210 c53d e688 fd3d 2091 d0bb
00000130: 08fd febd 9f0d d5bd 00f0 623d 384d 3e3d
00000140: 35cc 9e3b 46a3 65bd dd91 d63d 6305 c13d
00000150: c5db a5bd b551 1b3e 3ceb 7b3d 70f3 c13c
00000160: 763d b0bd 6257 e53c c3c2 6cbd befe 5cbb
00000170: 85a9 203e 6028 1dbc d47a 80bc ae12 c43d
00000180: 796a c13d b29b f43d dd75 5e3d 66eb 0c3d
00000190: 1019 383c fb11 aabd aa54 c5bd ac5c c7bd
000001a0: ea4b 37bd a2a8 65bd a80e ab3c a4ce eb3d
000001b0: afd7 ebbc 5062 ee3c 7d6c d23d 5ffd c5bd
000001c0: e86e 343d 6f93 a8bd 8031 c43c 69f7 773d
000001d0: b8a8 06be 0cf6 1dbe 631c bcbd fe12 ab3d
000001e0: 9859 94bd f769 fb3d a154 51bd f81e 37bc
000001f0: 8224 ce3d 620e 13be b79b babc 3c24 08be
00000200: 58de 9dbd 12df 0cbd a2e1 f83d b60f cb3d
00000210: b8d5 843d 5c25 2fbd b985 0abe 785e b2bd
00000220: 9839 ae3a d0db 1abd f51d d93d db16 2e3c
00000230: 3a14 d83d 4829 1cbe b250 d73d 38f8 8f3c
00000240: bbce 17be c4a6 af3d 8ccd eebd 4ea4 7e3d
00000250: 1f50 433c 340f 83bd bb8a 6a3c c587 d2bd
00000260: 1a43 94bd c42f 173e 39a1 1b3e 8e6b 34bb
00000270: 8c43 43bc d32b e0bd 4c0c 57bd 46a2 72bd
00000280: db4f 003e 1042 1fbd e0cb e9bc d629 cc3d
00000290: ddc3 0fbe 86d6 a63d cdaa 043e 000e ab3a
000002a0: 2fe1 133e e674 e5bd 6c11 523d 4a13 c9bd
000002b0: e074 4dbc 0952 0ebe d328 0b3e 00b3 85bc
000002c0: 30a6 40bd 2335 173e 00db 463d c8bc 3dbd
000002d0: e8c1 ca3c e294 cbbd 1ad0 5fbd 6cad dbbd
000002e0: 36cc 53bd d00c cebc 2979 1f3e acd4 01bd
000002f0: c0b0 373c 601e cdbc 102d f6bd 0d51 82bd
00000300: 62a5 f83d 763a 21bd b018 a93d 9de1 aabd
00000310: 604a 34bc 8768 0cbe 25ec 143e 6693 efbd
00000320: a506 38bc 2c47 773d 750f adbc ebe7 acbd
00000330: 1553 05bc 3014 0dbc 5ae5 78bd 18dd 9c3c
00000340: 769b a0bd 0217 b43d 097a 193d dfdd 10bd
00000350: 4861 99bd 5d07 153e 2e11 153e fcf6 a83d
00000360: 2cb5 66bc e8a7 b13d 982a 173d 63a2 483d
00000370: b39d f8bd b29c 5cbd d290 04be 9c18 a23d
00000380: a794 123e b8b9 5c3d f806 fe3c ce58 1b3e
00000390: bf57 063e 28a8 7b3d df00 9d3b e136 953d
000003a0: 4b4e 153e 54ac 003e 8a54 e23d 854c d73d
000003b0: 50b1 7e3d becc acb9 8655 013e 187a 4a3d
000003c0: f613 70bb 6b94 14be 4b89 a3bb 7d4f 86bd
000003d0: d646 e0bd 733c 94bd c61d c03d e819 b3bc
000003e0: baa1 aa3d 1274 45bc 62cd d23c e5b7 6c3d
000003f0: e4ad c9bd 660d ae3d 7598 093d 3b34 21be
-0.1536472 0.15145428 -0.017107174 -0.1043935 0.04844393 -0.075753205 0.041934043 -0.12850684
0.13129978 -0.0854629 -0.0342858 0.10800113 -0.035798647 0.019907981 0.032288194 0.055127174
-0.09595828 0.06281227 0.06479223 0.08875525 0.06971884 -0.064538606 0.09466921 -0.026386619
-0.0144723505 0.029571936 -0.0748759 -0.0071248263 -0.028757036 0.023306444 -0.019493476 0.029391557
-0.05434341 0.13095121 -0.044486135 0.029758185 0.09346603 0.021868065 0.13514437 -0.13735066
-0.09783649 -0.09921245 0.06668706 0.067535475 -0.0019319504 -0.040742226 0.0179431 -0.15198734
-0.07509861 0.012338072 0.13603835 0.06550227 0.017556667 -0.0019173771 -0.119638465 0.14228205
-0.1580011 0.09538986 0.11947335 0.12524267 -0.023725659 0.034934297 0.027377695 0.08208153
-0.05271551 0.123572096 -0.06970311 -0.09268006 0.04189676 -0.15065292 0.13368271 0.050543934
-0.131002 0.09622301 0.12379627 -0.0063649565 -0.12450606 -0.10402989 0.055404663 0.04646036
0.0048461207 -0.056063913 0.1047704 0.094248556 -0.08098558 0.15167888 0.061503634 0.02367565
-0.08605473 0.027995769 -0.057802927 -0.0033721174 0.15689667 -0.009592146 -0.015683569 0.09573875
0.09444136 0.11943759 0.054311622 0.03440418 0.011236444 -0.08304211 -0.09635289 -0.09734473
-0.04475013 -0.056069024 0.020881012 0.11514023 -0.02878937 0.029099613 0.10274599 -0.09667467
0.04405108 -0.08231246 0.023949385 0.060538683 -0.13150299 -0.1542589 -0.09185102 0.08353232
-0.07243651 0.122760706 -0.0511061 -0.011176817 0.10065557 -0.14360955 -0.022779329 -0.13295072
-0.07708424 -0.034392424 0.12152411 0.09915106 0.06486076 -0.042760238 -0.13527574 -0.08709425
0.0013292311 -0.037807286 0.10601417 0.010625566 0.10550733 -0.15250123 0.10513438 0.017574415
-0.14824955 0.0857673 -0.11660299 0.062168412 0.011920958 -0.06399384 0.0143153025 -0.10279802
-0.07239361 0.14764315 0.1519822 -0.0027529928 -0.01191796 -0.10945859 -0.05250196 -0.059236787
0.12530462 -0.03888136 -0.028539598 0.09968917 -0.1403956 0.08146386 0.1295578 0.0013050437
0.1444137 -0.11203937 0.051286146 -0.09818132 -0.012540072 -0.13898481 0.13589792 -0.016320705
-0.04703349 0.14766364 0.0485487 -0.046322614 0.024750665 -0.099405065 -0.05464182 -0.10726437
-0.051708423 -0.025152594 0.15573563 -0.03169696 0.011211574 -0.025038898 -0.12020314 -0.063631155
0.12140919 -0.039362393 0.08256662 -0.083438136 -0.0110040605 -0.13711749 0.14543207 -0.11698036
-0.011232053 0.06037061 -0.021125535 -0.08442672 -0.008137484 -0.00861077 -0.0607656 0.019148394
-0.07842152 0.08793451 0.037469897 -0.035367843 -0.07489258 0.1455359 0.14557335 0.082502335
-0.014081281 0.08674604 0.036905855 0.04898299 -0.12139454 -0.053860374 -0.1294587 0.0791485
0.14314519 0.053888053 0.031009182 0.15170595 0.1311941 0.061439663 0.0047913636 0.07285858
0.14580648 0.12565738 0.11051281 0.10512642 0.062180817 -0.0003295894 0.12630281 0.049432844
-0.0036632991 -0.14509742 -0.004990732 -0.0655813 -0.10951011 -0.07238092 0.09380679 -0.021862939
0.08331628 -0.012051599 0.0257327 0.057792563 -0.0984762 0.08498649 0.03359266 -0.1574258

layers.6.bias f4 [80]
00000000: 3074 adbc dc96 09be 86fc c5bd 55a8 f73d
00000010: 830c 8ebd 9738 08be cbf6 9e3d dd2d d6bc
00000020: 8548 013b 28cf 573c df73 683d 2e1c 34bd
00000030: a200 abbd 2469 073d ad30 2c3d 606c 50bc
00000040: 2255 24bd 3035 9a3d d07d 183c e82a c4bd
00000050: 9f71 fcbd 82f4 203e cd91 a73d 507a 0e3e
00000060: aa1e 623d f1dd bb3d 3ab0 f1bd 10ac cdbd
00000070: 98df 063e 8d7f f33d a195 ae3d e935 e53c
00000080: 47a8 903c 0fce 513d 14c5 f73d dce8 e43d
00000090: 60c4 99bb 8631 f4bc d8a1 01be d445 fe3d
000000a0: b173 a03d 95c1 6abd d87a a73c c0fd a8bc
000000b0: 7012 223c ff56 c0bd 3612 0d3e cee1 9e3d
000000c0: 3847 e8bd 74e6 aa3d 6837 c6bc f2d3 c73d
000000d0: e5ff da3d f8fb 4a3d 6201 f8bd 0345 1e3e
000000e0: d0c7 1d3e b657 13be 4591 ae3c 2970 acbd
000000f0: 051d ac3d b2a0 ddbd 6cdb 813d fe54 05be
00000100: b8ae 7bbd 8424 5d3d c380 fa3d 9aa3 063d
00000110: b1d9 92bd 00ab 693b dcb6 a23c 6015 163c
00000120: bfd5 06be 8f71 93bd 34fd 79bd b15e d3bd
00000130: 32ae 30bd 5d1f 0ebe 0f42 15bd 0217 1ebe
-0.021173567 -0.13436455 -0.09667306 0.12092654 -0.0693598 -0.13302837 0.07761916 -0.026144916
0.0019727063 0.0131719485 0.05675113 -0.043972187 -0.0834973 0.033059254 0.04203861 -0.012721151
-0.04012025 0.07529676 0.00930734 -0.09578496 -0.12326359 0.15718272 0.08182106 0.13913846
0.055205025 0.09173191 -0.11801191 -0.10042584 0.13171232 0.11889563 0.08524633 0.027979808
0.017658366 0.051221903 0.120981365 0.11177227 -0.004692599 -0.02980877 -0.12659395 0.124156624
0.078345664 -0.05731352 0.020444319 -0.02062881 0.009892091 -0.09391593 0.13776478 0.077579126
-0.11341709 0.08344737 -0.024196342 0.09757222 0.10693339 0.049556702 -0.12109639 0.15456013
0.15408254 -0.14388928 0.021309504 -0.0841983 0.084039725 -0.10821666 0.063406795 -0.13020703
-0.06144592 0.053989902 0.122315906 0.032870866 -0.071704276 0.0035654902 0.019862585 0.00916037
-0.13167475 -0.07199394 -0.06103249 -0.10320795 -0.043134876 -0.13879152 -0.03643995 -0.15438464

layers.8.weight f4 [80, 80]
00000000: a235 3bbd 113f 6abd 0788 a23d 5c87 d53d
00000010: 1046 363d 882f 9a3d 8008 e53c b223 12bc
00000020: 5405 65bd 5f99 01bd 4696 753d 5818 8ebd
00000030: 581f 15bd e015 0a3c fd71 e23d b86f 263c
00000040: e962 d4bd 017e 26bd 4f1e dfbd 2a8e acbd
00000050: 44cc 08bd f326 833d 69e0 24bd 929a 813d
00000060: 286f dd3d 88b0 d13c c069 acba 05bf 88bd
00000070: 4239 8abd fd8f c13d 986e 5d3c f07b bbbd
00000080: 19cd 2fbd b3f4 adbd 88e7 8ebb be77 9e3d
00000090: 5717 57bd fe3b bfbd fe53 debd e3ae 8f3c
000000a0: af4f 723d 4ea4 85bd 2822 d63c f717 b2bd
000000b0: a0b6 57bb 205c fd3c 7d1e 573d 3348 cfbd
000000c0: 004a 25b9 52c2 443d 352f dcbd d298 d1bd
000000d0: 811c 693c 7c51 adbc 6067 38bd c044 14b9
000000e0: 3411 d9bd 979d b9bd e728 95bd fe29 b73d
000000f0: 56fe 053d d809 cdbc 5951 d3bd a096 603b
00000100: f00c bd3c 8507 dd3d e344 4bbd 29a8 e73d
00000110: 8055 37bc f097 a63b e9fa 103d c237 53bd
00000120: 3603 963d d070 25bc 7ec6 0bbd e475 86bd
00000130: 6c21 afbd 6261 8cbd 0fa7 79bd 14f6 963d
00000140: 8049 0b3d 285d 1b3c e49e 78bd b2df e53d
00000150: ea02 aa3d 5592 ae3d 8baf 31bd 56ec cabb
00000160: 1b55 603c 48c8 31bd fe25 d33c c45c 143d
00000170: e845 1f3d 24a2 c23d 35b1 de3d 008e e63a
00000180: 499f e13d e72c e5bc 11d0 7cbd 14fb a03d
00000190: 0590 6ebd f41e b03d 7ee6 34bd b553 cbbb
000001a0: 45d3 ab3d e651 8d3d cb4a dfbd 5073 ffbc
000001b0: 6d67 913d 1fef 863d 313b 8bbd 7272 62bd
000001c0: d003 afbd db67 923d 5d1e 9b3d 6d1f 1bbd
000001d0: 10b9 c33d 5b25 643d d894 a03d 2367 8fbd
000001e0: 09f3 afbc bf10 a63c 7c67 953d 0098 aebb
000001f0: 78d7 423d bc7e c7bc 7149 f3bc 2407 35bd
00000200: cd9d 88bd 4a03 c8ba 0f35 71bd d4d2 91bd
00000210: 2f96 a2bc 92a6 a63d 8848 02bc a67a 653d
00000220: 5025 173c 84df 9bbd 6653 013d f834 4b3d
00000230: 2335 233d e494 97bd eae2 4dba 14c4 a03d
00000240: 408f 2ebc 8a0e 65bd d1d6 153c 6511 9e3d
00000250: c4be dd3d 3816 6bbc 9dd1 833d 97a6 8fbd
00000260: e634 bf3d 9c25 0abd 7067 5f3c 31ad a5bd
00000270: ea0e 1abd d0ce 1fbc 9d0a 83bd d4b6 8b3d
00000280: f039 3e3c eeab b5bd 58d0 033c 86a7 2fbd
00000290: a4d0 8b3d 8014 6dba 3075 3b3d 12e9 9a3d
000002a0: b99e 6ebd ccbc 11bd 7071 413d 2242 bd3d
000002b0: 4420 b1bd 728b cb3d d4e0 933d 00e7 193d
000002c0: e8f1 d5bc 38e1 65bc 90be 983d e830 8d3d
000002d0: e80a 483d f657 a83d 0829 1e3d 9e3b 853d
000002e0: 88e4 ec3c aca1 c5bd cca7 ccbc a829 d93d
000002f0: 3e74 b1bd 1060 2c3d d2a1 10bd 209e 01bc
00000300: 5c87 223d b821 cdbc dc45 823d 9c59 643d
00000310: a544 c6bd 4c60 6e3d c00d 8a3c ad1f d6bd
00000320: 6012 2cbc 5e11 c03d c09c 96bb 0043 b63b
00000330: 008e 0ebb 288f a4bd 404b 233b 84be 81bd
00000340: e87b 9ebd 50c8 cdbd 4ccb 9d3d be28 b13d
00000350: edcc 93bd 66ce 893d faf8 adbd 848f 1a3d
00000360: 4c81 8b3d 7630 cebd 0096 503b fadd e03d
00000370: 52ff 0bbd 58c2 103c b8e6 703d 90c4 42bc
00000380: 4066 9b3a a023 2b3d 90c1 1d3c 1a28 9dbd
00000390: 08dc 18bd 44b3 9ebc 78f4 85bd b62b ab3d
000003a0: 39f9 d5bd 705c c33d 8a8d 09bd 3c70 d8bd
000003b0: 7a27 88bd e4b6 62bd c401 1a3d 9611 42bd
000003c0: faab adbd 1485 d73d f2a6 35bd 0bf5 ddbd
000003d0: ee56 ca3d 1e93 12bb 9a8c b9bd 987f 87bc
000003e0: e83a bbbd 1cb8 efbc e223 0bbd d812 cd3d
000003f0: b8b1 8a3c 54cb d53d 6851 99bd 5895 303c
-0.045705445 -0.05718905 0.079361014 0.104262084 0.04450041 0.07528597 0.027958155 -0.008919643
-0.055913284 -0.031640407 0.059957765 -0.06938237 -0.036406845 0.008428067 0.11056898 0.010158472
-0.10370428 -0.04064751 -0.10894453 -0.08425553 -0.033397928 0.06403913 -0.040253077 0.0632831
0.10812217 0.025596872 -0.0013154075 -0.06677059 -0.06749202 0.09451292 0.013515137 -0.091544986
-0.042920206 -0.08493938 -0.004361097 0.07737683 -0.052512493 -0.093376145 -0.10855864 0.017539447
0.059158023 -0.06525479 0.026139334 -0.08695977 -0.003291525 0.030927718 0.05251931 -0.10121193
-0.00015763193 0.04803688 -0.107511915 -0.10234226 0.014227987 -0.021157019 -0.04502046 -0.00014139991
-0.10598984 -0.09063261 -0.07283192 0.08943556 0.032713257 -0.025029108 -0.1031825 0.0034269467
0.023077458 0.1079245 -0.049626242 0.11311371 -0.011189818 0.0050840303 0.035395537 -0.051566847
0.07324831 -0.010097697 -0.034124844 -0.065654546 -0.085512966 -0.06854512 -0.060950335 0.073711544
0.034005642 0.009482659 -0.060698405 0.11224307 0.08301337 0.08524004 -0.0433803 -0.006192724
0.013692166 -0.043403894 0.025774952 0.03622128 0.038885027 0.09503582 0.10873643 0.0017589927
0.11016709 -0.027975513 -0.061721865 0.07860389 -0.058242816 0.08599654 -0.044165127 -0.006205047
0.08389906 0.069003865 -0.109029375 -0.031182915 0.07099805 0.065885775 -0.06798399 -0.055284925
-0.08545649 0.07148715 0.07574151 -0.037871767 0.09556782 0.055699687 0.0784089 -0.07002094
-0.021478193 0.020271657 0.07295129 -0.0053281784 0.04756877 -0.024352424 -0.029698106 -0.044196263
-0.06670723 -0.0015259769 -0.05888849 -0.071202904 -0.019847004 0.081372395 -0.007951863 0.05602517
0.009225205 -0.076109916 0.031573676 0.04961106 0.039845597 -0.074014455 -0.0007853942 0.07849899
-0.010654271 -0.05592207 0.0091454545 0.077181615 0.10827401 -0.014348559 0.06436465 -0.07014196
0.093362615 -0.033727273 0.013635501 -0.08089674 -0.03761188 -0.009753898 -0.06398509 0.06821981
0.011610493 -0.088706836 0.0080452785 -0.042884372 0.068269044 -0.0009043887 0.045766056 0.07563986
-0.05825684 -0.03558044 0.047227323 0.092411295 -0.08648732 0.099387065 0.07220617 0.037573814
-0.026116326 -0.014030747 0.07458222 0.06894094 0.048838526 0.08219902 0.03861335 0.06505512
0.028917566 -0.09649977 -0.024982356 0.106036484 -0.086647496 0.0420838 -0.035310574 -0.007911235
0.03967987 -0.025040492 0.06360981 0.05574952 -0.09681062 0.058197305 0.01685226 -0.104552604
-0.010502428 0.093783125 -0.004596323 0.0055621862 -0.002175212 -0.080351174 0.0024916679 -0.06335166
-0.07738477 -0.10047972 0.077047914 0.08650349 -0.07216821 0.067288205 -0.08494754 0.037734523
0.06811771 -0.10067837 0.0031827688 0.10979839 -0.03417904 0.008835398 0.05881378 -0.011887684
0.0011856034 0.04178202 0.009628668 -0.076736644 -0.037319213 -0.01937259 -0.06540769 0.083579466
-0.10447926 0.095391154 -0.033582248 -0.10568282 -0.066481546 -0.0553502 0.03759934 -0.047380053
-0.084800676 0.105234295 -0.044348665 -0.10837754 0.09879862 -0.002236552 -0.09060021 -0.016540334
-0.09142095 -0.029262595 -0.033969767 0.1001336 0.016930446 0.104391724 -0.0748623 0.010777794

layers.8.bias f4 [80]
00000000: e76b 8e3d a5b4 5bbc 9497 a2bd b307 c43d
00000010: 8427 d43d 7b27 0fbc 19da 7cbd 421f 25bd
00000020: 4265 39bd 4f7f d53b 908f d33b 7cfb fe3c
00000030: f26b 983d 8283 40bd 3e2f 733d b2bc 1ebd
00000040: babd 9abd 1595 0b3d b876 20bd 9fb8 5d3d
00000050: d4f6 1cbd 0307 4cbd a993 333c 236b 65bd
00000060: 4ce2 e1bd 912e c53d abd3 4dbd 47df aa3d
00000070: a1bb 023d da94 c93d 2e3c 89bd f896 3c3d
00000080: 8309 af3d cdfb fdbc 46ec 06bd 6a7d bc3d
00000090: 0b85 053c 8b9b c93d d689 24bd 2383 173c
000000a0: 6b8a 563d 7b76 293d 3028 23bc e835 e3bc
000000b0: a28b e63c 947b d3bd 4f7f cbbd 1c46 9bbc
000000c0: 2ec7 57bd e844 b43d 545f 343d e49e aebd
000000d0: 9a91 c13d 8ad9 773d 3004 5b3c c393 d43d
000000e0: 3b6e dabc 88fe e03c 64b0 babd e84a 3e3d
000000f0: c050 863c b0a7 9fbd f7c6 d8bd eb13 c8b9
00000100: eae7 a7bd 868a ddbd 04a7 8abd 3466 5f3c
00000110: fd8a e8b9 ae78 db3d 1b77 663d 1cc0 d43c
00000120: d25e 6bbd f8ed 53bd ddbc 8dbd 9aba afbd
00000130: 3f8b c7bd 4573 a1bd 4fde 8ebd 4fad d63d
0.069541745 -0.013409768 -0.079390675 0.09571781 0.103590995 -0.00873744 -0.06173143 -0.040313013
-0.045262583 0.0065154205 0.006456323 0.031125776 0.07442464 -0.047000416 0.059371226 -0.038754173
-0.07555719 0.034077723 -0.03917572 0.054131147 -0.03832133 -0.049811374 0.010960498 -0.056010377
-0.11029491 0.096280225 -0.05025069 0.08343368 0.031917218 0.09842844 -0.067009315 0.046042413
0.08546736 -0.031003857 -0.03294017 0.09203608 0.008149396 0.098441206 -0.040170513 0.009247574
0.0523781 0.041372757 -0.009958312 -0.027735665 0.028142754 -0.10326305 -0.099363916 -0.01895433
-0.052680187 0.08802205 0.044036224 -0.085264 0.094515994 0.060510196 0.013367698 0.10379746
-0.02666389 0.02746512 -0.09115675 0.046458155 0.016395926 -0.07795656 -0.105848245 -0.00038161813
-0.08198531 -0.10817437 -0.06770137 0.013635207 -0.00044354043 0.10716377 0.05626593 0.025970511
-0.057463475 -0.051740617 -0.069207884 -0.08580513 -0.09743356 -0.07883314 -0.06975996 0.10482275

layers.10.weight f4 [80, 80]
00000000: f828 7fbc abc2 9bbd d672 d03d 1856 543c
00000010: a436 73bd a86c 1dbd c099 1ebd 40ed 633d
00000020: 544d 58bd 9a28 8fbd 9eec 8a3d 785c 98bd
00000030: 301d aabc aa3f d73d f89f a1bd 3e57 2bbd
00000040: 44be 1cbd 06e7 cc3d fa84 a0bd 8407 2b3d
00000050: 40c4 96ba 2427 c9bc 10cf b43c 6036 5dbb
00000060: 9012 b13c 029a ab3d 942c 143d 7891 e43c
00000070: d458 643d b296 c5bd 88b1 8ebd c41a 58bd
00000080: 7824 783d 38ae adbd cceb 6b3d c883 ab3c
00000090: 1ce4 0f3d 043b 3d3d 248b 193d 1098 07bc
000000a0: 8030 213c e2cd c33d 7d9a 9bbd f04b bc3b
000000b0: eca4 d5bd 6cdd 403d 5838 9a3c b0ca 02bd
000000c0: 22ae de3d 4fa0 7bbd 3072 1fbd 4457 b93d
000000d0: 0661 dd3d f8d6 64bd f8e1 f0bc 1a62 15bd
000000e0: 9cd8 8f3d e064 043d b5cf aebd 4d6e 91bd
000000f0: 623c d93d 8c70 b0bd 00eb 92bd 88ce 83bd
00000100: 916f c0bd 601e 8b3c 12d5 81bd f498 babc
00000110: 7494 a8bc 40ea e43d 6065 d93b 9ec2 df3d
00000120: 6c93 873d 2cff 4c3d f043 e73c 309e cc3d
00000130: 181c a73d 1b67 53bd fcb6 33bd 6038 123d
00000140: 0688 733b 1345 b93d b064 99bd 2b01 173c
00000150: e60f 22bd 8d12 b2bc fdc7 843d e057 773d
00000160: 7c53 2e3d a79d f5bc 6d44 d7bd 0287 c63d
00000170: 794b 9ebd 826a e43d 89e2 6bbd 10f0 923c
00000180: eb8e d8bd d20a 193c d0de debc 1400 dc3c
00000190: 8cac 5a3d 680a f23c 36d0 bd3d 09ba 883d
000001a0: 2634 bc3d fd63 bbbd 70c8 4a3d 754d 92bd
000001b0: 3a09 4f3d 6350 993c 0e1b 86bd ed61 10bd
000001c0: 6eeb 0cbb aa80 8dba 086a 463c 8302 36bd
000001d0: aa4c 8dbd 6a6b c6bd e4b5 903d 0dcb 9bbc
000001e0: eb57 9a3d ee21 a0bd 6059 bfbc b0a6 093d
000001f0: bf60 c4bd cd21 5abd 4069 bd3a 3c13 06bd
00000200: 2c07 7b3d 613f 603d 3b04 d83d 70dd 89bb
00000210: 95cb 903c e80e e33d 452c c4bd 6679 8bbd
00000220: bc6b c03d 50b7 bc3d 442d 17bd 91c3 c8bd
00000230: 00e1 7cba 3cae 873d 0724 c6bd caa9 b8bd
00000240: b0c5 733d 7642 c6bd 136a debd fc12 ab3d
00000250: 538f bd3d cdbb 753c 4cdb bfbd 2da9 d33d
00000260: fc7a 4b3d 1062 7f3d 2c49 3c3d c2a9 de3d
00000270: 40c3 65bc fc1b d1bd 861e c8bd 5680 9fbd
00000280: 680f f1bb cf46 c4bd cad8 e13d 7c60 14bd
00000290: 4913 9fbd af22 db3d 565b 57bd 104d 0e3c
000002a0: 084d dd3c 4dd4 53bd bc71 9abc e450 acbd
000002b0: 7301 a5bd b0b5 a63d 14c9 333d ac49 cfbd
000002c0: 3872 b5bd c49f de3d 0886 373d 2155 913d
000002d0: eef6 db3d da5b 81bd 811c 86bd 96a1 c83d
000002e0: 1e00 ad3d 973e 473d b024 a4bd 2931 933d
000002f0: af16 37bd 382b 40bd 10f1 ecbc 5187 193c
00000300: 6f34 beba a38c 5f3d c0c9 2e3d 4eff c83c
00000310: d90d 003d 4bc3 aa3d f09a e1bd 5785 dc3d
00000320: f3a2 7d3d 00c3 83bd 3894 a33c b2be 90bd
00000330: 49db a93d 9eb0 d7bd 2921 9fbd ec78 693d
00000340: e094 b43c 3ffa a2bd 6650 c5bd 5262 a93d
00000350: d65a 3b3c af3d fa3c d890 ff3c 220f d7bd
00000360: ef9f 933d 68f7 febc ecb5 c53d 60ee e33d
00000370: 20e2 183d cdb3 e1bd 8c20 d9bc 35aa c9bd
00000380: d094 543d 0257 87bd 00c1 7d3d 34e9 80bd
00000390: f33c d43d 4f17 54bd bfc3 213d dd90 2dbc
000003a0: 6638 d2bd 845c b63d 10d8 8e3d 0cf6 c63d
000003b0: b4f8 603d 583d 4dbc fb14 93bd 86f8 a43d
000003c0: c2f7 8c3d c054 50bd 1008 b43c 30cc 743d
000003d0: 7fb5 6cbd ca32 48bd 6c9d 173d a69a 2fbd
000003e0: 86af b43d 372b c0bd 9ca2 c5bc 2c8c 8ebd
000003f0: 3c37 9ebd f0b8 853c b44c e5bc 7026 7e3d
-0.015573733 -0.07605489 0.10178153 0.0129599795 -0.05937828 -0.0384337 -0.038720846 0.05564618
-0.05280812 -0.06990166 0.067834124 -0.07439512 -0.02076587 0.1051019 -0.0789184 -0.041831248
-0.03826739 0.10005002 -0.07837863 0.041755214 -0.0011502579 -0.024554797 0.022071391 -0.0033754334
0.021615297 0.08378984 0.036175326 0.027901396 0.055748776 -0.096478835 -0.06967455 -0.0527599
0.060581654 -0.08480495 0.05759792 0.020936862 0.03512965 0.04619886 0.03748621 -0.008276001
0.009838223 0.095607534 -0.07597826 0.005746357 -0.10431847 0.047086164 0.018825695 -0.03193158
0.10873057 -0.06143218 -0.038927257 0.09049848 0.108095214 -0.055869073 -0.029404625 -0.03647051
0.07023737 0.032322764 -0.08535711 -0.07101116 0.1060722 -0.086152166 -0.07173729 -0.06435877
-0.093962796 0.016982257 -0.06339468 -0.022778012 -0.0205786 0.11177492 0.0066343993 0.10925792
0.06619915 0.05004804 0.028230637 0.09991109 0.08159655 -0.051612 -0.04387568 0.035698295
0.0037159934 0.09046378 -0.07489908 0.009216587 -0.039565943 -0.021737361 0.06483457 0.06038654
0.042560086 -0.029982401 -0.10511098 0.096937194 -0.07729239 0.11153127 -0.057589088 0.017936736
-0.105741344 0.009340959 -0.027205855 0.026855506 0.05338721 0.029545978 0.09268229 0.066761084
0.09189634 -0.091499306 0.04950756 -0.0714368 0.05054591 0.01871509 -0.06548129 -0.03524964
-0.0021502632 -0.0010795791 0.012110241 -0.04443599 -0.06899388 -0.09688456 0.07065943 -0.01901772
0.075363 -0.078189716 -0.023358047 0.03360623 -0.09588765 -0.05325489 0.0014450923 -0.032733187
0.061286137 0.054747943 0.10547682 -0.0042073056 0.0176752 0.110868275 -0.09578756 -0.06810264
0.09395549 0.092146516 -0.036908403 -0.09802926 -0.0009646565 0.066250294 -0.096748404 -0.0901676
0.0595147 -0.09680645 -0.10860076 0.0835323 0.092558526 0.0149983885 -0.093679994 0.10335002
0.049677834 0.06234938 0.04596822 0.108722225 -0.014023602 -0.10210416 -0.09771447 -0.0778815
-0.007356573 -0.09583818 0.11027677 -0.036224827 -0.0776735 0.10699975 -0.05257734 0.008685365
0.02701427 -0.051716138 -0.01885306 -0.08413866 -0.08056917 0.08140123 0.043892935 -0.10121474
-0.08859676 0.108703166 0.044805557 0.07096315 0.107404575 -0.063163474 -0.065484054 0.09796445
0.08447288 0.048643675 -0.0801481 0.07187111 -0.044699367 -0.046916217 -0.028923541 0.009370641
-0.0014511476 0.05457748 0.042672873 0.024535801 0.031263206 0.083380304 -0.1101588 0.1076762
0.06192298 -0.06433678 0.019968137 -0.07067622 0.082937784 -0.10531734 -0.07769997 0.057000086
0.022043645 -0.07957887 -0.096344754 0.08270706 0.011435231 0.030546991 0.031196997 -0.10500933
0.07208239 -0.031123832 0.096538395 0.11129451 0.037325025 -0.110206224 -0.026504777 -0.098469175
0.05189973 -0.06608392 0.061951637 -0.0629448 0.10363188 -0.05178004 0.03949332 -0.01059362
-0.102646634 0.08904365 0.069748044 0.097148985 0.05492468 -0.0125268325 -0.07181736 0.080552146
0.068831936 -0.050862074 0.0219765 0.05976504 -0.057790276 -0.04887656 0.037015364 -0.042872094
0.08822541 -0.093832426 -0.02412539 -0.069603294 -0.07725379 0.016323537 -0.027990676 0.062048376

layers.10.bias f4 [80]
00000000: 00e9 7cbd b891 c83d 0077 883c f1bf adbd
00000010: 49c5 c83b 58f4 47bc f8f5 8fbd c01c aa3d
00000020: 44cf 163d 0214 69bb 6897 20bd e0a9 90bc
00000030: 76dc 7e3d 1a9e 9b3d a35d 92bd 78e2 e33d
00000040: 0f30 b3bc 8faa 893d d02a 2bbd 1079 063c
00000050: 8d6d bb3d 1956 523d b4cd d8bc 95d2 c6bd
00000060: a010 d3bd 06c8 96bb b794 403d 0234 8cbd
00000070: d4a4 373d 5e21 34bd 8065 e5bb 1107 4bbd
00000080: c176 0e3d f9d8 aebd 400f 9a3a 241f 93bd
00000090: 8019 42bd 1277 7c3d 3635 ab3d 74ea dbbd
000000a0: 649c e7bb e83e 23bd 384e 843d 34f4 f33b
000000b0: 12f4 cfbc d405 233d 4b5f 963d 50c4 41bc
000000c0: 28d1 8f3d d0d4 5abc 0902 853d 9904 523c
000000d0: 8c24 5ebd 5875 45ba 8cfc 01bd c130 bf3d
000000e0: 60cc d1bc e85b 343c 80c5 34ba abc1 f23c
000000f0: 32bf 513d 2a3b 48bd e33d a2bd b7bc 813d
00000100: db69 e23d a8a1 74bc fc70 59bb 5470 d93d
00000110: 7d43 a73d b0f9 dabb 9aaf cbbd 8c93 c73d
00000120: 0f24 d93d 245b babd 2410 a43d 1c30 3bbd
00000130: 9aaa 14bd 1880 2f3c dc6c e4bc a783 c93d
-0.061745644 0.09793419 0.016658306 -0.084838755 0.006127034 -0.012204252 -0.07029337 0.08306265
0.036818758 -0.0035564904 -0.039206892 -0.017659128 0.062221967 0.07598515 -0.07146766 0.1112718
-0.021873502 0.067219846 -0.041788876 0.0082075745 0.091517545 0.05135164 -0.026465274 -0.09708134
-0.10305905 -0.0046014814 0.047016826 -0.06845857 0.044834927 -0.043977134 -0.007000625 -0.049567286
0.03478122 -0.08537478 0.0011753812 -0.07183674 -0.0473876 0.06163699 0.083597586 -0.10738078
-0.0070682038 -0.039854914 0.064602315 0.0074448828 -0.025384936 0.03980048 0.073423944 -0.01182659
0.07022315 -0.0133564025 0.06494529 0.012818479 -0.054234073 -0.0007532439 -0.031734988 0.09335471
-0.025610149 0.01100824 -0.0006895885 0.029633364 0.05120773 -0.04888455 -0.0792196 0.063348226
0.110553466 -0.01493112 -0.0033178916 0.10617128 0.08167169 -0.006682597 -0.09945603 0.09744939
0.10602581 -0.09099415 0.08010891 -0.045700178 -0.03629551 0.010711692 -0.02788394 0.09839564

layers.12.weight f4 [40, 80]
00000000: 0eae e1bd 514e 883c 79a7 d63d 0136 66bd
00000010: 2609 da3d d4e7 243d d221 9b3d a75b 9e3d
00000020: 1082 0abd 9289 aa3d 4272 d43d c099 8cbb
00000030: e56f 983d 2417 c3bd f490 88bd 83f8 af3d
00000040: d4e4 abbd 44d6 6bbd f0fa 8cbd de39 a33d
00000050: d5e0 9dbd a2f4 ccbd b730 753d bc0e e23d
00000060: ab94 5cbd 7214 29bd 5c2a 62bb 305a c23c
00000070: 2cb1 b53d 7d7f 07bd a359 7cbd 7c92 9c3d
00000080: 5e1e b33d 7032 01bd 285d aa3d b056 703d
00000090: e055 343d 5094 88bd 4550 31bd 9c6f 89bd
000000a0: cd25 0f3c 02b7 da3d 8879 903d 64ae 083d
000000b0: ff2c debc 4ab8 603d 9cd6 6dbb e86b fabc
000000c0: 3df7 0e3d c09c 5fbd 92a3 6a3d 28bc cf3d
000000d0: 360e e13d f0d4 32bd b8f4 0f3d 7c74 e73d
000000e0: 38c0 913c 0836 9bbc 982e 4fbc 1de5 b93d
000000f0: eb80 e43d e422 153d c8d3 523d 554d e13d
00000100: 01dd 45bd 29db d8bd 7260 14bd 453e 93bc
00000110: 3ddf 523d 5884 eb3c 00e8 7c3b 6de2 9c3d
00000120: 7f5d 82bd 85af b5bd ace4 7ebc 803e df3c
00000130: be84 c33d d890 f03c e82b 0d3d 5e9c 56bd
00000140: 01b1 60bd c4ca 28bd e139 bbbd 4084 ca3c
00000150: 50d0 803c e64c 9e3d e1e7 d9bd 1011 49bc
00000160: 666b bb3d d874 9ebc 34ed 2c3d 3869 7b3d
00000170: 632b 52bd 00c0 a33c b96a e2bd 2407 19bd
00000180: 7040 c4bb 80b7 853a a8cf 8a3d 2f44 d0bd
00000190: c1e6 a7bd bcbf bd3d 8694 9f3d 48b3 113c
000001a0: c0dc 55bb 1997 dabd e80b 5b3d 283b 90bc
000001b0: be72 02bd 9161 9fbd 6434 8fbd 311a 9abd
000001c0: 5d31 c7bd b8bb 9b3d b837 173d 0075 a8bb
000001d0: 98f8 f23c 947f 763d 3f46 c2bd d854 cf3d
000001e0: e0c5 bebd 8aa6 843d a07c cdbb 886f 7f3d
000001f0: bcbb fcbc 24cb db3d 642a c63d 1e66 8ebd
00000200: b9d5 9bbd 7452 a63d 046a 5cbd 040a 243d
00000210: d4b4 1c3d 5faa e3bd 88d2 c63d 60f6 5e3d
00000220: 52f1 9bbd 4a5c 92bd 1157 d1bd 78e8 d83c
00000230: c587 64bd 2884 953c ae8d df3d 68ff 67bc
00000240: 0ea4 6bbd dc39 a73d dc79 97bc f486 acbd
00000250: d068 4d3d e423 dc3d d00b 86bb 76cf 2dbd
00000260: 80b2 843c aa8b 8e3d cc2e e33d 1e89 e4bd
00000270: 00c2 c0b9 ae95 ae3d 2465 c0bc 506f 313d
00000280: fcf5 2abd 81b3 9ebd a1cc 853d 728d 6dbd
00000290: 2ef2 b0bd 50d3 edbb 400e 143b 388f b73d
000002a0: 82a7 d9bd 0bfd 1dbc b032 643d 2391 7dbd
000002b0: 2811 2d3d e51c 6f3c d028 f73c af3a 1fbd
000002c0: 8615 43bd aa5a d63c 30fb a3bc f02c 993b
000002d0: ef3a 2bbd ef42 8dbd 9c62 42bd 264e b83d
000002e0: 2a86 df3d 6a6a 383d ed27 083d 503d 893d
000002f0: 22a0 a53d 36f8 a9bd 1c15 173d 8015 0aba
00000300: 8919 62bd e844 e23c 5c3f 86bd 1055 ddbb
00000310: 48f7 283d 8845 d9bc 5335 b6bb 8d05 96bd
00000320: 6e55 55bd d841 943c e097 8e3d 89bb 5bbd
00000330: 292c d9b9 5077 10bd b31b 8a3c fc2e babd
00000340: ec28 c73d 8294 14bd d017 d4bd 79cc dbbd
00000350: e03a ce3d ddf3 fcbc f43a c5bd e1d1 873c
00000360: 4877 c13c 8803 ccbd 6032 27bc 573f 403d
00000370: bda6 cf3d 10a2 103d 9054 073d 349b cd3d
00000380: 40b4 a53c 482b 1ebc edca 6c3d 2c6d 333d
00000390: 6635 833c 5a59 9bbd d0cf b23c 0c52 f7bc
000003a0: 7464 dd3d d463 563d 78f4 2bbd 60eb ba3d
000003b0: 986b d9bc 7b0e b8bd 2e6c 4dbd d274 11bd
000003c0: b632 ccbd 8876 6f3d 80b4 373b ecf7 c03d
000003d0: e098 ccbc 186d d9bc 03e1 a5bd 34b4 c0bd
000003e0: 288a 34bd 24f1 013d 7837 a73c 0773 c8bd
000003f0: 7134 afbd 00d9 c63a efa2 e2bd 12e4 bfbd
-0.110195264 0.016638907 0.104811616 -0.056203846 0.10646276 0.04026015 0.0757481 0.07732325
-0.033815444 0.08327021 0.103733554 -0.0042907894 0.07443217 -0.09525898 -0.066682726 0.08592322
-0.08393255 -0.057577386 -0.068838 0.07970022 -0.07708899 -0.100075975 0.05986091 0.110379666
-0.05385272 -0.041279264 -0.0034510111 0.023724645 0.088716835 -0.033080567 -0.06160892 0.07645127
0.087460265 -0.03154224 0.083185494 0.05867642 0.04402721 -0.06668913 -0.04328944 -0.06710741
0.00873704 0.10679437 0.0705443 0.033369437 -0.027121065 0.05486325 -0.0036291247 -0.030569032
0.034903754 -0.054592848 0.0572849 0.1014331 0.10989039 -0.043660104 0.03514549 0.113015145
0.017791852 -0.018946663 -0.012645386 0.09076903 0.11157402 0.036410227 0.0514715 0.11001078
-0.04830647 -0.105886765 -0.03622479 -0.017974028 0.051482428 0.02874963 0.0038590431 0.07660375
-0.06365489 -0.08871368 -0.015557449 0.027251482 0.09546803 0.029365942 0.0344657 -0.052395217
-0.054856304 -0.041208997 -0.09141899 0.024721265 0.015724331 0.07729511 -0.106399305 -0.012272134
0.09151344 -0.019342825 0.042218402 0.06137964 -0.051310908 0.019989014 -0.11055512 -0.037360325
-0.005989127 0.0010201782 0.067778885 -0.10169255 -0.0819831 0.09265086 0.077920005 0.008892842
-0.0032632798 -0.10673351 0.05347815 -0.017606333 -0.031847708 -0.07782281 -0.069924146 -0.07524527
-0.09726212 0.07604164 0.036918372 -0.0051409006 0.029659554 0.06018026 -0.09486055 0.101236045
-0.093150854 0.06477077 -0.00627096 0.062362224 -0.030851237 0.107321054 0.09676054 -0.06953071
-0.07609124 0.081211954 -0.053812042 0.040048614 0.03825839 -0.1111648 0.097081244 0.05443418
-0.076143876 -0.07146509 -0.10221685 0.026478037 -0.055793542 0.018251494 0.10915695 -0.014160015
-0.0575295 0.08165333 -0.018490724 -0.08424178 0.050148785 0.10749033 -0.0040907636 -0.04243418
0.016198397 0.069602326 0.1109291 -0.111589655 -0.00036765635 0.08524643 -0.023485728 0.043319046
-0.041738495 -0.077490814 0.065331705 -0.05799622 -0.08639942 -0.0072578564 0.0022591501 0.08962864
-0.10627653 -0.00964285 0.055712402 -0.06190599 0.04225269 0.014594291 0.030170828 -0.038874324
-0.04762795 0.026166279 -0.020017236 0.0046745464 -0.04180425 -0.06897532 -0.047457322 0.08999281
0.10914262 0.04502336 0.0332412 0.067011476 0.080871835 -0.082992956 0.036885366 -0.0005267486
-0.055200133 0.027620748 -0.065550536 -0.006754525 0.04125145 -0.026522413 -0.005560556 -0.073252775
-0.052083425 0.018097803 0.069625616 -0.053645644 -0.00041422367 -0.035270035 0.016858911 -0.09090993
0.09724602 -0.03627444 -0.103561044 -0.107323594 0.10069823 -0.030878002 -0.09630385 0.01657957
0.023616448 -0.09961611 -0.010204881 0.046935406 0.10139225 0.035310805 0.03303963 0.10039368
0.020227551 -0.009653874 0.057810713 0.043805286 0.016016673 -0.07585402 0.021827608 -0.03019049
0.108101755 0.052341297 -0.04198119 0.091269255 -0.026540563 -0.08987137 -0.050151996 -0.0355118
-0.0997061 0.05846265 0.002803117 0.09422287 -0.02497524 -0.026541278 -0.08099558 -0.09409371
-0.04407707 0.03172411 0.020412192 -0.09787565 -0.08554924 0.0015170872 -0.11066233 -0.09369673

layers.12.bias f4 [40]
00000000: d765 cd3d fbe9 51bd 13e9 123d 44d4 babc
00000010: 51e8 66bd c924 c3bb 1e0d 1a3d da49 d8bd
00000020: 8135 76bc 5a2d 1abd 7cdc 43bd dba6 f03d
00000030: 09ed b13d 0d8f 2abc cb34 dbbd cc17 b03d
00000040: a3ab ae3b 3f36 dbbc 35fe 423c 7098 123d
00000050: d264 82bd 9673 b9bd 6e84 373d 6037 af3d
00000060: 12c4 0ebd 07e5 5dbd f07f a33d 50dd 203c
00000070: b377 d23c 6094 59bd e4e9 44bd 936b d13c
00000080: c7a6 083d e0db 74bd 07a8 553d 7062 bd3b
00000090: fa1b e4bd 060c bdbd 0200 17bd ed74 21bb
0.1002919 -0.05124853 0.03586681 -0.022806294 -0.056373898 -0.005955313 0.037610166 -0.10560961
-0.015027405 -0.037640907 -0.047817692 0.11750575 0.08687789 -0.0104100825 -0.10703429 0.08598289
0.0053305193 -0.026759265 0.011901428 0.035789907 -0.06366886 -0.090552494 0.04480403 0.08555484
-0.034854956 -0.054173496 0.079833865 0.00981839 0.025691843 -0.053120017 -0.048074618 0.02556399
0.033362176 -0.05978 0.052162196 0.005779557 -0.111381486 -0.09230809 -0.03686524 -0.0024636344
