purning_test.pt (torch, 90799 bytes, 17 tensors)

layers.0.weight f4 [10, 1]
00000000: 1a89 b63e 0000 0000 0000 0000 f246 7d3c
00000010: 20e9 8b3f 405e 32bf 0031 8a3f 0000 0000
00000020: 8d14 8e3d 6d00 c6ba
0.35651475 0.0 0.0 0.015458809 1.0930519 -0.69675064 1.0796204 0.0
0.069375135 -0.0015106328

layers.0.bias f4 [10]
00000000: 2ebb 143f c6b9 0dbf 046f b5be 2dfd ad3e
00000010: b95e 8ebe 54b6 fabe cc94 40bf 3c84 33bf
00000020: 26a4 083f 4d73 7a3e
0.58098114 -0.5536159 -0.3543626 0.3398222 -0.27806643 -0.4896723 -0.75227046 -0.7012365
0.5337547 0.24458046

layers.2.weight f4 [20, 10]
00000000: 6acc 4d3e 0000 0000 debb 4c3e 6aa3 0bbd
00000010: 32ac 153e 1523 9c3e 4134 e23d 8c1c 3c3e
00000020: a1b0 79bd c537 dabc 25e4 aa3c d179 873e
00000030: 48b0 15bd d11a 82bd c957 62bc e374 933e
00000040: 23d3 373e 18e8 73bd 9aef 543e 2b37 9cbd
00000050: 995e 4d3e 0000 0000 0000 0000 983f bbbd
00000060: f75e af3e 0e3f 00be cabc 963e 4aeb cebd
00000070: 3505 1dbc 6dbc cd3c 0236 903d 7653 143e
00000080: fa7a bebd 7053 113e f41e 35be 0000 0000
00000090: f963 b33d 245b 193e eaec 8cbe 09f8 d03a
000000a0: 7133 053d 51b4 853e df80 29be 0a90 fc3d
000000b0: 8f8d 0f3e 02e3 84be 7f13 92be ffa4 2abe
000000c0: f405 1f3d 9866 9b3e 7107 c23d 9cb7 fbbd
000000d0: 0874 f83d 03ad d93d 8e7d aabd 58ae eb3d
000000e0: 0000 0000 b862 49be ba4f 72bd bdeb 79bd
000000f0: 4bee 853e 586e 023d 0000 0000 86db 22bd
00000100: f64c fa3e 0000 0000 647c b63e 6802 833d
00000110: 4e56 96bd f036 f2ba b2e0 563e c5b9 973e
00000120: 18dd 50be cb4e 823e aba7 42be 66e9 3d3e
00000130: 7b70 c7bd 000f 203c aa37 25be 2303 623e
00000140: 5c51 02be 0000 0000 0000 0000 1b44 4cbd
00000150: 2cb5 b03c 0000 0000 82a9 1e3e 0000 0000
00000160: cae8 b63d 11d2 aebd 69da a0bd 105b 853d
00000170: 99d8 9c3e ce14 72bd ef31 b03e c8ff 173d
00000180: 13a6 b53e 746e 073e cb7a d8bd ae02 3dbd
00000190: 9241 8d3d c0bc c33c 0000 0000 cf6a 54bd
000001a0: 7f50 5e3e 0000 0000 9d83 d23d e06e 00bd
000001b0: 4f5b 013e 8a59 02bd 0000 0000 0000 0000
000001c0: 53a5 64be 0a7c 15bc 0000 0000 0000 0000
000001d0: e2f7 b5bc a0c4 f7bc 6e66 263d 96be 67be
000001e0: 30e4 1dbd 7080 6a3d 5c2b 9c3d ae4b 853e
000001f0: 349f a93d d8f0 7fbd ae5c a63e c46f c33d
00000200: fbb1 493e ce07 1fbe 1d97 833e cacd 403e
00000210: d0ab 0c3e 691f 843e 3b71 6cbe 0a08 25be
00000220: 2d00 913e 72ce 61be 0bae 043e 4026 09be
00000230: 0000 0000 0d7a 3fbe 0000 0000 cd6f 8f3d
00000240: 0000 0000 a0f8 eebc 0000 0000 d0bc 8bbd
00000250: 1bec 2bbe 0000 0000 107f 423e f0f5 efbc
00000260: 0000 0000 c96b 0d3d 96f2 99be e4d3 66be
00000270: 310f a8bc 6212 63be 260c 883d a142 abbd
00000280: a0f8 66bc 139f 1bbe e078 98bc 12a1 903d
00000290: 07e9 28be d88d 3fbd 0000 0000 d50b 20be
000002a0: 4589 7dbe 3508 a1bb 8fb4 b23d aca1 9f3d
000002b0: 7092 37bd b532 0ebe b818 abbd cc8a a23d
000002c0: e691 343e a0c2 79be d6c3 89bb 4346 03be
000002d0: 262d 033d 98d3 4f3d b47e edbd d042 f4bd
000002e0: a013 0abe 0e4a 733e 362f 893e 9403 a1be
000002f0: c4c8 89be 7270 873e 7dc7 033e 748b eabd
00000300: 0000 0000 c1f4 4d3b de99 1bbe 4c99 95bd
00000310: 0000 0000 9276 e2bd cae0 87bd 0c40 9b3d
0.20097509 0.0 0.1999354 -0.03409139 0.14616469 0.30495515 0.11045123 0.18370265
-0.060959462 -0.026637921 0.02086074 0.26460126 -0.036545068 -0.06352771 -0.013814875 0.28800115
0.17951636 -0.059547514 0.20794526 -0.0762771 0.20055617 0.0 0.0 -0.09142989
0.3425214 -0.12524053 0.2944091 -0.101034716 -0.009583761 0.025114262 0.07041551 0.14484963
-0.093008 0.14191985 -0.17687589 0.0 0.08759303 0.14976174 -0.275245 0.0015943061
0.03251976 0.26114133 -0.16553067 0.12332161 0.14018844 -0.25954443 -0.285305 -0.16664504
0.038824037 0.3035171 0.094740756 -0.1229088 0.12131506 0.106287025 -0.08324729 0.11507863
0.0 -0.19666564 -0.059158064 -0.061015833 0.26158366 0.031843513 0.0 -0.039760135
0.48886842 0.0 0.35641778 0.06396943 -0.0734068 -0.0018479507 0.20984152 0.29633918
-0.2039684 0.2545074 -0.19009273 0.18546066 -0.09738251 0.009769201 -0.16134515 0.22071509
-0.12726349 0.0 0.0 -0.049869638 0.021570764 0.0 0.1549435 0.0
0.0893112 -0.08536161 -0.078541584 0.065115094 0.30634 -0.059101872 0.34413096 0.037109166
0.35478267 0.13225728 -0.10570296 -0.046145134 0.06897272 0.023893714 0.0 -0.051859673
0.21710394 0.0 0.102790095 -0.03135574 0.12632488 -0.031823672 0.0 0.0
-0.22328691 -0.0091238115 0.0 0.0 -0.022212926 -0.030245125 0.04062503 -0.22631297
-0.038547695 0.057251394 0.07625458 0.26034302 0.08282319 -0.062485546 0.32492584 0.09542802
0.196968 -0.15530321 0.25701228 0.18828502 0.13737416 0.25805214 -0.23090069 -0.16116348
0.28320447 -0.22051409 0.12957017 -0.13393497 0.0 -0.18698902 0.0 0.07003746
0.0 -0.029171288 0.0 -0.068231225 -0.16789286 0.0 0.18993783 -0.029292077
0.0 0.03452662 -0.3006789 -0.22541767 -0.020515056 -0.22174981 0.06642942 -0.08362318
-0.014097363 -0.15197401 -0.018612325 0.07061972 -0.16495143 -0.046766132 0.0 -0.15629514
-0.24759395 -0.0049143084 0.08725845 0.07794508 -0.044817388 -0.1388653 -0.08354324 0.0793663
0.17633781 -0.2439065 -0.0042042537 -0.12819771 0.03202548 0.0507389 -0.11596432 -0.11926806
-0.13484049 0.23758718 0.26793832 -0.31448042 -0.26910985 0.26452976 0.12869067 -0.1145238
0.0 0.0031426402 -0.15195414 -0.0730463 0.0 -0.11057772 -0.06634672 0.07580575

layers.2.bias f4 [20]
00000000: 1a29 123e 6f32 033e 81e8 0fbd d857 903e
00000010: 9cdc 123e edd3 82bd 16c6 debe 5111 8b3e
00000020: 068d 5d3e 33bb c43d 5347 82be 645d 15be
00000030: 080e f73c b7c1 863e c78a 85be 12df 863e
00000040: 925e 053e 68a2 013e e4b6 0c3e 3490 76bc
0.14273492 0.12812208 -0.035133842 0.2819202 0.14341968 -0.06388078 -0.43510503 0.2716165
0.21635827 0.09606018 -0.2544504 -0.14586407 0.030158058 0.26319668 -0.2608244 0.26342064
0.13024357 0.1265961 0.13741642 -0.015049029

layers.4.weight f4 [40, 20]
00000000: b0ae dc3d df82 de3d 45bd 02be fb04 95bc
00000010: 23e3 ce3d 5fa7 80bd b985 c7bd a054 04bd
00000020: e923 82bb 4c55 6c3c 3e1f 383c e8de f93d
00000030: 839c 963b 72f1 2e3d 0000 0000 b73d 77be
00000040: 5fb3 e63c 4058 8a3d 1866 1cbe fac8 0d3d
00000050: 98d3 10be 91f1 3bbe c932 263b b6e2 953d
00000060: 06af 50bd 0b32 31be a9de 803d 9153 f2bd
00000070: 481d f43d 02af 523e fb70 563d d2e5 54be
00000080: d9db 133e 9ad0 1bbe f919 3fbe bf08 8e3d
00000090: 1329 6abd 4584 51be bb0a acbd e4bf 3fbe
000000a0: 1cd6 1abd f217 ffbd 90ac d0bc 1848 86bc
000000b0: e103 37be 0489 e63d c0ab d13d e3bc 26be
000000c0: f050 c13c 2cf7 8f3d b613 f8bd c261 09be
000000d0: 00e5 243d 6e30 3bbe e290 8abd 4464 9dbd
000000e0: 12f1 133e 9cd4 9c3d d021 ff3d 3ed5 37be
000000f0: 784c 0abe cb25 983d 8fb5 1ebe 4f92 4e3e
00000100: 821a c1bd 692b 92bd 5f15 c83d 8391 ac3d
00000110: d744 3fbb 2102 5d3e 813b 67bd e126 e63d
00000120: 42fb 96bb a104 fa3d ee7a 353e 2cb4 43bb
00000130: 4356 f438 ca7f 483e b0e6 5c3e cc9e 0b3e
00000140: 3b39 023e d07f 433d f29c c6bd 46a2 aabd
00000150: a761 49be 3830 19bd 79dd 593e 4e08 a6bd
00000160: b764 18be 8d24 723e 81bc 98bd 6828 9f3d
00000170: 11de 03be e4f2 ac3d 335c 033e a85a 45be
00000180: 81ed 613e f070 edbd c145 2ebd 263b af3d
00000190: 744d 553e 37c4 f33d d595 43be 5c9c 6d3e
000001a0: dbda 573d 347b 6bbd 88c4 62be 846a 27be
000001b0: 1421 24be f126 debd 41fd f5bd d2ee 323e
000001c0: 79f1 fcbc c818 433e c8da 233e 630e e3bd
000001d0: 5180 2b3e 6883 133e 639d d03d 0fb4 3d3d
000001e0: 6857 b3bd fcf1 4fbd bb8b febd 245e 58be
000001f0: 0000 0000 302f 5e3c ae99 30be e820 c8bc
00000200: 1b6e ffbd 4b62 63be b838 19be 4629 23be
00000210: bcee 28be 78ad 7f3d 4013 a3bd 2c8a 9b3d
00000220: 256a 06be aede dcbd 0000 0000 7b5f f5bd
00000230: 1cdd 2ebe c07b 03be 7fae f4b7 3d8d 01b9
00000240: 5ab1 023d db7e b5bd 09a4 22bd ffe4 253d
00000250: 457b b2bd 6f6e aebd 5e91 43be 0000 0000
00000260: a6bd b6b8 a095 1dbd 7300 17be 5a39 a0bd
00000270: d20d 0ebe 5e48 5db8 7983 8db7 6fb6 3fbe
00000280: fc96 023e 08da 07be b239 3bbd 9ce0 80bc
00000290: c12e 24be 0000 0000 0000 0000 d792 f6bc
000002a0: ca35 24be cce2 13be 6cd6 21bd e99b 843c
000002b0: 8c5b 49be 4add f63c 0000 0000 0000 0000
000002c0: a186 213d b85b 17be 144a 0d3e e592 acbd
000002d0: 2d70 86bd 3621 043e b5bf 8dbd 8d45 163e
000002e0: 196f 30bc 5eb8 143e 361a 753d b72b 333e
000002f0: c04c d6bb 9e5b 353c fe88 963d 83b6 493d
00000300: f7cf 4f3e 5619 c03d d66b 883b 2e6f 97bd
00000310: af41 8fba c6b2 fbbd b837 243e abed bfbc
00000320: dd29 4d3e 17fb c6bc 593f 283e 5e0e ffbd
00000330: f418 8dbc 1d44 0c39 d6b5 0b3e 09b2 14be
00000340: b791 893d ae4a 903d 4c25 4d3e e36b d3bd
00000350: 5566 c73b 5fd2 80bd 5413 0ebd 0661 d83d
00000360: a678 abbd 3ddd 11bc 2de8 81bd 8ccc 20bc
00000370: b0e0 f7bd 20d6 fd3b 84b5 01be 383c f4bd
00000380: f475 9bbd 10eb d43c fec2 16be 0000 0000
00000390: 34bb 14be e949 48be 6485 d43d 0000 0000
000003a0: 9045 36bd 0885 1cbe e07b 06bc f0dc 57be
000003b0: 7ed0 acbd c6dc dfbd e0aa 823d e0f8 6f3d
000003c0: 1878 dbbd b927 e5bd 518d f33d 0a63 d93b
000003d0: 5c00 64be d80c 433b 5ee6 673c 6f0b ffbc
000003e0: db70 ccba fdce 763c 02f3 c43d cb92 4c3d
000003f0: 0bbd c93b 48a1 513d 0dcd 233d aaa2 3bbc
0.107755065 0.108648054 -0.12767513 -0.018190851 0.10101917 -0.062819235 -0.097423024 -0.032307267
-0.003971566 0.014424633 0.0112379175 0.12200719 0.0045962944 0.04271073 0.0 -0.24144636
0.028161703 0.067551136 -0.1527332 0.034615494 -0.14143217 -0.18353869 0.002535986 0.07318632
-0.050948165 -0.17304246 0.06292469 -0.11832345 0.119196475 0.20574573 0.05235384 -0.20790794
0.14439334 -0.15216294 -0.18662252 0.06935262 -0.057168078 -0.20460613 -0.08400484 -0.18725544
-0.037801847 -0.12455739 -0.02547291 -0.016391799 -0.17872573 0.112566024 0.10237837 -0.16282992
0.023598164 0.07029566 -0.121131346 -0.13416198 0.040257454 -0.18280193 -0.067659155 -0.0768514
0.1444743 0.076577395 0.12457621 -0.17952439 -0.13505733 0.074290834 -0.15498947 0.20173
-0.09428884 -0.07137186 0.09769701 0.08426192 -0.002918532 0.21582843 -0.05645323 0.11237884
-0.004607589 0.12207914 0.17722675 -0.002986203 0.00011650894 0.19579998 0.21572375 0.13634795
0.12717144 0.047729313 -0.09697904 -0.083317325 -0.19666158 -0.0373995 0.21275891 -0.08107053
-0.1488217 0.23646756 -0.07457829 0.07771379 -0.1287768 0.08444765 0.1282814 -0.19272864
0.22063257 -0.11593807 -0.04254699 0.085562035 0.20830327 0.119026594 -0.19100125 0.23204178
0.05269895 -0.057490543 -0.22145283 -0.16349226 -0.16028243 -0.10847271 -0.12011195 0.17473915
-0.030876862 0.19052422 0.16001427 -0.110867284 0.16748168 0.14405596 0.10186269 0.046314295
-0.08756906 -0.050767884 -0.12428995 -0.21129662 0.0 0.013561055 -0.17246124 -0.024429753
-0.12472173 -0.22205465 -0.14963043 -0.15933713 -0.1649732 0.062421292 -0.07962656 0.075947136
-0.13126428 -0.1078466 0.0 -0.11981102 -0.17076534 -0.12840176 -2.9168323e-05 -0.00012355014
0.031907417 -0.088620864 -0.039707217 0.04050159 -0.08714918 -0.08517157 -0.19098422 0.0
-8.713761e-05 -0.03847277 -0.14746265 -0.07823439 -0.1387246 -5.2757903e-05 -1.6869732e-05 -0.18721937
0.12752908 -0.13266766 -0.04570932 -0.015732102 -0.1603346 0.0 0.0 -0.030099316
-0.16036144 -0.14441985 -0.03951113 0.016187625 -0.19663829 0.030134816 0.0 0.0
0.039435033 -0.14781082 0.1379779 -0.084264554 -0.065643646 0.12903294 -0.06921331 0.14674969
-0.010768675 0.14523456 0.05983945 0.17497145 -0.006539911 0.0110692065 0.07350348 0.049246322
0.20294176 0.093798324 0.0041632457 -0.07394253 -0.0010929609 -0.12289958 0.1603688 -0.023428759
0.20035501 -0.02428965 0.16430415 -0.12453912 -0.017223813 0.00013376815 0.13643584 -0.1452104
0.06717246 0.07045494 0.20033759 -0.10323312 0.006085197 -0.06290125 -0.0346864 0.10565381
-0.08372621 -0.008902845 -0.06343112 -0.009814393 -0.121034026 0.007746473 -0.12666899 -0.11925548
-0.07590857 0.025990993 -0.14722821 0.0 -0.14524537 -0.19559444 0.10377005 0.0
-0.044499934 -0.15285122 -0.008208245 -0.21080375 -0.08438204 -0.10930781 0.06380248 0.058586955
-0.107162654 -0.11189217 0.11892188 0.006634121 -0.22265762 0.0029762294 0.014154045 -0.031133382
-0.0015597598 0.015063998 0.096166626 0.04994468 0.006156569 0.0511792 0.039990474 -0.011452356

layers.4.bias f4 [40]
00000000: f0dd 96bc 35a0 c53d 301f 06bc c10e 00be
00000010: e246 d13c 5c67 863e cbe7 48be 2765 023e
00000020: ff6a 9f3d 74d0 813d 8494 62be 7c8c f13d
00000030: c709 b53c 90f0 35be 3ac5 1ebd a23f f83d
00000040: 06ec 5b3e 6acc 23be a2e8 10be 3ce0 52be
00000050: 9765 c73d 8c12 c2bd 54ae 853b 60f1 55bc
00000060: 1fff d93c 2e2f a1bb 20d2 b4bb c6c5 6f3d
00000070: 7a32 6dbe 33c8 0dbe 5066 20be 2aaa a93d
00000080: 6d9c 0abe c07f 50be 50ac db3d fcd0 d6bd
00000090: dc6a 1dbe 2ecd 3b3e 63a8 053e 6c61 21bd
-0.018416375 0.09649698 -0.008186147 -0.12505628 0.025546495 0.26250732 -0.19619672 0.12733899
0.0778408 0.063385874 -0.22126967 0.117943734 0.022099389 -0.17767549 -0.03876231 0.12121512
0.21476755 -0.15995947 -0.14151242 -0.20593351 0.097361736 -0.09476194 0.0040796194 -0.013058037
0.026610909 -0.0049189543 -0.005518213 0.05853822 -0.23163787 -0.13845901 -0.15664029 0.08284409
-0.13536234 -0.20361233 0.107262254 -0.10489079 -0.15372795 0.18339989 0.13052516 -0.03939955

layers.6.weight f4 [80, 40]
00000000: 83bf eebb c44b 393a 492f 013e a3b6 8d3d
00000010: b4e3 4bbd 57b3 d0bc c4d8 8c3d 0000 0000
00000020: 59d1 ef3d 561f e13d 9c21 88bc 3c83 2b3d
00000030: f540 f43d 2e1f c13d ce9d a63d 9d23 a3bd
00000040: 5c96 f73c f08d 99bd 0000 0000 bc59 4c3d
00000050: 34b4 6fbd 9471 843d 987b 163e f039 d83c
00000060: 8134 6c3d 08c6 293e c0f6 abbc 4bc7 cebb
00000070: cfd6 c93b 7ab3 693d 1c4d 59bd 6aa9 ac3c
00000080: ed21 1a3a 5eaa 9e3a fc6a a23d a910 26bd
00000090: c2f2 29bd c05c 1f3c 316f 623d 7fca fe3d
000000a0: bd7c 18bc 9937 023c 50d7 88bc f553 0abb
000000b0: 02d2 573c 551d 2bbd 0000 0000 d4ba 27bd
000000c0: e835 f1bc c9fc 613d 7c24 8e3d 72b3 ac3d
000000d0: 15ca 17bd 5c70 3cbc 0000 0000 6f01 0d3e
000000e0: 2231 f53d 07e7 143e 583f 243d 40ba 6d3b
000000f0: a05b d33d 777d 4fbd e0c8 d23d 2049 a0bb
00000100: 33a0 8c3d e248 063e 4433 933d 97f6 053e
00000110: 9ba9 d9bc 0000 0000 0000 0000 8cf1 2c3d
00000120: f3ea c73b 7499 f1ba 186e 3d3d 89ef 56bc
00000130: 0000 0000 0000 0000 fe6b 11bd 0000 0000
00000140: 027a f4bd 0fe8 0f3e 478a a7bd 9c89 1cbd
00000150: 3482 783d 468d 0ebe eefb f83d e066 5d3c
00000160: 74da 19be f168 173e 4895 a13d 2048 2abc
00000170: e826 0c3d 08e2 8f3d 90a5 823d 56fb bf3d
00000180: f42e 243d a7aa 10be 4b8f 81bd 06b4 b33d
00000190: eeca c73d aab3 c83d 2c41 46bd 026a 8e3d
000001a0: 782d a43c c847 a0bc bee4 7abd ce03 19be
000001b0: b095 d5bd f0d9 51bd 4ac0 5bbd a074 1fbe
000001c0: f15c 1dbe 34b7 ecbd 30f8 0cbe d3a8 f6bd
000001d0: 167b d93d 441d 10bd a0fb bd3c 61dc 033e
000001e0: 0f23 d4bd 81c6 c8bd 32a6 0abe 0000 0000
000001f0: 0000 0000 e4a7 05bd 0000 0000 0000 0000
00000200: 40d8 cabc f481 b3bd 0239 cfbd 201b b63c
00000210: 08ae ec3c 0000 0000 4f5e a8bd 006d 09bc
00000220: acef 6abd f07a d0bd f80f c6bc 26be acbd
00000230: 6ff0 bbbd 0000 0000 0000 0000 ce45 bfbd
00000240: 4c20 21bd 6421 18be 0000 0000 0000 0000
00000250: c0fb 243d 0000 0000 0000 0000 39e5 07be
00000260: f067 dc3c 0000 0000 0000 0000 ee97 6fbd
00000270: 42e8 6dbd 0000 0000 a883 8abd f028 683c
00000280: 3868 06bc 7572 46bd 0000 0000 c242 dc3c
00000290: 0aed 323c d975 923d f663 b53d 0000 0000
000002a0: 0000 0000 df6c e23d f906 f63d 0000 0000
000002b0: ac93 063e e153 bc3c 1002 22bc de07 9e3d
000002c0: d8da aabc 1b78 a73c 1971 9fbd 2d52 0f3e
000002d0: 154b 1d3d 0d9e 003d 57c5 763d a254 aa3d
000002e0: 0739 503c 06b9 db3c 288c 983d 4762 54bc
000002f0: ab08 e5bc aa98 c03d 4037 453b e4de 8a3c
00000300: ede0 aabc fe98 c53d f323 6bbd 0380 9f3d
00000310: 800c b33d 301d 883d e0cf d83c 8006 18bb
00000320: 8075 44bb f29d 7cbd e0a0 b23c e4db 953d
00000330: 0000 0000 4104 9bbd 0000 0000 90c6 19bc
00000340: 0000 0000 38ca da3c d837 53bd a0cb 7d3d
00000350: 8095 ddbc d0b3 f9bc a868 a63c 50ed c7bc
00000360: 0000 0000 8609 30bd 8b5b b5bd 7aa3 8b3d
00000370: 08da c1bc 0000 0000 0000 0000 8024 2c3b
00000380: 8db4 a5bd c0ec ff3c 1c61 8cbd b4fa ffbd
00000390: 0000 0000 e226 17be 3a31 5dbd e444 f3bd
000003a0: 3445 b7bd 0000 0000 fc3a 7fbd f2b5 863d
000003b0: b817 04be 802c a2bc d0be 793d 40f6 333c
000003c0: 0fbf b0bd 7604 d13d b666 08be 5d4c d23d
000003d0: 7f81 203e 7360 ca3d 2023 013d 7221 d83d
000003e0: ff76 bc3d 1b59 d3bd d254 f53d 9a4e bc3d
000003f0: 8dc7 9d3d fc6f 93bc f4a8 063e c19c 81bd
-0.0072860136 0.000706848 0.12615694 0.06919601 -0.0497777 -0.02547614 0.06877282 0.0
0.11709852 0.10992305 -0.016617589 0.0418732 0.11926452 0.09429775 0.081355676 -0.07965777
0.030223064 -0.074977756 0.0 0.049890265 -0.058521464 0.06466976 0.14695585 0.026394814
0.05766726 0.16579449 -0.020991683 -0.0063103787 0.0061596404 0.057055928 -0.053052053 0.021076877
0.0005879689 0.0012105217 0.07930562 -0.040543232 -0.041491278 0.009726703 0.05528182 0.12440967
-0.009307084 0.007947826 -0.016704232 -0.0021107171 0.013172628 -0.04177602 0.0 -0.040949658
-0.02944465 0.055172715 0.069405526 0.08432664 -0.037057955 -0.011501398 0.0 0.13770078
0.11972262 0.14541255 0.04009947 0.0036274344 0.103202105 -0.050656762 0.1029222 -0.0048915297
0.06866493 0.1311374 0.071875125 0.13082348 -0.026570132 0.0 0.0 0.042222545
0.006101006 -0.0018432573 0.04624757 -0.013118633 0.0 0.0 -0.03550338 0.0
-0.11937334 0.14053367 -0.08180671 -0.038217172 0.060671046 -0.13921079 0.12157427 0.013513297
-0.1502474 0.14786126 0.07889801 -0.0103931725 0.03421679 0.07025534 0.06379235 0.093741104
0.04008384 -0.14127599 -0.06326159 0.08774571 0.09755503 0.09799893 -0.048401996 0.06953813
0.020041212 -0.019565478 -0.0612533 -0.14942858 -0.10428941 -0.051233232 -0.053650178 -0.15571833
-0.15367486 -0.11558381 -0.13766551 -0.120439194 0.1061918 -0.03518416 0.023191273 0.12877037
-0.103582494 -0.098034866 -0.13539961 0.0 0.0 -0.032630816 0.0 0.0
-0.02476132 -0.08765021 -0.10118295 0.022229731 0.028891578 0.0 -0.08221113 -0.008387804
-0.057357475 -0.101796985 -0.024177536 -0.084347054 -0.091767184 0.0 0.0 -0.09339486
-0.03933744 -0.14856488 0.0 0.0 0.04027915 0.0 0.0 -0.13271035
0.02690503 0.0 0.0 -0.0584945 -0.058082826 0.0 -0.06763393 0.0141699165
-0.008203559 -0.048449 0.0 0.026887301 0.010920772 0.07151384 0.08856957 0.0
0.0 0.11055922 0.12013049 0.0 0.1314227 0.022989215 -0.009888187 0.07716344
-0.020856306 0.020443013 -0.077852435 0.13996191 0.038401682 0.03140073 0.06024679 0.08316924
0.012708909 0.026821624 0.07448608 -0.012962884 -0.027958235 0.09404118 0.0030092746 0.016951986
-0.020859206 0.096483216 -0.05740733 0.07788088 0.087426186 0.06646192 0.02646631 -0.0023197234
-0.0029977262 -0.061674066 0.021805227 0.073173314 0.0 -0.07569171 0.0 -0.00938572
0.0 0.026707754 -0.05156693 0.06196177 -0.027048826 -0.03048125 0.020313576 -0.024405152
0.0 -0.042977832 -0.08855351 0.0681829 -0.023663536 0.0 0.0 0.0026266873
-0.08091078 0.03124082 -0.0685446 -0.1249899 0.0 -0.14760926 -0.054002024 -0.11878374
-0.08948746 0.0 -0.06231211 0.06577672 -0.12899673 -0.01979661 0.06097299 0.010984004
-0.086301915 0.10205929 -0.13320431 0.102684714 0.15674399 0.098816775 0.03152764 0.10553254
0.09202384 -0.1031973 0.11979069 0.091946796 0.07704077 -0.017997734 0.13150388 -0.063287266

layers.6.bias f4 [80]
00000000: dbc9 54bd 2b88 44be 2d86 c7bd 527a 87bd
00000010: 20bb 0cbe 20ab 11be 1086 e83c c4f9 0e3d
00000020: 7563 b3bb 6391 0dbe 33fd b1bd 51af 6b3d
00000030: ce66 a2bd 4bd7 05bd 6b80 07be 6cf2 a33d
00000040: aab8 2abe eacd 63bd 109d 733d 56f3 e93d
00000050: da79 f6bd e087 0fbd faef 7e3d d69e aa3d
00000060: cf11 06be 068a 033e a18c 053d d0ec f9bd
00000070: 4cfe e9bd d31b cd3c 2d1b 05bd ba3e 943d
00000080: 958d 393d c6b0 04be 592b bd3d 10a7 23bd
00000090: 3823 21bd 5629 0cbd 8b90 713d 3e2a 11be
000000a0: 9249 0b3e aa09 fd3d a5a9 a13d cd0b 29bc
000000b0: d9be 7a3d b02a 633c 3021 9abc 9c65 b93d
000000c0: 3bab e2bd 5b1c 1cbe 7626 e3ba 58da adbc
000000d0: 487d 47be b05a 563c 2830 97bc 0ef1 cabd
000000e0: d3c2 4e3d 1aaf d33d 5d84 f63d ac1a a2bc
000000f0: 7150 ea3d 85a5 963d b9e2 2fbe 091f 023e
00000100: bc0c 4fbd e4c9 2fbd 0df9 05bd 1ec0 c1bd
00000110: 8a23 00bd 8aaf 20bd 4848 f6bc 730b 95bd
00000120: 8d06 ae3d 3218 8bbd 629f 18be c9c4 7d3d
00000130: 90ab debd d3ba 5bbc 5940 24be d4c6 4a3d
-0.051950317 -0.19192569 -0.09742389 -0.066151276 -0.13743258 -0.14225435 0.028384238 0.034906164
-0.0054745027 -0.13824992 -0.08690872 0.05754024 -0.07929765 -0.032676022 -0.13232581 0.08005223
-0.16672006 -0.055616297 0.05947596 0.11423366 -0.1203496 -0.03504169 0.06224058 0.08331077
-0.13092731 0.1284562 0.032604817 -0.122033715 -0.114254564 0.025037682 -0.03249662 0.07238527
0.04530104 -0.12958059 0.092367835 -0.039954245 -0.039340228 -0.03421911 0.058975738 -0.1417627
0.13602284 0.12355359 0.07893685 -0.010317755 0.061217163 0.013865158 -0.018814653 0.090525836
-0.11067816 -0.15245192 -0.0017330188 -0.021222278 -0.19481385 0.013083145 -0.01845558 -0.09909259
0.050478768 0.10336132 0.12036965 -0.019788109 0.11441124 0.07355789 -0.17176332 0.12707151
-0.050549254 -0.042917147 -0.032708216 -0.094604716 -0.031283893 -0.039229907 -0.030063763 -0.072775744
0.08497343 -0.06791724 -0.1490455 0.061955247 -0.10872567 -0.013411242 -0.16040172 0.049506024

layers.8.weight f4 [80, 80]
00000000: 5469 483d 6831 343d a642 87bd 78b1 bcbc
00000010: 0000 0000 0000 0000 9c1a d9bd 0000 0000
00000020: 1893 9dbd c68a 16bd 7cc4 7ebd 7ec4 8bbd
00000030: 98ad 653d 68ea 34bd ad5b 5bbd e1f0 bebd
00000040: b059 d3bd 8067 673d 0000 0000 e259 94bd
00000050: 0000 0000 c8b2 0dbd e05e 673d 001e 3f3c
00000060: c0ec 073d 790a abbd a800 823c 509a 68bc
00000070: cd9c 9ebd 0000 0000 0000 0000 0000 0000
00000080: e438 5e3d 7c7a 1abd 5806 2a3c 88d0 97bc
00000090: 6495 683d 2d63 a7bd 4950 c1bd 1251 8e3d
000000a0: 9891 4f3d c41a 5d3d c6fd 0ebd 6b18 67bd
000000b0: 20b2 93bc 6c6f 3dbd 0a95 bfbd e8f9 e2bc
000000c0: 0000 0000 0afb 3fbd 38e7 513c fc42 323d
000000d0: 0000 0000 0070 c23c a45a a5bc 307f 0dbc
000000e0: a099 0c3d 5876 8d3d d845 c13c f73e 7fbd
000000f0: 50e5 ee3c 6a93 5fbd 00d7 28bd 52aa 8e3d
00000100: d4d8 2e3d 2807 debd 6070 82bd cca8 2d3d
00000110: 0000 0000 6cf4 6e3d a030 713c 9c97 493d
00000120: 0000 0000 7c20 82bd f04a d5bc 98cb 21bc
00000130: 0000 0000 d8ef ef3c 70fa dd3b 6e6b 89bd
00000140: ec02 c2bc 08a9 ec3c acf1 b8bc a85a 12bd
00000150: e4b0 a73d 048c 72bd ec44 a8bc c8c0 44bc
00000160: 50c4 473d ba03 9b3d 1a78 b33d 6c9a de3d
00000170: 00cf b63a 24c5 a5bd 205c e43d 00f8 cc3d
00000180: 01c4 e4bd 720c a0bd f03e bcbd a079 cfbc
00000190: ed3e 7abd 821a 10bd 240f 443d 7055 c3bb
000001a0: 250f 8fbd 6a0c 81bd 804d 973c d817 8b3d
000001b0: 8ab5 8bbd 687c 7bbc f629 39bd f0a5 94bc
000001c0: fec3 b9bd d45a bd3d c82f 3ebd 0cd0 e2bd
000001d0: c4b6 b43d b004 6e3d 90ba 003c df74 83bd
000001e0: 0098 81b9 8aee 94bd 3f56 c8bd 36c6 e23d
000001f0: 60ff edbc 0060 dfb9 db69 68bd 007d 953c
00000200: 706a afbd b270 983d 401f e03b 7404 3ebd
00000210: bb58 7dbd 668c 833d d86f 0c3d e8f2 933c
00000220: 3ed2 823d aaa9 7ebd 609d fdbb b85a dcbd
00000230: a438 82bc 9e40 52bd 6487 c6bd 500e 45bc
00000240: 8c0c 7bbd e9eb d4bd 0009 6f3d d0e1 9a3c
00000250: b095 963d 75b8 5abd 4006 a43a 0c8b 213d
00000260: 605f 8d3c e533 aabd 9548 acbd 6061 6e3b
00000270: 5869 57bc f61d b53d a02c cc3d e239 87bd
00000280: 4286 003d 0697 a4bb 0000 0000 0000 0000
00000290: fcfb ef3c 0000 0000 a0a7 d83b 58d3 34bc
000002a0: 4656 8cbb 1493 63ba 0000 0000 3660 b93d
000002b0: 381e a43d fceb d2b6 0000 0000 cc57 15bd
000002c0: d3aa 413d 0000 0000 0000 0000 caff a53d
000002d0: 845a cc3d c374 e73a 44b1 793d 9d0c b93d
000002e0: a468 213d c9ac b43d aed4 983d 0000 0000
000002f0: 88a6 00bc 1b59 a93d a738 063c a0c5 a03d
00000300: d5b9 b0ba 7730 db3c ea67 83bc 1025 b13c
00000310: 80b1 90bb 0000 0000 0000 0000 80a9 d6bb
00000320: 407c 9b3d 2d3e 203c dd19 423d 1846 183c
00000330: 236a 22bb 8b6b df3a 0000 0000 0000 0000
00000340: a2ac 173b b878 53bc 26ea 883d 7635 803d
00000350: 03d5 4b3b 0479 593d 0000 0000 2cc4 8a3d
00000360: 6e1f c93d 9d78 aebb 4937 853d 0aa2 dc3c
00000370: c0e5 ec3a ae88 6fbb 6dc6 df3d 69e7 133b
00000380: f0d8 813b 8285 bfbc cbfd 9b3d 0000 0000
00000390: 0000 0000 2833 cc3c e061 b93c 4867 213c
000003a0: a5c3 38bc 182a b03d 0000 0000 245f 32bb
000003b0: 0000 0000 483a 13ba 6b63 9a3d 08d3 863d
000003c0: bb9c 04bd 42bb 6b3b c02e 8d3c c077 543d
000003d0: cdd1 9bbc 00f4 90bd 3732 963c 0000 0000
000003e0: 0cfc a13d 3ccb 5c3d dfc9 d8bd d63a 8e3c
000003f0: f9b3 f2bc 30e5 8f3c fd39 ddbd bfad 85bd
0.048928574 0.04399243 -0.06604509 -0.023033842 0.0 0.0 -0.106007785 0.0
-0.076940715 -0.03675344 -0.0621991 -0.06824587 0.056073755 -0.04416886 -0.053554226 -0.09323288
-0.10319841 0.05649519 0.0 -0.07243706 0.0 -0.034594327 0.056486964 0.011664867
0.033184767 -0.08351607 0.015869454 -0.014196947 -0.07744751 0.0 0.0 0.0
0.054253474 -0.037714466 0.010377489 -0.018532053 0.056783095 -0.08173213 -0.09439141 0.06949057
0.05067596 0.053980604 -0.034909986 -0.05641977 -0.018029273 -0.04624884 -0.09354599 -0.027707055
0.0 -0.04687027 0.0128114745 0.043520913 0.0 0.023735046 -0.020184822 -0.008636281
0.034326196 0.06907338 0.023592874 -0.062315907 0.02916208 -0.054583944 -0.041220665 0.0696608
0.042687252 -0.10841209 -0.0636909 0.042397305 0.0 0.058338568 0.014721066 0.04921685
0.0 -0.06353852 -0.02603671 -0.009875201 0.0 0.029289171 0.0067742392 -0.06709944
-0.023683034 0.028889194 -0.022576176 -0.035730988 0.08188036 -0.05921556 -0.020540677 -0.012008853
0.048771203 0.0756907 0.08763142 0.108692974 0.0013947189 -0.08094242 0.11150384 0.1000824
-0.11170197 -0.07814874 -0.09191692 -0.02532655 -0.061095167 -0.03518153 0.047866 -0.0059611127
-0.069853105 -0.06301196 0.018469572 0.06791657 -0.06821735 -0.015349485 -0.045206033 -0.018145531
-0.09070586 0.0924584 -0.046432287 -0.11074838 0.08823922 0.05810994 0.00785698 -0.06418776
-0.00024718046 -0.0727206 -0.09782075 0.11072962 -0.029052436 -0.000426054 -0.056741577 0.018248081
-0.08565223 0.0744337 0.006839663 -0.046390966 -0.061852198 0.06423263 0.03428635 0.018060163
0.06387757 -0.062173523 -0.007739708 -0.10759491 -0.015896149 -0.051331155 -0.096937925 -0.012027338
-0.061291263 -0.10396559 0.058358192 0.018906504 0.073527694 -0.05339857 0.001251407 0.039439246
0.017257392 -0.08310679 -0.084122814 0.0036373958 -0.0131476745 0.08843605 0.09969449 -0.06602837
0.03137804 -0.005022886 0.0 0.0 0.02929496 0.0 0.0066117793 -0.011036716
-0.0042827455 -0.0008681279 0.0 0.09051554 0.08013576 -6.28596e-06 0.0 -0.036460683
0.04728205 0.0 0.0 0.081054285 0.09978202 0.0017658699 0.06096007 0.09035609
0.039406434 0.08822019 0.074624404 0.0 -0.007852204 0.08268949 0.008192218 0.07850194
-0.0013483117 0.026756508 -0.016040761 0.021624118 -0.004415691 0.0 0.0 -0.0065509677
0.07592058 0.009780449 0.047387946 0.009294055 -0.00247825 0.00170456 0.0 0.0
0.0023143669 -0.0129072 0.06685285 0.06260197 0.0031102307 0.053093925 0.0 0.06775698
0.09820448 -0.005324437 0.065046854 0.026932735 0.0018073842 -0.0036549973 0.109265186 0.002256835
0.0039626285 -0.023379091 0.076167665 0.0 0.0 0.024926737 0.022629678 0.009851284
-0.011277114 0.08601779 0.0 -0.0027217353 0.0 -0.00056162896 0.07538494 0.0658322
-0.032376032 0.0035969769 0.017234206 0.051872015 -0.01902094 -0.07077789 0.018334491 0.0
0.07909402 0.053904757 -0.10585379 0.01736204 -0.029626833 0.01756534 -0.10802076 -0.0652728

layers.8.bias f4 [80]
00000000: 5047 aabd 845e 18bd 4f93 8ebd 4584 a73d
00000010: 9862 cd3c 48b0 35bc 53bc 19bc 65ad a4bd
00000020: 44a3 b33d a155 dabd 9029 f5bc c7f0 53bd
00000030: f1dd 243d c51f 893c aae7 06be bdf0 20bd
00000040: 171b 57bd b4f2 61bd 57a8 c2bd ce38 aebc
00000050: 5813 edbd 4a76 5bbd ee2e 473d 09b5 a6bb
00000060: 6f43 d6bd e952 91bd ec79 3f3d a438 823d
00000070: 255f 97bd 543c 11be 7d42 80bc 20db 833c
00000080: d45c 66bd 2313 9bbd 0e40 1bbd e4c3 f7bc
00000090: ad4b efbd 6e76 4ebc 0cad e6bd c4a6 d6bd
000000a0: a49a ccbc 6367 713d de5b 82bb 5231 663d
000000b0: 71d8 b8bd 0896 8c3d face bcbd 2452 c9bc
000000c0: 7005 04bd 55a2 91bd 14e9 85bc 5db7 e2bd
000000d0: 66fc 99bc d444 bfbc 4d01 66bd 1db3 01bd
000000e0: 1251 4c3c 3479 8fbb 0075 85bc 1d08 403d
000000f0: 13ef dcbd 4bae 5fbd 86d0 dabd 8eca 403c
00000100: 97a9 8b3a 9a85 5fbc 9847 0cbe bf9c 8ebd
00000110: 02c9 7c3c 9854 903d d215 983c da08 6abd
00000120: 4c56 a1bd 0025 8bbd 51cc c23c ac57 5fbd
00000130: 8d52 9bbd 4af8 abbd b707 083c ea43 e73b
-0.08314383 -0.037199512 -0.06961691 0.08179525 0.025071427 -0.011089392 -0.009383279 -0.08040885
0.08771375 -0.10660864 -0.029927045 -0.051743295 0.040250722 0.016738782 -0.1317431 -0.039292086
-0.05251607 -0.0551631 -0.095047645 -0.021267321 -0.11575955 -0.053579606 0.04862874 -0.005087499
-0.10462081 -0.07095892 0.046747133 0.063584596 -0.07391194 -0.1418317 -0.015656704 0.016095698
-0.05624087 -0.075720094 -0.037902884 -0.030244775 -0.11684356 -0.012601478 -0.11263475 -0.10481027
-0.024976082 0.058936488 -0.0039782366 0.05619938 -0.09025658 0.06864554 -0.09219165 -0.0245753
-0.032231748 -0.071110405 -0.016346492 -0.1107013 -0.01879711 -0.02334825 -0.056153584 -0.031664956
0.012470501 -0.004378462 -0.016291142 0.046882737 -0.10787787 -0.054609578 -0.10684304 0.011767043
0.00106554 -0.013642693 -0.13699186 -0.06963491 0.015428783 0.07047385 0.018565092 -0.057137348
-0.07877788 -0.067941666 0.023779066 -0.05452697 -0.07584105 -0.08396967 0.008302621 0.0070576565

layers.10.weight f4 [80, 80]
00000000: 0000 0000 e0c8 a5bc 0000 0000 0000 0000
00000010: 0000 0000 0000 0000 0000 0000 0000 0000
00000020: fcfb b8bc 0000 0000 301a 0abc 0000 0000
00000030: 0000 0000 98c8 cdbc 5060 f1bc 0000 0000
00000040: 0000 0000 f4bc 81bc e556 7abd 0000 0000
00000050: 0000 0000 0000 0000 106f 163c b86d 66bc
00000060: 0000 0000 0000 0000 0000 0000 6097 98bc
00000070: 0000 0000 d20f 21bd 0000 0000 e8e2 c8bc
00000080: 0000 0000 2807 23bc 0000 0000 9c9f 9ebc
00000090: 0000 0000 df8d 69bd 8048 733c 0000 0000
000000a0: 0000 0000 0000 0000 78f2 68bc 0000 0000
000000b0: 00ad 313a 0000 0000 0000 0000 0000 0000
000000c0: 0000 0000 00c8 87ba 0000 0000 0000 0000
000000d0: 0000 0000 58b7 d53c 0000 0000 0000 0000
000000e0: 8c63 eabc 0000 0000 6e4a 88bd 0000 0000
000000f0: 0000 0000 0000 0000 e0af b53c ec1a 9abc
00000100: 003d 2d3b 1096 9c3c 38c9 d2bc 0000 0000
00000110: 0000 0000 0084 36b9 98bd a13c 30d4 0e3c
00000120: 0000 0000 18b7 023c 0000 0000 a069 4fbb
00000130: 1077 883c 58e2 103c 0000 0000 0000 0000
00000140: 0000 0000 0000 0000 5b1e d53c 5abb 633d
00000150: e031 0dbb 0000 0000 0836 54b8 579c c13b
00000160: 3041 8dbb 866f d43a e04a 0ebb 0069 c13c
00000170: 32ca b43d 469d 483d a4a6 6e3a cda9 1bba
00000180: 4066 ce3c e2eb 593d 1cf7 82bc 8f34 f83c
00000190: d775 5fba 9f80 553d 4cdf 1d3c 8b62 103d
000001a0: e24f 3c37 3984 bf3c 6ecb c83d d778 3838
000001b0: 96ce fa39 707e 2a3d 6158 bab9 8038 dc3b
000001c0: 44e8 c43d 0000 0000 0000 0000 2462 c63d
000001d0: cac9 75ba 40b2 29bb 7f64 edb8 1fa5 a23d
000001e0: 0000 0000 9336 59bb 3a48 9ebc c9f7 f73c
000001f0: ed9a e9b9 99af 7f37 0000 0000 132c 963c
00000200: a86a 203d 264d b23a 6c36 073d d87b 9939
00000210: c9ba 143d 8001 8b3c 7094 f63b cd56 b3ba
00000220: 3384 a13d 5377 443c 4085 a43d eb7a b639
00000230: 8095 e9bb 44b4 32bc 7e78 00bb 28a4 563d
00000240: e27f 1bbb fd20 a73d fd87 d93d 28cf fe3a
00000250: 0ca8 8a3d 7133 6b37 9323 3f3d f2d9 c83c
00000260: 64ae 633d 304d 83bb 2822 77bc 58bc c53c
00000270: 67c0 b23a e258 693d 3804 053d 7399 1dbb
00000280: 1af2 913d 0000 0000 b6f5 843b a5b3 e6b9
00000290: 0000 233d 6c59 2e3d 1918 f33c e5a9 d4ba
000002a0: dc34 223c 72ff bd3d 404c baba 30de 33bc
000002b0: fc59 1e3d f73a 0cb9 ed1d b83a a3bd 24bb
000002c0: 0e43 6d3a cd91 cc37 e9df 9a3d 99f1 e2ba
000002d0: 3345 48b9 e946 0e3b 0000 0000 2d0e 593d
000002e0: 93ee 4937 afd5 85ba 34ef a63d 2c44 9034
000002f0: ac6a 523a 6548 4a39 13d3 90b9 b8ad 1f3d
00000300: 0000 0000 f618 bc3d 70e5 393d d833 a23d
00000310: ad3f 77ba 9a95 3abb 528d 00b9 9285 bf3d
00000320: d4fd 543d c490 32bb 5bec 4aba 4c51 90ba
00000330: 45cc 81b9 5630 453d e0c3 a83b 9b48 503b
00000340: 0000 0000 7a04 fe3c 0000 0000 0ea8 8c3d
00000350: 19f2 4b3d 3882 673d 2c1a af3d 29c8 723b
00000360: 79ef 5aba 5bec 06ba 91ed 22bb 7b86 083d
00000370: aa2e cc3d cca4 83bc 883e f53c 8c0c 91b5
00000380: ef02 bd3c 0b5e 223d 9f7a 333b a788 2e3b
00000390: 5772 d03d 594b 073d c22d 413d 4ce7 bc3d
000003a0: 8c01 d139 7e71 c4ba b888 6fbb 0000 0000
000003b0: 3ad3 7abc 9746 ce3c 50c2 a4b9 1463 6a3d
000003c0: 0000 0000 0000 0000 3768 c2ba cfd5 c83d
000003d0: 0000 0000 e0db 623d 7f9a e23c c432 dc3d
000003e0: 389d 87b7 65b7 483a 80ee 813d 0000 0000
000003f0: ce95 74bb fac7 713d 5dad 943d c2b1 313d
0.0 -0.020237386 0.0 0.0 0.0 0.0 0.0 0.0
-0.022581093 0.0 -0.008429095 0.0 0.0 -0.025120065 -0.02946487 0.0
0.0 -0.01583717 -0.061118025 0.0 0.0 0.0 0.009181753 -0.014064245
0.0 0.0 0.0 -0.018626869 0.0 -0.039321728 0.0 -0.02452226
0.0 -0.009950437 0.0 -0.019363217 0.0 -0.057020064 0.014848828 0.0
0.0 0.0 -0.014217965 0.0 0.0006777793 0.0 0.0 0.0
0.0 -0.0010359287 0.0 0.0 0.0 0.026088402 0.0 0.0
-0.02861192 0.0 -0.06654821 0.0 0.0 0.0 0.02217859 -0.018811665
0.0026434064 0.019114524 -0.025730714 0.0 0.0 -0.00017406046 0.019743726 0.008717582
0.0 0.007978223 0.0 -0.003164865 0.016658336 0.008843027 0.0 0.0
0.0 0.0 0.026015451 0.055598594 -0.002154462 0.0 -5.059506e-05 0.0059085297
-0.0043107495 0.0016207553 -0.002171211 0.023609638 0.08827628 0.048978113 0.0009103811 -0.0005938083
0.025195241 0.05320347 -0.015986972 0.0302985 -0.00085243344 0.052124616 0.009635758 0.035250228
1.1224272e-05 0.023378478 0.09804426 4.398156e-05 0.00047837634 0.041624486 -0.00035542532 0.0067206025
0.09614614 0.0 0.0 0.096866876 -0.0009376077 -0.0025893599 -0.000113197595 0.079416506
0.0 -0.00331441 -0.01932155 0.03026952 -0.00044556652 1.5240069e-05 0.0 0.018331563
0.039164215 0.0013603314 0.033010885 0.00029274705 0.036310945 0.016968489 0.0075250193 -0.0013682485
0.07886543 0.01199134 0.08033228 0.00034805326 -0.0071284175 -0.0109072365 -0.001960307 0.052402645
-0.0023727347 0.08160589 0.10621641 0.00194404 0.06770334 1.4019069e-05 0.046664786 0.024517987
0.055586234 -0.004007004 -0.015083827 0.02413766 0.0013637663 0.05696953 0.032474726 -0.0024047762
0.07126255 0.0 0.0040576113 -0.00044002864 0.039794922 0.042565748 0.029674577 -0.0016224949
0.009900298 0.09277238 -0.0014213398 -0.010978267 0.038660035 -0.00013373407 0.0014047005 -0.0025137446
0.00090508244 2.4386589e-05 0.07562239 -0.0017314433 -0.00019099265 0.0021709746 0.0 0.052992035
1.2036081e-05 -0.0010210777 0.08151093 2.6871692e-07 0.00080267596 0.0001929119 -0.00027623083 0.03898403
0.0 0.091844484 0.045384824 0.07920045 -0.00094317907 -0.0028470517 -0.00012259677 0.093516484
0.051999882 -0.0027246932 -0.0007740908 -0.0011010556 -0.0002475699 0.0481418 0.0051503032 0.0031781557
0.0 0.031007994 0.0 0.068679914 0.04979143 0.05652067 0.08549914 0.0037045574
-0.0008351724 -0.0005146914 -0.002486084 0.033331376 0.09969838 -0.016069792 0.029937044 -1.0806993e-06
0.023072688 0.039640468 0.002738632 0.0026631744 0.101780586 0.03303084 0.04716278 0.09223804
0.0003986474 -0.0014987437 -0.0036549997 0.0 -0.015309149 0.025180144 -0.00031425292 0.057223395
0.0 0.0 -0.0014832084 0.09806406 0.0 0.05538547 0.02766156 0.1075187
-1.6166465e-05 0.00076567224 0.063443184 0.0 -0.0037320736 0.059028603 0.07259629 0.043382414

layers.10.bias f4 [80]
00000000: 3d15 62bd 0613 6b3b 99bd 0abd 5a04 983b
00000010: 0375 91bd 72fb 8cbd 8837 8c3d 009f d5bd
00000020: 0d2f ddbb f234 d3bc 4e08 b03d 55d6 32bd
00000030: 93a4 a33d 48e3 1b3d a6a9 8abc c93e 88bd
00000040: 29d2 7a3d 57c3 603d 9653 383c 4d4f 6b3d
00000050: a952 e63a 15d0 d1bd c105 e43b 8d33 96bd
00000060: 9023 43bd 01e8 a2bc 9b4e 8abd 61f5 e6bc
00000070: d9ea 58bd ae57 d83c 59a3 c2bd c9ad 9ebd
00000080: 8615 a9bd 6727 963d 9e1e b5bd 73ca 453d
00000090: b62f 60bd bc1e 9bbc e0d6 c5bd 2ef3 d43c
000000a0: 8d1e 7dbd 505e b9bc 2a85 c0bd b31a 0ebd
000000b0: 410a a8bc ea1b a6bd c601 8b3d 6fb2 b2bd
000000c0: 42b2 29bd d4e6 c4bd f07c b1bc 9c9c 1fbd
000000d0: d7b4 24bd 2f65 d8bd cd6f c4bd e81f 1d3d
000000e0: d195 64bc d974 09bd 4489 80bd 7cb4 643d
000000f0: 8786 98bd 9bc6 353d 54da dcbd 7e40 c33c
00000100: 15b0 b73c 3fde 09bd 545e 5bbd d4e8 babd
00000110: f398 2cbd 682b 33bc 1d73 643d 26cd e2bd
00000120: c69b a03b 973f 633c 967d cdbd 4167 7fbc
00000130: 8b6a 9bbd 77a1 92bd e0d0 6e3d c748 e5bd
-0.055196036 0.0035869493 -0.03387222 0.0046391906 -0.07102396 -0.06883897 0.06846529 -0.104307175
-0.0067499937 -0.025782082 0.08595334 -0.043661434 0.079903744 0.03805855 -0.016926598 -0.066526
0.06123558 0.05487379 0.011250397 0.057448674 0.0017572242 -0.102447666 0.0069586937 -0.07334051
-0.047641337 -0.019886019 -0.06753274 -0.028193178 -0.052958343 0.026408996 -0.09503812 -0.07747991
-0.082560584 0.07331734 -0.088437304 0.048288774 -0.054733 -0.018935554 -0.09660125 0.025994863
-0.061796714 -0.02262798 -0.09400399 -0.03469343 -0.020512702 -0.08110793 0.06787448 -0.0872544
-0.041429766 -0.096143395 -0.02166602 -0.038967714 -0.040211525 -0.10566174 -0.09591637 0.038360506
-0.013951735 -0.0335587 -0.06276181 0.055836186 -0.07447534 0.044378858 -0.1078383 0.023834463
0.02242283 -0.033659216 -0.053556755 -0.0912644 -0.04213805 -0.010935642 0.055773843 -0.11074285
0.004901382 0.0138701415 -0.10033719 -0.0155885825 -0.07588681 -0.07159703 0.058304667 -0.11195522

layers.12.weight f4 [40, 80]
00000000: 2849 2f3d d1ae be39 bb43 283d 8627 b33d
00000010: 1edc d7bc 1077 413c 14b7 303a 9b2c 5337
00000020: 02e9 643d 4c29 a6bc 114b db3b d69f 2cbd
00000030: 5829 263d ba24 73bc 696a b43d 6454 82bd
00000040: 0442 d139 0948 92bc 7fc2 b239 c750 bb3c
00000050: 0000 0000 ea08 c13d 9723 273a 7cc4 e23b
00000060: c2fa 5dbd 610f 0ebb 47f7 e7bc ff0e 4e3d
00000070: a9cc 143d 3007 6f3d 2c3d 4dbc a6f2 ad39
00000080: ff63 903d 22e2 d5bc b8b6 89bc 6fb2 313d
00000090: fbf2 afba 1079 933d 2abb 81bd 4b83 31bd
000000a0: 7f21 8539 9441 03bd 182d b43c 44af 58bc
000000b0: d541 adbc 84bc 36bc 7113 db3d eccf f3bc
000000c0: bd9c d13d cfd0 0b39 3b14 bf3d a50a b7bc
000000d0: 8905 12bd 9d04 b73d 1c84 a83d 475f 4dbd
000000e0: af91 483c 13d4 f0bc a7eb 0b38 9c05 5f3d
000000f0: 83b7 0b39 d6c6 30bd e896 e3bc fff7 273d
00000100: ef32 34bd 338e 49b9 03c4 cf39 412a 8e3d
00000110: 69cb 863c 92bb 9f3d 5def d63d f116 3339
00000120: 9657 7d3d 4a84 b13c 0c7b 5db8 0939 953d
00000130: 278f 18bd ee4d 1fbd 3281 7a3d 6d11 3639
00000140: 0000 0000 b4ad 993d 9ce0 8fbc fdac 81bd
00000150: 3715 1d3d bce8 853a 71cf 25bc 7af6 943d
00000160: 0a63 dc39 1cb4 033d 51e5 693a a255 3339
00000170: 5d2a 86bd a122 82bd e240 ec3c 0ae8 d2bd
00000180: 5670 7dbc fbbe 933c a98e 92bd 55ee 6fbc
00000190: 8b11 cabd cb09 6ebc 6f04 a8bd 1082 eabc
000001a0: e5b4 813b f07b 913b 3136 07bd 9fac 0e3c
000001b0: aee2 f0bc dcef 293a fd7d 493d 340e bcba
000001c0: 7476 53bb b054 453d 067f 1d3d 7a2a 72bd
000001d0: 5dc8 cabd aa92 df39 0c0f 1e3d 42be 6d3d
000001e0: 4dc9 853d 1022 5b3c 8538 3c3c 9987 1cbd
000001f0: 0919 443c eafe 3c38 5631 aa3d 34aa 42bd
00000200: e1bd dc36 bbfd 12bd 1479 0c38 aff6 34bd
00000210: ce82 99bb ac36 3038 f8ee aabd 6455 e33a
00000220: 995d 00bd 6012 033b e5d4 233d 14e4 b63c
00000230: 3c9f f4bc 7a88 3c3a 8228 923d df59 2a3a
00000240: e506 69bc 23d9 3338 fccf c5bc 9176 2138
00000250: e68b 12bc 2eb3 36bd cb09 77bd 5c9d ed3b
00000260: 67e1 04bd b313 223d 7055 403c 3d6d 473d
00000270: 4287 4e3c a6b3 4ebd 9102 8c3d 86a3 52bd
00000280: d49a ddbc 08e4 a0bc 5d4a abba 0063 93bb
00000290: 76f8 4a3d aebc f4bc bfa3 893d ced4 0bbc
000002a0: 5be6 06bb 9d6f cc3d 4376 833c 5a0d 9f3c
000002b0: 4a6b 5dbb 0723 6dbb 8a93 813d 5f15 f33b
000002c0: f3fa 64bb 06a1 7dbb dccf af3c 2f0f 6cbb
000002d0: cb4b 04b9 ad48 df3d 0071 8dba 25c8 c139
000002e0: 737d 493d e8fe fcba f178 3fba 73ff a1b9
000002f0: dbd6 5cbc 031e 8cbb 795b b0bc 35cd 383d
00000300: eb01 5e3d 9241 7bbb 004a 3bbc ef1b 8fbb
00000310: e3dd 9cba 4ca4 63ba 4b87 713d 9321 50bb
00000320: 7b23 4038 0000 0000 a544 693d 6c92 8037
00000330: bb4f 863c 89e8 22b8 9bfb 5e3d 1b56 843d
00000340: 852a 243d f773 7039 e32f 833d e7de d93d
00000350: 7a11 b3bc 255d e839 b03c a43d 8273 ba3d
00000360: c052 b8ba 2857 1db9 8438 07b8 cef2 82bb
00000370: 20c7 3bbc 9ec8 91bb 2885 bb3d 2e35 033d
00000380: a50d 01bb 3ff7 31ba d7d9 40b9 2b9a c13c
00000390: 28da 8fba 0000 0000 da15 9e3d e0f9 4d3c
000003a0: 989a ca3d 44a0 b53d b24d 803c 14bc bcb9
000003b0: c645 ab3d 108e 3d3c 8b19 61bb c085 3b3c
000003c0: 0000 0000 04fc 38bc 25fd 53b3 e067 113d
000003d0: 5828 dd3c a3fd 0835 bb31 95bd f0c1 eebb
000003e0: cb56 253b 0000 0000 d8f6 3939 2b40 2d3c
000003f0: 9971 7939 b249 d8bd 0170 03bd 5b52 14bd
0.042794377 0.00036369872 0.041080218 0.08747773 -0.026350077 0.011808172 0.0006741148 1.2586966e-05
0.055886276 -0.020283364 0.006692298 -0.04214462 0.040566772 -0.014840299 0.088093586 -0.063637525
0.00039912772 -0.017856615 0.00034095717 0.022865666 0.0 0.09425528 0.0006375848 0.0069203954
-0.05419422 -0.0021676647 -0.028316153 0.05030727 0.03632799 0.058356464 -0.012526792 0.00033177919
0.07050323 -0.026108805 -0.01681076 0.04338306 -0.0013423854 0.07200825 -0.06334527 -0.0433381
0.00025392693 -0.032044962 0.021994159 -0.01322538 -0.021149555 -0.011153344 0.106970675 -0.02976223
0.102349736 0.0001333386 0.093300305 -0.022343943 -0.03564981 0.08936427 0.08228323 -0.05013969
0.012241765 -0.029398 3.335965e-05 0.05444871 0.00013324436 -0.043158375 -0.027781919 0.041007992
-0.043993887 -0.00019221827 0.00039628157 0.06941653 0.016454415 0.07799448 0.10494874 0.00017079317
0.061851107 0.021669526 -5.2805102e-05 0.07286269 -0.037245896 -0.03889268 0.061158367 0.00017363364
0.0 0.07503834 -0.017563157 -0.06331823 0.03835031 0.0010216455 -0.010120259 0.07273574
0.0004203546 0.032154188 0.00089224154 0.00017102671 -0.06551049 -0.06354261 0.028839532 -0.10298164
-0.0154686775 0.018035403 -0.071561165 -0.014644225 -0.09866627 -0.014528702 -0.08203971 -0.028626472
0.003958332 0.0044398233 -0.033010665 0.008708148 -0.029404964 0.000648258 0.049192417 -0.0014347495
-0.0032266648 0.048176467 0.038451217 -0.05912254 -0.099014975 0.00042643148 0.03858857 0.058042772
0.06532536 0.01337482 0.011488085 -0.038215254 0.0119688595 4.50601e-05 0.08310191 -0.0475256
6.5786157e-06 -0.035886507 3.3491364e-05 -0.04418057 -0.0046847826 4.2012587e-05 -0.08346361 0.0017344174
-0.03133926 0.0019999966 0.039997954 0.022325553 -0.029861085 0.00071919675 0.071366325 0.0006498377
-0.014222835 4.287915e-05 -0.024147026 3.8495815e-05 -0.008944487 -0.044604473 -0.060312074 0.0072514247
-0.032441523 0.039569568 0.01173912 0.048688162 0.01260549 -0.050464295 0.06836427 -0.05142548
-0.027051367 -0.019639984 -0.0013068427 -0.0044978857 0.049553357 -0.029875126 0.06720685 -0.008534623
-0.002058408 0.09982226 0.016047603 0.019415546 -0.0033785873 -0.0036184208 0.06326969 0.007418319
-0.0034939616 -0.0038700714 0.02146142 -0.0036019792 -0.00012616736 0.10902534 -0.0010791123 0.00036960948
0.049191903 -0.0019302042 -0.00073040935 -0.00030898637 -0.01347896 -0.0042760386 -0.021527993 0.045117576
0.054201048 -0.0038338643 -0.011431217 -0.0043673436 -0.0011967983 -0.0008683845 0.058966916 -0.0031758293
4.580941e-05 0.0 0.05695023 1.5326972e-05 0.01639544 -3.8840375e-05 0.05443917 0.06461736
0.040079612 0.00022931384 0.06405618 0.106382184 -0.02185892 0.00044319886 0.08019388 0.091040626
-0.0014062747 -0.00015005155 -3.2239142e-05 -0.0039962297 -0.011461049 -0.0044489643 0.09156257 0.032033138
-0.001969197 -0.00067888567 -0.00018391699 0.023633083 -0.001097505 0.0 0.077190116 0.012571782
0.09892768 0.08868459 0.015662048 -0.00035998283 0.083629176 0.011569515 -0.00343475 0.011445463
0.0 -0.011290554 -4.93575e-08 0.035499454 0.026996776 5.103304e-07 -0.07284876 -0.0072863027
0.0025228735 0.0 0.00017734931 0.010574381 0.00023788809 -0.10560931 -0.032089237 -0.036211353

layers.12.bias f4 [40]
00000000: 6123 c8bd 59a9 8f3d 64fc e53c 4c35 843d
00000010: a663 e3bd 380f e33c f11b 6fbd 463b 9a3d
00000020: 0bae c1bc 8685 52bd 982e 7c3d 7f3d 0dbe
00000030: aeda f0bc 8618 afbd fccb 543d 5acd 8fbd
00000040: 2b2a 063d c90c a3bd 584c 96bd a98c 01be
00000050: d394 413d 0b6a 14be 7a4e b6bd 3cd2 f9bd
00000060: dba5 fabd fbaa a23a b09e 59bd 92a9 b63d
00000070: c37c 05be efcf ba3d 8ca4 36bd ca83 0a3d
00000080: 6d3d da3c 9c34 bebd 7cce 81bd 13e5 d4bd
00000090: 337f acbd 8bfc df3c 7f58 69bd 0e6d fe3d
-0.09772373 0.070147224 0.02807445 0.06455478 -0.11102991 0.027717218 -0.058376256 0.07530837
-0.02364256 -0.05139687 0.061567873 -0.1379299 -0.02940115 -0.08549599 0.051952347 -0.070215896
0.03275506 -0.07961423 -0.0733878 -0.12651314 0.04726107 -0.14493577 -0.08901687 -0.12198302
-0.12238666 0.0012410575 -0.05312985 0.08919062 -0.13035874 0.091216914 -0.044590518 0.03381709
0.026640618 -0.09287378 -0.06338212 -0.10395255 -0.08422699 0.027342102 -0.056969162 0.12423144

layers.14.weight f4 [20, 40]
00000000: e935 9bbd 3899 bcbc 0ce4 c9bd 0000 0000
00000010: 58d7 33bd f0d6 d53c fc6c 1fbe b4c5 973d
00000020: 7e76 c13d 843d dcbd 6008 83bd 405c 10be
00000030: 6a8c 56bd 0000 0000 9e2b 34bd 70ad e83c
00000040: 0000 0000 3e8b bd3d 6c95 883d 0000 0000
00000050: 0000 0000 a0da 87bc f8b6 4f3d 6c34 3b3d
00000060: 868f a53d 3277 78bd 9cd3 863d 0000 0000
00000070: 2155 8dbd 7d18 f0bd dace d3bd 3275 19bd
00000080: 5e30 00be 0000 0000 0000 0000 7126 f8bd
00000090: 6c85 d2bd b03c 10be a049 bc3b a03e 32bc
000000a0: c7af b8bd c9f6 0cbe dff0 9cbd 6ccf 48bd
000000b0: c590 aabd 86c1 14bd 0000 0000 36c6 02bc
000000c0: f579 7bba 0be8 c6bd 4a80 b1bd ce25 33bd
000000d0: 286d 903c 0000 0000 6038 5cbd c402 073d
000000e0: 6b3b 933c 0000 0000 baa3 1abd 006b cdbb
000000f0: d2c7 33bc b011 4e3d 0000 0000 f4ed 26bd
00000100: 38ca 193d 2859 5b3d 56fd b0bc 252d 01bc
00000110: 2035 e1bb d7f7 00be 8ea0 39bd 945c 0cbc
00000120: 8deb 83bb c87e 1f3d 731a 49bb 8106 a1bd
00000130: 8081 e23a c4f1 b7bc 800e 6fbb af36 fa3b
00000140: 0000 0000 4d23 9ebd c057 c23c 79a6 b4bd
00000150: 3415 073d 0000 0000 3fc3 80bd 709f 13be
00000160: c8c8 dcbd f0a7 133d 4ccb 6fbd 0000 0000
00000170: 9039 1cbe 74a9 0dbe 0000 0000 84e6 883d
00000180: 0000 0000 0000 0000 aa20 95bd 3aae c5bd
00000190: a6a1 0bbe 2154 0dbe 0695 17bd 0000 0000
000001a0: e611 d3bd b6ba 0bbe e43c 44bd 1425 a6bd
000001b0: baaf 9ebd 0bf6 9abd a2d8 8abd 0000 0000
000001c0: 0000 0000 0273 28bd 9e40 823d f611 bdbd
000001d0: 3099 a73c 0000 0000 0000 0000 c011 4e3d
000001e0: 0000 0000 0000 0000 833c 1dbe f00a 873c
000001f0: b8fd af3c 0000 0000 f08e 28bd bec9 d6bd
00000200: 5cd0 3f3d 0000 0000 0000 0000 c502 20be
00000210: 0000 0000 0000 0000 206e c1bd d8e8 fc3c
00000220: 89bb e8bd 7282 bebd 1781 c3bd b040 7fbc
00000230: 0000 0000 0000 0000 0000 0000 5df0 81bd
00000240: c01f d4bc b5c9 0fbe 0000 0000 ea39 efbd
00000250: 38e4 0abe 0000 0000 0000 0000 0000 0000
00000260: 1bda 82bd 0000 0000 0000 0000 6e66 36bd
00000270: 22fd c5bd fda0 f6bd 0000 0000 b167 f6bd
00000280: 802b 9cbc 8e84 a8bd 120e 6c3d 1215 c9bd
00000290: 3abd 10be 3829 07bc 0000 0000 7295 6b3d
000002a0: f7dd 9abd 0000 0000 c0ef 8fbd 2469 4b3d
000002b0: 1234 b3bd b6b0 91bd 3061 c3bd 0000 0000
000002c0: 4cdd c0bd 3e7f 20be 0000 0000 0000 0000
000002d0: e500 bfbd e8c7 c83c 20ee b23b 0000 0000
000002e0: 0061 64bd 791d d3bd fa77 d9bd 0505 4e3d
000002f0: 0000 0000 2842 e9bd 63cb d83c 5c26 08be
00000300: b493 50bd e1c1 05be 3d88 5c3d 0210 03be
00000310: 5812 03be 54df 0e3d 0000 0000 14fa 0dbc
00000320: eadd cc3d cede 91bd 201f d2bc eae4 f5bd
00000330: f63a 8bbd ca3e ee3d 0825 0cbe 1b20 8cbd
00000340: 0ab6 9cbd 4240 3bbd 2260 bd3d 4918 85bd
00000350: f624 ce3d 502c 1dbe 00af 913b 5bd8 073e
00000360: 7f22 013e 5b72 99bd e2ed 16be 9e0a a33d
00000370: b0f4 01be a03e 3a3c 505e 8fbc 803d a63a
00000380: 88a2 29bd 8e72 09be 4078 d0bc c6b2 e13d
00000390: 3692 c23d 0048 c8ba 04f8 dabd 00b7 2cba
000003a0: 801d b63c 8825 443d 1c0e 5ebd 8e1d 943d
000003b0: 9f5a 91bd 780d e23c b452 303d 7666 903d
000003c0: 04b1 493d aefb 6fbc d1ac 023d 5d93 19bc
000003d0: 532e e63b 0a29 d03d bb56 afba a72c a1ba
000003e0: de08 3bb9 e991 053e 22bf 4dbb 3a5f 143e
000003f0: 00dd 2c3b 8cc1 823d af28 f83d 0000 0000
-0.07578642 -0.02302228 -0.098579496 0.0 -0.04390654 0.026103467 -0.15568918 0.07410756
0.09446429 -0.10753921 -0.06398082 -0.1409769 -0.052380003 0.0 -0.04398691 0.028403014
0.0 0.09255074 0.06669125 0.0 0.0 -0.01658374 0.050711602 0.04570429
0.080840155 -0.06066055 0.0658333 0.0 -0.06901003 -0.11723421 -0.10342188 -0.03746528
-0.1251845 0.0 0.0 -0.12116707 -0.102793545 -0.1408565 0.0057460815 -0.010879189
-0.09017902 -0.13766016 -0.0766313 -0.049025938 -0.08328394 -0.03631737 0.0 -0.0079818275
-0.0009593063 -0.097122274 -0.08667047 -0.043737225 0.017630175 0.0 -0.0537647 0.032961622
0.017972669 0.0 -0.037753798 -0.006268859 -0.010972934 0.050309837 0.0 -0.040754274
0.037546366 0.053551823 -0.021605175 -0.007884298 -0.006872788 -0.12594543 -0.045319133 -0.008566994
-0.0040258826 0.038939267 -0.003068593 -0.07862569 0.0017281026 -0.02245415 -0.0036477149 0.0076359133
0.0 -0.07721577 0.023723483 -0.08820815 0.032979205 0.0 -0.0628724 -0.1441629
-0.107804835 0.03604883 -0.05854349 0.0 -0.15256333 -0.13834172 0.0 0.06684592
0.0 0.0 -0.07281621 -0.09652372 -0.13635883 -0.13801624 -0.037007354 0.0
-0.10306148 -0.13645443 -0.047909632 -0.08112541 -0.07748361 -0.0756646 -0.06779601 0.0
0.0 -0.041125305 0.06359981 -0.092319414 0.020458788 0.0 0.0 0.050309896
0.0 0.0 -0.15355115 0.016484708 0.021483287 0.0 -0.04115194 -0.10487698
0.046829566 0.0 0.0 -0.15626056 0.0 0.0 -0.09444833 0.030872747
-0.113638945 -0.09302224 -0.09546106 -0.015579388 0.0 0.0 0.0 -0.06344674
-0.025894046 -0.14041789 0.0 -0.11680968 -0.13563621 0.0 0.0 0.0
-0.063892566 0.0 0.0 -0.04453128 -0.09667422 -0.12042425 0.0 -0.12031496
-0.019063711 -0.08228408 0.057630606 -0.09818472 -0.14134684 -0.008249573 0.0 0.05751557
-0.07561868 0.0 -0.070281506 0.049660817 -0.08750166 -0.07113783 -0.095400214 0.0
-0.09417209 -0.15673539 0.0 0.0 -0.093263425 0.024509385 0.0054605156 0.0
-0.05575657 -0.10308356 -0.10618587 0.050297756 0.0 -0.113895714 0.02646417 -0.13295883
-0.05092211 -0.1306224 0.053840864 -0.12799075 -0.12799966 0.03488095 0.0 -0.00866558
0.10003264 -0.07122575 -0.025649607 -0.120065525 -0.06798355 0.1163307 -0.13686001 -0.06842061
-0.07651909 -0.045715578 0.092468515 -0.06498773 0.100656435 -0.15348935 0.0044459105 0.13266127
0.12610815 -0.07492515 -0.14739183 0.079610094 -0.12690997 0.01136747 -0.017501026 0.0012683123
-0.041414768 -0.13422605 -0.025447965 0.110204265 0.09500544 -0.0015280247 -0.106918365 -0.00065885484
0.022230864 0.047887355 -0.054212674 0.072321996 -0.07097363 0.027594313 0.04304762 0.07050793
0.04924108 -0.014647407 0.03190309 -0.009373513 0.0070245652 0.101640776 -0.0013377288 -0.0012296633
-0.00017837013 0.13043942 -0.0031394442 0.14489451 0.0026376843 0.063845724 0.12117135 0.0
