purning_test.pt (torch, 90799 bytes, 17 tensors)

layers.0.weight f4 [10, 1]
00000000: dca6 483f 89a7 0b3f e03f 53be 74ae 47bf
00000010: c994 32bf e05b 613f 3837 bcbe 47d9 b0bd
00000020: 0845 d13e 1d2b 51bf
0.7837961 0.54552513 -0.20629835 -0.7800057 -0.6975828 0.88030815 -0.3676088 -0.08635192
0.4087298 -0.8170641

layers.0.bias f4 [10]
00000000: 4f7d ac3d 8862 72be 5805 05bf 0aa3 cb3c
00000010: c9c0 f03d 500c d53e aa5a 4bbf ed53 5d3d
00000020: a942 6e3f 9041 123f
0.08422338 -0.23670399 -0.5196128 0.024858017 0.11755521 0.41610956 -0.7943522 0.054035116
0.93070465 0.5713129

layers.2.weight f4 [20, 10]
00000000: 4b8e 8dbe 40b1 703c 96b0 653e a024 a2bc
00000010: d085 24be de8c 47be bcf0 b13d 6a44 8dbe
00000020: 9809 be3d 95e4 973e 07c4 6ebc 01fd 4ebe
00000030: 16f4 b1bd 9522 3c3c 27e9 88be ec2c c03e
00000040: 28ca 8f3d 4f4b 8f3e a755 583e e070 9c3d
00000050: 7422 d23d 92ee 493e 6a24 433e 1a5c 4c3e
00000060: 7615 4c3e 02e3 663e 2d2b 9a3e 28d8 87be
00000070: 322e 9fbe 30fb ffbc 37c5 81be 2684 713e
00000080: 76b2 5f3e 51df 803e 9cd7 9e3d 887c 373e
00000090: 187f 0e3e 911d a03e 20d9 113d c44a b43d
000000a0: 88fe ed3d 01b7 68be 548f 013e e56d aebc
000000b0: e981 3bbc ec68 803e 8045 3d3c 62bc 80bc
000000c0: 6338 d7bc 9ee4 503e 5e0a 86bd 37df 113e
000000d0: 7094 13bd 248f 2f3e 4bb6 34be 5789 43be
000000e0: 1e3b 4abe 7716 2d3e 7f09 523e d35b 8cbe
000000f0: 79c1 8d3e 3d8c 413e ec59 e93d 8102 223e
00000100: b5a1 d1bd 83da 27be 7693 92be 37d2 1ebe
00000110: a229 1b3d 942c 1fbe bad7 9fbd 2871 d23c
00000120: 9088 66be 0747 8cbe b62c 623e 83ad 703e
00000130: e0d5 26bd de15 393e 3c7b f73c ea4d 953d
00000140: e4c1 9abe a8c7 653d 5aac 013e 1241 783e
00000150: 5290 3e3e 60b7 303c f090 4fbe 5a67 0dbe
00000160: d2d9 1c3e 7a02 79be db73 7cbe eca2 353e
00000170: fd97 19be 6c08 8ebd 0a8f 6e3e 2f4e 3bbe
00000180: b0cc d23d ff93 8c3e 6aa5 b7bd fa99 ab3d
00000190: 9ea4 843d e723 3c3e 42d9 75be 461d 48bd
000001a0: c368 133e 708e ac3e 16ed fabd ee56 c13d
000001b0: 833c dabd d928 813d 4e40 89be ca77 673e
000001c0: 488f 19be e808 98be 2d67 91be d650 f2bd
000001d0: da22 3cbe 5ef8 3f3e 7fb0 30be c1bc 28be
000001e0: f8f9 b6bd 8623 6f3e 8028 37bc c0ea 0c3c
000001f0: 0620 bfbd 68d3 b3bd 284d 47be fbad 9b3e
00000200: 4471 813d 20f5 d83c 5961 733e a15b f5bc
00000210: 483d 65be 8bbd 23be 617a 963e 8d24 fc3d
00000220: d31d 16be cb2a eabd 3609 4d3e 1a92 513e
00000230: 4075 44be e57a 26be 0921 07be 2e01 90be
00000240: c993 6b3e b4af 5e3e a071 a03d 8c9a eebc
00000250: 5b02 293e e874 4abe f8a0 0d3d 9dff 81be
00000260: 8430 033e 71e1 11be 96e6 573e d1b9 98be
00000270: e04e 43bd eb8e 72be e2c7 77be 6618 5e3e
00000280: b218 3ebc 370d 253e cda7 903e 6fe1 a3bd
00000290: 0f71 71bd 455a 743e 801d 9d3d 1f88 4f3e
000002a0: d510 6c3e 16b5 883e c088 423e 58f5 6f3d
000002b0: c09d 34bd 6e82 82bd 5d79 d6bd dd4c 26be
000002c0: 90d4 553d f085 7bbe b95d c73d a795 263e
000002d0: db57 a73e 2a33 81bd be21 0f3e 213d 26bd
000002e0: 2a64 10be ff2c e03b 4666 1a3e 9ca9 7abe
000002f0: 11e8 9a3e b435 7ebe c55a 6f3e 447d 9a3e
00000300: 3a22 763e e238 5c3e d510 263e 5f64 a53d
00000310: 48b1 02bd 9c90 e03c 2ff0 0bbe 3c61 4c3e
-0.27647623 0.014690697 0.22430643 -0.019792855 -0.1606667 -0.1948733 0.086884946 -0.27591258
0.092791736 0.29666582 -0.014573104 -0.20213701 -0.08689134 0.011482854 -0.2674038 0.37534273
0.0702098 0.27987143 0.21126424 0.07638717 0.10260478 0.19719914 0.1905686 0.19957009
0.19930062 0.22547534 0.30111066 -0.26532102 -0.31089932 -0.031247705 -0.25345775 0.23585567
0.21845421 0.25170377 0.07755968 0.17918599 0.1391567 0.31272557 0.035607457 0.08803323
0.116208136 -0.2272606 0.12652332 -0.021292636 -0.011444547 0.2508005 0.011552215 -0.015714828
-0.026272004 0.2039971 -0.06544946 0.14245306 -0.036030233 0.17144448 -0.17647664 -0.1909536
-0.19749114 0.16903101 0.20511435 -0.27413806 0.2768667 0.18901153 0.11394104 0.15821268
-0.10235921 -0.1639195 -0.2862813 -0.15509878 0.0378815 -0.15544349 -0.078048185 0.025688723
-0.22513032 -0.2739794 0.22087368 0.2350369 -0.04073131 0.18074748 0.03021013 0.072902516
-0.30226052 0.05609861 0.12663403 0.24243572 0.18609741 0.0107859075 -0.20270133 -0.13808957
0.15317467 -0.24317351 -0.2465357 0.17737931 -0.14999385 -0.069352 0.23296753 -0.18291543
0.10292947 0.27456662 -0.08967097 0.08378978 0.06476711 0.1837307 -0.24008659 -0.048856042
0.14395432 0.3370242 -0.12252252 0.09440409 -0.10656073 0.06306619 -0.26806873 0.2260429
-0.14996064 -0.29694295 -0.2839903 -0.118318245 -0.1837267 0.18747088 -0.17254828 -0.16478254
-0.089343965 0.23353395 -0.01117909 0.008600891 -0.0933228 -0.08780557 -0.19463027 0.30406174
0.06320432 0.026484072 0.23767604 -0.029950919 -0.22386658 -0.15990274 0.29390243 0.12311659
-0.14659815 -0.11433943 0.20023045 0.2046589 -0.19185352 -0.16257818 -0.13196196 -0.281259
0.23005594 0.21746713 0.07834172 -0.029126428 0.16504805 -0.19771159 0.03457734 -0.2539033
0.12811476 -0.14246155 0.21084055 -0.29829267 -0.047682643 -0.23687331 -0.24197343 0.21688995
-0.0116025675 0.16118322 0.28253022 -0.080019824 -0.05894571 0.2386256 0.07671642 0.2026677
0.23053296 0.26700658 0.18997478 0.058583587 -0.044095755 -0.06372534 -0.10472367 -0.16240259
0.05220467 -0.24562812 0.09734673 0.16268025 0.32684216 -0.06308587 0.13977715 -0.04058564
-0.1410071 0.0068413015 0.15078077 -0.24478763 0.30255178 -0.24825174 0.2337447 0.30173695
0.24036494 0.21506074 0.16217358 0.08075785 -0.03190735 0.027412705 -0.13665842 0.19958967

layers.2.bias f4 [20]
00000000: a211 9ebe 3b54 3f3e 9810 bdbd 12eb 87be
00000010: 3f14 533c 5c66 1d3e e0e5 443e 0838 7fbe
00000020: e642 82be eef9 563e 8ab5 683e 8887 b2bd
00000030: aab1 f2bd b86c 76be dc9c 4b3d c5fe 90be
00000040: 7925 8f3e cd15 aebd 4c17 fe3d c093 113e
-0.30872828 0.18684475 -0.09231681 -0.26546532 0.012883245 0.15371078 0.19228315 -0.24923718
-0.25441664 0.20993778 0.22725502 -0.08717257 -0.11850293 -0.2406491 0.04971014 -0.28319374
0.27958277 -0.08500252 0.12406787 0.14216518

layers.4.weight f4 [40, 20]
00000000: ac05 d5bd 59bb d3bd 6697 9bbd a6c3 01be
00000010: 56f5 87bd c0a8 b93d 0060 3f3c 782e 3f3d
00000020: 4efe 4b3e 0847 333d 18b2 f83d c0ea 363c
00000030: e0bf ff3c 582d b43d d045 43be e403 813d
00000040: 1ac1 193e a0d1 e53d 54d0 bebd fa8d c0bd
00000050: 068b 2dbe 181a 0bbe be92 573e 34d8 b53d
00000060: 2887 a1bd 1074 013c b4af 1cbe f084 2d3d
00000070: 7383 f2bd 202e 4b3d 4c6b 27bd 5658 afbd
00000080: f8cb c53d 2e95 593e 2026 5e3e f08b 9f3d
00000090: fae3 38be e456 183e 2c3a be3d 2e91 5fbe
000000a0: 209f fcbb 1ec8 13be 60c8 57bd 4a2d 31be
000000b0: e042 be3b 5f01 57be 0626 45be 6218 5b3e
000000c0: 1006 2a3d 5c55 173e ee1b 0ebe ad8e 37be
000000d0: 2090 303e e809 4ebd 7f44 e6bd 2ae9 fcbd
000000e0: e4ad 1bbd 602f 14bd 3c61 0ebe 743d dd3d
000000f0: 107d e0bc fea7 bdbd fa90 173e 2486 c0bd
00000100: 0a0b 573e 6e2f 353e 708c 733d 86a2 153e
00000110: a073 863c f86d 723d b816 0d3e 893c 06be
00000120: 14dd 133e dc92 1a3e 7272 d6bd e0f0 7d3d
00000130: 9465 50be 687b 783d 41af 5bbe e6d1 103e
00000140: 903b 543c 9179 e93d 1e55 313e 2606 573e
00000150: 6e66 5cbe 8941 53be d6c8 d7bd e69a 0cbe
00000160: 3cfc 243e 8da6 3b3e e3af d8bc e0ca 05be
00000170: 0eb0 64be 81cf c33d b4a6 05bc a033 36be
00000180: ae5e a3bd 8938 c83c 0a7e 96bd 0930 093e
00000190: b258 cabd 0c94 61be 85ef dabd 005c 743c
000001a0: 6b5f 533d 298c 43be 4ce6 c83d abce 4cbe
000001b0: 68f6 0c3e 6634 4b3d 9891 0f3e a228 43be
000001c0: 8879 89bc 48d6 c9bd 8b41 473d 1ce8 d03d
000001d0: 252b 123e 8d3c 08be fabb 7cbd 00d3 773d
000001e0: b45c 4b3e 307f 2f3d c8c9 033e 403a 74bd
000001f0: c64c 61be f226 36be 97b3 27be 404e 61bd
00000200: 406d c63b 20c4 393d ec4f ac3d 74c0 1ebd
00000210: 43ba 0cbe 7a3f 103e 6028 563d 78d3 fc3d
00000220: 1495 30be dccc 85bd 3cf1 463e 1a0b 93bd
00000230: e17f d8bd 85c4 abbd 8652 b6bd c009 23be
00000240: 8b4b 513e f79a 5cbe ff3f f43d 3b1f dbbd
00000250: a98b 60be 80f2 3bbe 84fb 4dbe 7093 50be
00000260: 20f8 84bd 1b83 85bb cbd4 243e 7cef 983d
00000270: 4ca7 393e 3bf4 7c3c c90d 3f3c 724a ebbd
00000280: 5032 8d3c 2809 44bd 0af9 59be 0053 3e3d
00000290: d006 c9bc e809 ebbc 4e60 b8bd f292 0dbe
000002a0: ccfb 50be 06a7 2dbe a09d 90bc 3cde 623e
000002b0: e0cc 8b3d b4a5 a73d 2c5b 623e 8896 b13d
000002c0: dc1d 1ebd 4626 87bd 4854 afbd 5044 53be
000002d0: 34e2 9dbd be14 54be 00eb 823a 4838 a33d
000002e0: 6539 01be cc1f 163e c623 1a3e 00c3 303c
000002f0: d6b4 473e 5815 6e3d 00d2 563d c057 283b
00000300: 227b 86bd f0fd 163e 3a19 2e3e 6a16 a8bd
00000310: ec71 04bd 4bc1 ddbd 4731 02be b855 52bd
00000320: 2093 f0bd 14e4 fcbd 210a 45be c830 e03d
00000330: d4db 8dbd 500b 8fbc 6e86 483e a824 353e
00000340: c4ae a9bd 4076 a63d 1c4c e23d 0222 95bd
00000350: 0a78 abbd 50e2 acbd dc2d b2bd d8b0 06be
00000360: e81e b33d 20bf 7a3c a418 1ebe 0843 ebbc
00000370: 7c9c b8bd 71bd 5dbe 3e59 363e f06e 55bd
00000380: 3836 643d c2cc 403e 9a20 223e 082f f83d
00000390: 388c babc 4040 863c 5823 cd3c 0c55 03bd
000003a0: 3bda 3dbe 4048 043e 6093 12bc 407b 483b
000003b0: 08aa 60be 300a 42bd 305e b83d c885 8f3d
000003c0: 6c91 10be d397 cebb a06f 8c3d 10c9 ae3c
000003d0: ad55 1e3e be76 533e 173f 07be 8d27 90bc
000003e0: a0a6 30bd fa72 e9bd 92e6 d7bd caf6 003e
000003f0: d034 833c 4f23 83bd 4afa 54be d232 533e
-0.104014724 -0.10338468 -0.07597236 -0.1267229 -0.06638591 0.0906539 0.011680603 0.046675175
0.19921228 0.043768913 0.12143344 0.011164367 0.031219423 0.08797711 -0.190696 0.0629957
0.15015069 0.112216234 -0.09317079 -0.0940208 -0.16947564 -0.13584173 0.21052071 0.08879128
-0.07887107 0.007901207 -0.153014 0.042363107 -0.11841478 0.049604535 -0.04087381 -0.085617706
0.096580446 0.21248314 0.21694231 0.07790363 -0.18055716 0.14876896 0.09288439 -0.21832725
-0.007709399 -0.14431807 -0.052681327 -0.17302433 0.005806312 -0.20996617 -0.19252786 0.2139602
0.041509688 0.14778656 -0.13877842 -0.1792552 0.1724248 -0.050302416 -0.11243533 -0.1234916
-0.038007632 -0.036177993 -0.1390428 0.10802737 -0.027403384 -0.092605576 0.14801398 -0.09400585
0.21000305 0.17693874 0.059460104 0.14612779 0.016412556 0.059186906 0.13778198 -0.1310903
0.14439803 0.15095085 -0.104710475 0.061997294 -0.20351249 0.060664564 -0.21453573 0.1414257
0.012953654 0.1140014 0.17317626 0.20998439 -0.21523449 -0.20630468 -0.10536353 -0.13730964
0.16111845 0.18325253 -0.026451057 -0.13065672 -0.22332785 0.095610626 -0.008157421 -0.17793131
-0.07977043 0.02444102 -0.07348259 0.1339723 -0.098801985 -0.22029132 -0.10690216 0.014914513
0.05160467 -0.19096436 0.09809551 -0.20000713 0.13765872 0.049610518 0.14020383 -0.19058469
-0.016781583 -0.09855324 0.04864649 0.10200521 0.14274271 -0.13304348 -0.061702706 0.06050396
0.19859582 0.042845905 0.12869942 -0.059625864 -0.22001943 -0.17788294 -0.16377102 -0.055006266
0.006055504 0.045353055 0.084136814 -0.038757756 -0.13742928 0.14086714 0.0522846 0.12345022
-0.17244369 -0.065332144 0.19427961 -0.07179852 -0.10571266 -0.083870925 -0.08902459 -0.15921688
0.20438974 -0.2154349 0.11926269 -0.10699316 -0.21928276 -0.18354225 -0.20115477 -0.20368743
-0.064926386 -0.004074467 0.16096799 0.07467553 0.18130225 0.015439088 0.0116610015 -0.11488809
0.017235905 -0.047860295 -0.21286407 0.046465874 -0.024539381 -0.028691247 -0.09002744 -0.13825586
-0.20408553 -0.16958246 -0.017653286 0.22155088 0.06826186 0.08185902 0.22105092 0.0867129
-0.038602695 -0.06599097 -0.08560997 -0.20631528 -0.077091604 -0.20711038 0.0009988248 0.07969719
-0.1261955 0.14660567 0.15052709 0.010788679 0.19502577 0.058125824 0.052446365 0.0025687069
-0.065664545 0.14745307 0.1700181 -0.082074 -0.032335207 -0.10827883 -0.1271411 -0.05135128
-0.11746812 -0.1234819 -0.19242145 0.10946804 -0.069266945 -0.017461449 0.19582531 0.17689764
-0.08285287 0.08128023 0.11049673 -0.07281877 -0.08372505 -0.08441603 -0.08700153 -0.13153398
0.08746129 0.015304357 -0.15439087 -0.028718486 -0.09014222 -0.21654297 0.1780748 -0.05210775
0.05571577 0.18828109 0.15832749 0.121183455 -0.02277194 0.016388059 0.025041267 -0.03206353
-0.1854028 0.12918186 -0.00894627 0.003059104 -0.21939862 -0.047372997 0.0900234 0.070079386
-0.14117974 -0.00630472 0.06857228 0.021336108 0.1546237 0.20650765 -0.1320766 -0.017596984
-0.043127656 -0.11398883 -0.10542025 0.12594143 0.016016394 -0.06403219 -0.20798603 0.20624855

layers.4.bias f4 [40]
00000000: 4c50 8dbd ae2e 0c3e 52cd 023e d025 173c
00000010: 210f 213e f519 233e 342c 22bd b355 8dbd
00000020: 958c 4cbe 587b bb3d a48a 1abd 8834 963d
00000030: 1351 663e 18ef 30be 32d8 373d ca0d 3e3e
00000040: 4b8d cdbc 218f ec3c 2aea c2bd c453 53bd
00000050: a6dd 333e a5d1 6a3c 8a4c 1bbe 2692 c33d
00000060: 7a15 4a3e a6c6 d0bd 7589 dfbd 5095 933d
00000070: 6ad1 043d 8d0b a8bc 1975 63be 0a19 883d
00000080: d407 85bd 3dd2 2d3e aee2 b6bd 5246 b63d
00000090: 0408 52bd bb68 413e b04b 383d 200f 19be
-0.06900081 0.13689682 0.12773636 0.009225324 0.15728427 0.1592787 -0.039592937 -0.069011115
-0.19975503 0.09154385 -0.037729874 0.07334238 0.22491865 -0.17278707 0.044883914 0.18559948
-0.025091788 0.028876843 -0.095173195 -0.051593557 0.17565021 0.01433221 -0.15165916 0.0954936
0.19734755 -0.10194139 -0.1091489 0.072062135 0.032426275 -0.02051332 -0.22212638 0.06645401
-0.06495634 0.16974731 -0.089299545 0.08900131 -0.051277176 0.18887608 0.044994056 -0.14947176

layers.6.weight f4 [80, 40]
00000000: fc8e 493d 8c40 143d 0057 053c 6029 60bc
00000010: 162e 43bd 27d1 0c3d d8bf 00be 48a9 c03d
00000020: 1097 fd3c 9ab8 62bd 3848 913c f6e5 8d3d
00000030: 00ab 2cbd 46d3 b3bd a225 44bd dc98 44bd
00000040: 7695 843d 2d05 113e 805b 9b3c 80cf fbba
00000050: ee69 2dbc 8d78 453d 84ee f3bd 6f94 ab3d
00000060: 7df2 dcbd 92dc a1bd 9426 d7bd a96f 19be
00000070: 07fa d83d 464d 33bd 3366 12be 31e6 0dbd
00000080: 40fa e1bb 95b8 753d 584f 85bc 7d3b 05be
00000090: 933b 07be c7a7 4e3d 682b 283d a9c3 61bd
000000a0: 53db e3bd d46c 13be 5453 543d c449 0bbd
000000b0: b6f1 07bc ac25 eebd 1e44 8c3d 73c3 f5bd
000000c0: aea0 a83d 9d79 20be 1667 fd3d 621c 65bd
000000d0: d54d be3d d851 d6bc 1539 f6bd e441 8dbd
000000e0: 07ca 87bd b145 483d 3256 5cbd db53 1f3e
000000f0: 1406 393d 2c99 033e 85be 0dbe 2662 093e
00000100: a1fd df3d e048 a6bc 11c2 213e 17f8 063e
00000110: 6bb8 14be 39a4 033d 28b7 94bd d900 edbc
00000120: 1d8c a0bd cafa fcbd e287 ecbd cf0c 1d3e
00000130: be0d e7bd 40dc 093e 34cf 8dbd 3f8d c1bd
00000140: d356 193e 2a92 4fbd 1a16 cd3d 3a3d fd3d
00000150: debc 21be 47cb 203e 964b ea3d 6872 cdbc
00000160: b30a 15be 0048 513c 3ef8 01be fa4a 60bd
00000170: bb31 b0bd a0b3 6ebc ecbf b83d 1325 11be
00000180: 280d 973c 0053 293d 8a4c cc3d 188e 833c
00000190: c081 9abd 4b9a 0cbe 0e2d d2bd 6783 a1bd
000001a0: f208 19be 2075 d23b c0f9 e3bb 2e04 70bd
000001b0: 98d4 19be 1c34 bb3d 8017 8f3c 22f1 a73d
000001c0: a6c0 c4bd f30f 21be bc2d 01bd 68ce acbc
000001d0: 3e2a 72bd 982b 7a3d 2aca 09be e516 113e
000001e0: c8d5 39bd a854 d53c 210b 0dbe 33e6 20be
000001f0: 9022 a1bd 5d69 20be 4ea7 a33d e6f2 6c3b
00000200: 0ca3 33bd e4cd 5c3d 2031 703d 7d1d 00be
00000210: 9381 c73d 5b10 cebd bfc7 a4bd 05b1 953d
00000220: 9adb 823d 6d55 093e 6088 ef3b bc2a 3ebd
00000230: 7818 293d f034 b33d 0072 9539 1b49 053e
00000240: 2bf1 c83c 10b5 843d 8290 bf3d 1061 65bd
00000250: fc79 123b 8c95 11be 4a09 c53d fc30 88bd
00000260: c90a 0e3e 723f c5bd 348d 083d 353f cbbd
00000270: c11c a4bd 06c7 dc3d d671 ecbd a334 0b3e
00000280: 622a 1abe 706c b83d 8078 df3c 0489 403d
00000290: 6e1d 07be b871 f83c f84e ddbd 5e1a 5fbd
000002a0: 2c46 e1bd 803d ccba 5ef0 1cbe 28c6 45bd
000002b0: 5285 16bd ceb0 bb3d 10a2 c33c dfeb 0cbe
000002c0: 837e 103e 0084 f4ba f687 28bd 5569 1abe
000002d0: 5165 babd 6061 06be fb6d 203e 5415 353d
000002e0: 546c cebd c5d5 013e 18d2 dbbd da4f c63d
000002f0: f86e b23d 300f 44bc 00c1 603b 2f4e 21be
00000300: 7847 08be 4006 1ebc d6c3 d5bd 784a d4bd
00000310: a3d5 dabd 8bcf a4bd 58da 433d e0ce 083d
00000320: dc78 2a3d f3da 8cbd 4dfd 98bd 2b86 053e
00000330: f0c0 383c 3c02 02be 483b c5bc 4800 8b3c
00000340: 0e0a 893d 6cef 10bd 9cfe ffbd f88c 373d
00000350: 9eb3 bb3d a5e6 0b3e 700e 46bc 5a78 f53d
00000360: b595 0f3e 8051 d83c 9e09 50bd 96ed 65bd
00000370: facb 8cbd 90a4 b7bd 98bb 6dbd ce35 55bd
00000380: a4ce 3b3d c29c 843d 2f18 093e 227f 26bd
00000390: 8885 f3bc 7434 033d d4bf a23d 8e43 dbbd
000003a0: 70ff a43c c2b1 78bd d916 013e b882 e8bc
000003b0: 663c 9c3d 2d7d 1dbe e3d9 0abe cfce 1a3e
000003c0: 8348 bfbd a803 7f3d bf3b 84bd 407d 013b
000003d0: 821e 08be 965f 943d f06e 433c 0278 04be
000003e0: 6463 54bd 8b3b 003e 8959 edbd ac58 14be
000003f0: d8ac 95bc 247f 82bd 90f2 7dbc 3824 bfbc
0.049208626 0.03619437 0.008138418 -0.01368174 -0.047651373 0.03437915 -0.12573183 0.09407288
0.030955821 -0.05535183 0.017734632 0.06928627 -0.042155266 -0.087805316 -0.047887452 -0.04799734
0.0647382 0.1416213 0.018964529 -0.001921162 -0.010584338 0.04821067 -0.119107276 0.08377921
-0.107884385 -0.079033986 -0.10505405 -0.14984001 0.10594564 -0.043774866 -0.14296798 -0.034643356
-0.006896287 0.059990484 -0.016273186 -0.13010974 -0.1320632 0.050452974 0.04105702 -0.055118237
-0.11125817 -0.14396983 0.05183728 -0.034005895 -0.0082973745 -0.11628279 0.0684893 -0.120001696
0.08233772 -0.15671392 0.12373178 -0.05593527 0.09292189 -0.026162073 -0.12022606 -0.06897333
-0.066303305 0.048894588 -0.05379314 0.15559332 0.045171812 0.12851399 -0.13842209 0.13416347
0.10937048 -0.020298421 0.15796687 0.13180576 -0.14523475 0.032139037 -0.07261497 -0.028931068
-0.078392245 -0.12352522 -0.11549355 0.15336917 -0.11281918 0.13462925 -0.069242865 -0.09450769
0.14974527 -0.050676502 0.10013981 0.12365194 -0.15794703 0.15702544 0.11440198 -0.025078967
-0.14554863 0.012773514 -0.12692353 -0.054759003 -0.08603235 -0.014569193 0.09020981 -0.14174299
0.01843889 0.04133892 0.09975536 0.016058967 -0.07544279 -0.13730733 -0.102625 -0.07886391
-0.14944819 0.006422654 -0.0069572628 -0.058597736 -0.15022504 0.091407984 0.01746726 0.08200289
-0.09607057 -0.1572874 -0.031537756 -0.021094516 -0.059122317 0.06107673 -0.13456026 0.1416889
-0.045369893 0.026041344 -0.13773777 -0.15712814 -0.078679204 -0.15665193 0.07990895 0.003615552
-0.043856665 0.05390729 0.0586406 -0.12511249 0.09741511 -0.10061713 -0.08045911 0.073091544
0.06389542 0.13411494 0.0073099583 -0.046427473 0.0412831 0.087503314 0.0002850443 0.13016169
0.02452906 0.064798474 0.093537346 -0.05600077 0.002235054 -0.14217204 0.096209124 -0.06649968
0.13871302 -0.09631242 0.033337787 -0.09924165 -0.08013297 0.10780148 -0.1154515 0.13594298
-0.1505523 0.09005058 0.027279139 0.04700567 -0.1319482 0.030327663 -0.10806078 -0.054468505
-0.10999712 -0.0015582293 -0.15326068 -0.04828468 -0.036748238 0.09164582 0.023880988 -0.13761853
0.1411076 -0.0018655062 -0.041145287 -0.15079243 -0.09101356 -0.13123083 0.15666954 0.044209793
-0.10079256 0.12679203 -0.107334316 0.09683199 0.08712572 -0.011966512 0.0034294724 -0.15752481
-0.13308513 -0.009645045 -0.10437743 -0.10365766 -0.10685279 -0.08047398 0.04781565 0.033400416
0.041619167 -0.06877699 -0.07470188 0.13039462 0.011276469 -0.12696165 -0.024076119 0.016967908
0.06691371 -0.03538458 -0.12499735 0.044812173 0.09165119 0.13662203 -0.012088403 0.11985846
0.14021952 0.02640605 -0.05079042 -0.056134783 -0.06874843 -0.08966935 -0.05804023 -0.052053265
0.045851365 0.06475212 0.13388132 -0.040648587 -0.029726759 0.032032445 0.079467446 -0.107062444
0.020141333 -0.060716398 0.12606372 -0.028382644 0.076287076 -0.15379782 -0.1355968 0.15117954
-0.093400024 0.062259346 -0.06456708 0.0019758493 -0.13292888 0.07244794 0.011928305 -0.12936404
-0.0518526 0.12522714 -0.11589343 -0.1448695 -0.018270895 -0.063719064 -0.015499726 -0.0233327

layers.6.bias f4 [80]
00000000: 7ef9 cf3d 2e60 c73d 94d2 43bd cf2d a73d
00000010: 4aba f53d ea52 a63d 50b9 febc f861 b33d
00000020: aefc c0bd c495 23be 3556 94bb 2531 c3bd
00000030: 4c7f 8fbd 8eb1 80bb 4822 efbc 391e a9bc
00000040: e17c 123e 4db8 7d3d 4ad3 debd a442 853d
00000050: 4097 0e3c 308a 8abd 609c 933c 2433 ee3b
00000060: e204 b9bd bb93 e93d 88b3 b93d 315f 20bd
00000070: 4b2c 1e3e ef37 00be b2ae 19be eedd db3d
00000080: 3684 1f3e 42b8 85bd e919 913d e444 c9bd
00000090: 1ebf 483b c6df d1bc 4593 7bbd 8825 a1bd
000000a0: ee33 7cbc 414a cbbc 90ac 863d 0445 553d
000000b0: 1ef4 01be 93aa 10be b5e9 373c 34ab c4bd
000000c0: 0f4b a0bd 37ac f3bd 9ed0 80bd a896 0bbe
000000d0: 19f4 b6bd d7b0 a7bd 6f55 b63c 2f34 90bd
000000e0: 24c0 ec3d 72a8 c73d 1d95 563d 5a63 0f3e
000000f0: 6078 70bd 3260 e73d 00c1 c23a bb97 bbbd
00000100: b835 103d e180 da3d c837 0f3e 76c7 143e
00000110: b8f6 0bbe fa3f 31bd 3084 eb3c b83b b83c
00000120: ae05 babd 9423 0cbe 26ea 8b3d 2d0e c83d
00000130: e008 a13c 2c6a 723d 03fb d43c 38c3 bd3c
0.10155009 0.09735142 -0.047808245 0.08163034 0.119984224 0.08121283 -0.031094223 0.087589204
-0.09423195 -0.159751 -0.0045268782 -0.09530858 -0.07006702 -0.003927416 -0.029191151 -0.020644294
0.1430545 0.06194334 -0.10880144 0.06506851 0.008703053 -0.067646384 0.018018901 0.00726928
-0.090341344 0.114051305 0.09067446 -0.03915328 0.15446584 -0.12521337 -0.15008047 0.10735689
0.15577778 -0.06529285 0.0708502 -0.09827593 0.0030631493 -0.025619399 -0.061419744 -0.07868487
-0.01539324 -0.02481568 0.065758824 0.05206777 -0.1269078 -0.14127569 0.011225154 -0.09602967
-0.07826816 -0.11898082 -0.062897906 -0.1363169 -0.08933277 -0.081880264 0.022257535 -0.07041203
0.115600854 0.09748925 0.0523883 0.14002743 -0.05870855 0.11297645 0.0014858544 -0.091598
0.03520748 0.10669113 0.13986123 0.14529213 -0.13668334 -0.043273903 0.028749555 0.022489414
-0.090831146 -0.13685447 0.0683177 0.09768329 0.019657552 0.059183285 0.025998598 0.023164377

layers.8.weight f4 [80, 80]
00000000: d74c 58bd 6e3c d13d 0030 8f3c 2ea0 e13d
00000010: 7e3a 9e3d 5497 ce3d a4fd b53d 6b0b 303c
00000020: cc15 f2bc 3509 d23c b658 8e3d 584d 51bc
00000030: dbed 0bbd b38c 11ba 54ee a7bc 5d24 a93d
00000040: 479b debd 2829 55bd 1fba c6bd 12e3 bb3d
00000050: b39c a8bd c181 44bc ce9d 83bd fc15 763d
00000060: 54c0 9ebd 90f7 b03d 4ea6 b23d 9bc2 5abd
00000070: 3d56 bfbd 2ce5 783d d868 99bd b12f a9bd
00000080: 1e92 2a3d ea10 843d f728 9b3d 734b 043d
00000090: 6168 c1bd 9614 9c3d 178a cdbd 36be b93d
000000a0: 7452 a2bd b358 c2bd 077a 6f3d 70e9 643c
000000b0: 10a6 243c 0018 7b3d a51f 09bd 0804 bc3d
000000c0: d416 183d 9082 cd3d b40b 6b3d 945a 9c3d
000000d0: ea44 85bd 1034 263d 0417 163c 1c2f 18bd
000000e0: 6cbe 74bd 22fa cb3d 695b d1bd 0b91 0dbd
000000f0: 38f7 333c 8973 55bd 409d 78bb ae4e 64bd
00000100: 45be bd3d 9d43 af3d 969b a23d 45df cabd
00000110: 20dd 5a3b 8139 56bd 28a5 313d 38f9 6e3d
00000120: 70ad 38bd 589e 5d3d 007f 263d d5ab e2bd
00000130: ab06 cfbd 0ca9 9b3d 4a43 153d d001 7d3d
00000140: 6134 4ebd e4a9 8dbc 262f bfbd b845 cc3c
00000150: f806 be3d 3839 12bc 4012 943b e272 2bbd
00000160: 0c9b 50bd 0009 ad3d d82e cc3c b4f0 153d
00000170: 1633 a7bd bac8 91bd 74b8 c93d 32a9 06bd
00000180: 2604 b53d 85b9 c1bd c0de afbb 818c b5bd
00000190: a1d3 abbd a081 95bc 06b0 8c3d e4d6 92bd
000001a0: 12ef 91bd 6ce8 5d3d 2ce9 e13d 4a30 2cbd
000001b0: e043 c9bd e6f9 3bbd d8c3 4abc f081 8d3c
000001c0: 484c 613d 24ad 0f3d 7790 dabd 5059 253c
000001d0: a246 9f3d df7f c8bd 3a7e 57bd cac5 a3bd
000001e0: c44c d73d 3400 8fbc 10cc 423c 4a0b 45bd
000001f0: c3fb d6bd 203c 853c 94ea 643d 9cdd b0bd
00000200: 7069 29bc e263 27bd d244 80bd 14af 1a3d
00000210: 5fba e3bd 1000 683c c4a7 acbc 00e0 6a3d
00000220: 8470 d03d c60a be3d 701e ea3c 46cb bd3d
00000230: 7c7b 0fbd 4885 76bc 6498 1e3d ac45 463d
00000240: 6dfa 82bd d0ad 02bc d276 993d d8c5 073d
00000250: 50d7 793c 30bb 77bc 465a 0bbd 9c0c bdbd
00000260: 3859 c2bd d9b0 cbbd 2ade 93bd 3868 a4bd
00000270: 6e32 d13d 80ef e5bb d419 b0bd 8747 debd
00000280: d458 883d f13b 8f3d 6c43 583d 7513 98bd
00000290: d62d c9bd 2687 dabd 7a98 2bbd d740 2dbd
000002a0: fc69 5c3d 3fa5 c13a e580 6bbd 00ff 11bb
000002b0: a2a1 22bd 0787 4f3d 06b9 813d 21ee 82bd
000002c0: 87a5 a43d 56ab d83b 02a8 8ebd c00e a23c
000002d0: 36a9 ca3d ca42 363d ed64 7abd 7343 cd3d
000002e0: f8a6 813c 7fbe cc3d e006 56bc a006 f43c
000002f0: 2533 893d 218d 4abd 0081 2abb 5740 0cbd
00000300: 41b5 ddbd 8a00 b9bd 8acb 23bd f7fa 193d
00000310: fa1a a9bd affb 86bd 6fa5 aebc 4e6f ba3d
00000320: 1836 f83c f0be 55bd 886a 613d cea1 9abd
00000330: c0e0 97bd e0a6 69bc 2b23 b7bd b7dd 4abd
00000340: 809e e83c 08d7 493d 00df aa3c c8d8 1b3d
00000350: d61d ab3d 3350 debd 4b98 6d3d 16b6 d53d
00000360: 836d cdbd 768c 153d 45d5 243d e063 ba3b
00000370: f093 cbbd 9471 273d 745b 35bd 5f08 abbd
00000380: fcf9 9e3d e682 353c a3f6 703d 1a12 debd
00000390: 8048 103d aec0 5e3b be1c ac3d 522f 35bd
000003a0: 88fb bc3d 14d7 aabc 0bbc 57bd 97e5 89bd
000003b0: 5512 b43d a70d 4ebd 7af6 1ebd 1ce4 963d
000003c0: d243 f23b 3497 d53d 9a14 ba3d ef7f 54bb
000003d0: 2477 8b3d e61b 0abd 2a10 d53d 0f3b 2f3d
000003e0: 80fd 333d 10b4 7c3d 9c38 fcbc 8a4e 8a3d
000003f0: 0e4b 84bc ee7b 9b3d 2026 20bb 481a b3bd
-0.052807655 0.10216604 0.017478943 0.1101688 0.07726 0.10087457 0.08886269 0.01074491
-0.02955141 0.025639156 0.06950514 -0.012774788 -0.034162384 -0.0005552277 -0.020499386 0.08258889
-0.108694606 -0.052041203 -0.097034685 0.091741696 -0.08233013 -0.011993826 -0.06426583 0.06007956
-0.077515274 0.08640969 0.08723126 -0.053408246 -0.093426205 0.06076543 -0.074907005 -0.082610495
0.041643254 0.064485386 0.07576173 0.032298516 -0.09443737 0.07621114 -0.10036104 0.09069483
-0.07925883 -0.09489574 0.058465984 0.013971671 0.010049358 0.061302185 -0.033477444 0.091804564
0.037131146 0.100346684 0.057384208 0.07634464 -0.06507285 0.040576994 0.009160761 -0.037154302
-0.059751913 0.099598184 -0.10222513 -0.034562152 0.0109842345 -0.052112136 -0.0037935525 -0.055739097
0.09264807 0.08557818 0.07939832 -0.099058665 0.003339596 -0.052300934 0.043370396 0.058343142
-0.045087278 0.054106086 0.04064846 -0.110679306 -0.10108694 0.076006025 0.036441125 0.061769307
-0.05034292 -0.017292924 -0.09335165 0.024935588 0.09278673 -0.008924775 0.004518777 -0.041857608
-0.050929114 0.08448982 0.02492468 0.036606506 -0.08164041 -0.07118364 0.09849635 -0.0328762
0.08838682 -0.09459213 -0.00536713 -0.088646896 -0.083899744 -0.018250287 0.06869511 -0.071698934
-0.07125677 0.054176733 0.11030802 -0.04203824 -0.09827399 -0.04589262 -0.012375794 0.017273873
0.055004388 0.03507723 -0.10672086 0.010092095 0.07777144 -0.097900145 -0.052610613 -0.0799671
0.10512689 -0.017456152 0.011889473 -0.04810647 -0.104972385 0.016264021 0.055887774 -0.08636019
-0.01034008 -0.04086674 -0.062631264 0.037764624 -0.11119532 0.014160171 -0.02107609 0.05734253
0.10177711 0.092793986 0.028578967 0.09267287 -0.035029873 -0.015046425 0.03871955 0.048406288
-0.06395421 -0.00797601 0.07493366 0.033147663 0.015249088 -0.015120313 -0.03402164 -0.09230921
-0.094896734 -0.099458404 -0.07220109 -0.08027691 0.10214697 -0.007017076 -0.08598676 -0.108534865
0.066575676 0.06993855 0.052798674 -0.07425586 -0.09823196 -0.10670309 -0.04189346 -0.042298164
0.053812012 0.0014773979 -0.05749597 -0.0022277236 -0.039704926 0.05066588 0.063341185 -0.06393076
0.08039384 0.0066122217 -0.06965639 0.019782424 0.09895556 0.04449729 -0.061131407 0.100226305
0.015826687 0.09997272 -0.013063163 0.029788315 0.06699208 -0.049450997 -0.0026016831 -0.034241047
-0.10825587 -0.09033306 -0.03998903 0.037592854 -0.082570985 -0.065909736 -0.02131912 0.09103261
0.030299231 -0.052184045 0.055033237 -0.07550393 -0.074159145 -0.0142609775 -0.08942255 -0.04952785
0.028395891 0.049277335 0.020858288 0.038048536 0.083553 -0.108551405 0.058006566 0.10435121
-0.10030653 0.036510907 0.040242452 0.0056881756 -0.09940326 0.0408798 -0.04427667 -0.08351206
0.077625245 0.011078572 0.05882896 -0.10843296 0.03522539 0.0033989358 0.0840392 -0.04423458
0.09227663 -0.02085451 -0.052669566 -0.06733244 0.08792559 -0.05030599 -0.038809277 0.07367727
0.0073933387 0.1042923 0.09085961 -0.0032424887 0.06809834 -0.033718012 0.10403474 0.042780932
0.04394293 0.06169516 -0.030788712 0.067532614 -0.01614907 0.07591997 -0.0024436787 -0.08745247

layers.8.bias f4 [80]
00000000: 5758 a53d 2033 a23b 9917 3c3d 3502 3b3d
00000010: 767c 71bd aec2 39bd e0ff 27bd 0e00 c2bd
00000020: f8d9 433c df4c 9c3d e8d4 b5bd 2845 bb3d
00000030: 27e4 313d 1925 d43d 82ca 49bc e9e2 dfbd
00000040: d7c9 46bd 9086 4d3d 02dd a23d 4413 0ebd
00000050: cf73 78bc 28ba d23b b7ef c8bd 1ca3 bebc
00000060: b663 98bc 8718 fa3d 2e1d 91bd d46f 46bd
00000070: 5cb3 1e3d f66f b73d 8075 b63d 4692 cabd
00000080: d48d 61bd c3e9 26bd 76e3 e6bc 773e fa3d
00000090: f06f 823d 005d fb3b 5069 2fbc 0c07 d8bd
000000a0: 2c82 f5bc 6314 963d df71 95bd ef2b e23d
000000b0: 722f dabd 883d cabd f7e3 083d 2e70 cd3d
000000c0: f05b 803d 3e60 dabd 589b a8bd 88c9 9cbd
000000d0: 0022 a2ba f5ea b5bd 30fb a53c f8c1 21bd
000000e0: d01b c83c adc0 8fbd 6645 ad3d c029 b0bd
000000f0: 0283 d63d c5ef 663d 0d37 7dbd 05d1 d03d
00000100: d651 a5bd 0e61 913d 68be e03d 7766 5b3d
00000110: bc1b bfbd 8558 ce3c 8281 cd3d 8789 bbbc
00000120: f467 d4bd 8cf5 8ebd 4d17 50bd 4b24 91bd
00000130: c868 ffbc af90 87bd 18b5 de3c b76f c8bd
0.0807349 0.004949942 0.045920942 0.0456564 -0.058956586 -0.045351677 -0.041015506 -0.09472667
0.011953823 0.076318495 -0.08878499 0.0914405 0.043430474 0.10358638 -0.012316348 -0.109319516
-0.048532333 0.050177157 0.0795231 -0.034686342 -0.01516433 0.006430883 -0.09811347 -0.023271136
-0.018602233 0.122117095 -0.07085644 -0.04844649 0.03874527 0.08956902 0.0890913 -0.09891181
-0.0550669 -0.040750276 -0.028184634 0.122189455 0.06369007 0.0076709986 -0.010706261 -0.10548219
-0.029969297 0.07328107 -0.0729711 0.11043536 -0.10653581 -0.098750174 0.03342053 0.10031162
0.06267536 -0.10662888 -0.082327545 -0.076556265 -0.0012369752 -0.08882705 0.020261377 -0.039491624
0.024427325 -0.07019172 0.08460502 -0.08601713 0.104742065 0.056381006 -0.06182008 0.10196117
-0.080722496 0.0709859 0.10973817 0.053564515 -0.09331462 0.025188694 0.10034467 -0.022892727
-0.1037139 -0.06980428 -0.05080347 -0.070870005 -0.031177893 -0.06619393 0.027185962 -0.09786933

layers.10.weight f4 [80, 80]
00000000: 9851 c4bd a0a0 113c 00fe e53c 60e4 aabd
00000010: 1901 b23d d499 8bbd 12f9 bcbc b53a 7bbd
00000020: 92ee e3bd 2422 8d3d 1f19 b7bd d5b4 d5bd
00000030: 2f24 9d3d 7a43 ddbc 5797 30bd 808f ed3c
00000040: e262 b2bd fe3d 3dbd f2de aebb 4040 353d
00000050: 0629 2cbd 9765 2c3d 4eab d93d d0ba d53d
00000060: a212 b03d 1398 88bd e0f0 fa3c c423 0dbd
00000070: eda2 963d 56cb e6bd 9fe6 9d3d 5139 60bd
00000080: 7877 0d3d 98c2 1bbd fc21 a93c 0a88 ad3d
00000090: 03b7 543d d093 49bc ab09 bfbc 48c9 7c3d
000000a0: 3e65 ccbd 99fb 94bd 62c1 14bd 0612 d83d
000000b0: 7e8b 973d 94a5 97bd ccc4 31bd 5d32 dfbc
000000c0: d3b5 e53c 8056 1fba 4c13 abbc fa36 35bd
000000d0: c8a2 a03c 8aa6 8d3d 42ba 923d d025 e5bb
000000e0: b813 e03c 18e0 f7bc 2d13 a23d 5a31 0bbd
000000f0: b8ab 92bd e360 ee3b 80d2 5e3b 8a25 833d
00000100: 6cf0 943b bc1b 233d 6493 93bd 0a70 dc3c
00000110: 0e92 ccbd 2705 313d dadf 0dbc c593 41bd
00000120: 7c2f 863d b0e2 acbd 4710 4fbd c609 e6bd
00000130: 9097 b23c 98ea 41bd f383 95bd 0231 ae3d
00000140: ee87 26bb 8861 0abc 5566 afbd 51e6 ca3d
00000150: daaf bfbd 7f37 c6bd a247 2abd 80a6 f4ba
00000160: 006d 093c 985e 95bc d2d4 a13d 4e22 58bd
00000170: 0221 433d 47aa 73bd f886 ebbd 97bc ee3c
00000180: e334 11bd 7020 b13c 5b7b e63d d07c 123c
00000190: a29f b7bc 703f 0a3d 2aca dcbd 88d7 5d3d
000001a0: 1f17 a0bd 685e 50bd e2a0 d83d 7867 103d
000001b0: 8358 cbbd df43 e03b 3225 c13c 5afc 63bd
000001c0: f8f3 84bd e4ed 99bd cc13 0d3c af6f 6fbd
000001d0: b1aa 6dbd 7854 4fbd c58b a33d 18b7 c13c
000001e0: 1460 6f3d e01b cc3d 4883 873c 2349 683d
000001f0: 008a 6d3d c811 bcbc 6e8a 9d3b e9d4 db3c
00000200: f195 be3c 600d 493d 5d8a bbbd 30fe c3bd
00000210: 98ea 503c 2014 713c 4ebe 903d 24b7 093d
00000220: 7cf2 b53d 90f8 163d 6730 9ebd a213 df3d
00000230: e1ac 89bd 4b68 5c3d bd66 81bd 5daa 90bd
00000240: e660 c13d 7149 923d c5f6 43bc 925e 013c
00000250: f223 dbbd 0396 de3d 37f6 6f3d 5dd7 b438
00000260: 244d bd3d 686c 8b3d 668d 8b3d 5ea4 5e3d
00000270: 7630 903d 7f0a a9bd 6ec4 a13d 600f 893b
00000280: f46a 5f3d 4893 43bd 6854 bcbd 085b d73c
00000290: 2cff 953d 985b 903c 6056 813b 4a43 cb3d
000002a0: 847f c83d c465 683d 4ac9 ce3d b0df 98bc
000002b0: f0f7 9b3c f200 8dbd 90ae d33b 505b f4bc
000002c0: 4478 8c3d d06e cebb 7862 4dbc 1849 31bd
000002d0: b4a1 9cbd a878 283d 10d6 8dbd 224b c43d
000002e0: ecab b6bc 68b9 0fbd d04d 6c3d 588f 6b3d
000002f0: 3ee4 adbd 4029 be3d c899 a4bc 1063 da3d
00000300: 8c9d 2bbd 3424 563d 6811 a2bc 00c4 70b9
00000310: 8b0d 7dbd 9049 8fbb 709a 673d 88d2 8e3c
00000320: 2076 9dbb c0df 2abc e0b3 a53d 26b6 a43d
00000330: 55f0 aabd 805f 3c3c ccd5 e5bc 1cff 80bd
00000340: 3a9b b7bd 2c0c cabd c012 dbba c204 82bd
00000350: 87ab 8dbd 20ea 793d 1087 573d 5c83 dc3d
00000360: c9ab 55bd 6943 cebd 18f7 b53c 247f 003d
00000370: fcbe a4bc d438 c0bd 508f b9bd d051 343d
00000380: 28e5 81bd 681b 58bc 50c3 45bc 06fe cb3d
00000390: 0c11 3ebd fcbb d0bc fd61 bbbd 3837 c33c
000003a0: aeb8 3cbd 8a70 53bd ae5b e03d 62f3 823d
000003b0: 4800 8e3d 401c 40bb e02c c73c f051 25bc
000003c0: 3306 4cbd f222 89bd 3a0a 3cbd 34d9 883d
000003d0: 2057 8bbb b6a4 ba3d e881 0abd 8057 183a
000003e0: 2e1d c43d 40c6 9c3d 64a1 003d 01fc afbd
000003f0: eb8e a0bd dcf2 643d 04a0 e4bc 0042 5439
-0.09585875 0.008888394 0.028075218 -0.0834434 0.086916156 -0.0681645 -0.023067985 -0.061335284
-0.11129488 0.068912774 -0.08940338 -0.104348816 0.07672917 -0.027009714 -0.04311308 0.02899909
-0.08710267 -0.0462017 -0.0053366357 0.044250727 -0.04203131 0.04208907 0.10628377 0.10436022
0.08597304 -0.06669631 0.030632436 -0.034457937 0.073552944 -0.11269252 0.07710003 -0.05474216
0.034537762 -0.038027376 0.020646088 0.08473213 0.051932346 -0.012303308 -0.02332004 0.061715394
-0.09980248 -0.07274551 -0.036317237 0.10550313 0.07399653 -0.074046284 -0.04340057 -0.027245695
0.028040802 -0.0006078258 -0.020883225 -0.044241883 0.01960887 0.069165304 0.07164432 -0.006993033
0.027353153 -0.030258223 0.07913814 -0.033982612 -0.07161659 0.0072747334 0.003399998 0.064036444
0.004545262 0.03982137 -0.07205847 0.026908893 -0.09988795 0.043217804 -0.008659327 -0.047260065
0.06552026 -0.08441675 -0.050552633 -0.11232333 0.021800786 -0.047342867 -0.07300558 0.08505441
-0.002541061 -0.008446105 -0.0856444 0.099072106 -0.09359713 -0.09678554 -0.04157222 -0.0018665344
0.008387804 -0.018233582 0.079019204 -0.05276709 0.0476389 -0.05948856 -0.115003526 0.029142661
-0.035450827 0.021621913 0.11253997 0.00894089 -0.022414986 0.033751905 -0.10780747 0.054160625
-0.0781691 -0.050871283 0.10577561 0.035254925 -0.09928992 0.0068440284 0.023577306 -0.055660583
-0.06491846 -0.07516077 0.008610677 -0.05845612 -0.058024112 -0.050617665 0.07985643 0.023646876
0.058441237 0.09966254 0.016542092 0.056710374 0.057992935 -0.022957698 0.004807762 0.026834922
0.023264857 0.04908502 -0.0915725 -0.09569967 0.012751244 0.014714271 0.07067548 0.033621922
0.08884141 0.03685814 -0.07724076 0.108924165 -0.06722427 0.0538104 -0.06318424 -0.07063744
0.0944231 0.07142914 -0.01196069 0.0078960825 -0.107002154 0.10868456 0.05858442 8.6231834e-05
0.09243229 0.06807786 0.06814079 0.05435597 0.07040493 -0.08253955 0.07898794 0.004182741
0.054545358 -0.04774788 -0.09195787 0.026288524 0.07324061 0.0176218 0.0039470643 0.09924944
0.09789947 0.056737676 0.100969866 -0.01866135 0.019039124 -0.06884946 0.0064600185 -0.029828697
0.06858876 -0.006299831 -0.012535684 -0.0432826 -0.0764803 0.04113069 -0.06925595 0.09584643
-0.022298776 -0.035088927 0.057691395 0.05750975 -0.08490799 0.092852116 -0.02009286 0.10663426
-0.041898295 0.05228062 -0.01978369 -0.000229612 -0.061780494 -0.004372783 0.056543767 0.017434373
-0.0048053414 -0.010429323 0.08090949 0.080425546 -0.08346621 0.011497378 -0.028056048 -0.06298658
-0.08965154 -0.09865603 -0.0016713962 -0.06348564 -0.06917482 0.061014295 0.05261904 0.10767242
-0.05216578 -0.10071451 0.02221255 0.03137125 -0.0201106 -0.09385839 -0.09060538 0.044023335
-0.06342536 -0.013190128 -0.012070492 0.099605605 -0.046402976 -0.025480263 -0.09149549 0.023830041
-0.04607456 -0.051620997 0.109549865 0.06394078 0.069336474 -0.0029313713 0.02431339 -0.010090336
-0.0498106 -0.066961184 -0.04590819 0.06682053 -0.0042523295 0.09113447 -0.033815295 0.00058113784
0.09575878 0.07655001 0.031403914 -0.08592988 -0.078397594 0.05589567 -0.027908333 0.00020242482

layers.10.bias f4 [80]
00000000: 1708 c43c 670c c13d 4c94 8ebd 1d97 8cbd
00000010: f489 893c b0c2 fa3d 74bd 49bd bbee 8c3d
00000020: fcc1 33bd 09d7 273d e8fc abbc 19c5 e3bd
00000030: 91a6 cb3d ef1a 2a3c 66aa 92bd 7027 6dbd
00000040: 6ad8 e1bd ea72 6b3d 9ed2 a9bd 1886 86bd
00000050: 952d cc3d 7374 103c 597a a83d 0509 51bd
00000060: f2fa b7bb 836d bf3d 6d2c 98bd df24 cebc
00000070: c9e6 703d 9c05 c3bd a3dd 5ebd f1d5 983d
00000080: beed 483d 2433 da3c 4c25 87bd e050 70bc
00000090: 2839 8e3c fe64 15bd c388 5cbd f863 d7bd
000000a0: 2046 cc3d 3cf9 f6bc 8548 a13d 46c0 133d
000000b0: f48f 5abd cedd 7cbd 9e8a b53c a0af d13d
000000c0: 372a 9cbc f348 603d 505d 1fbd 402f 46bb
000000d0: 3db1 c33d 8198 833d e47d 273d ec06 0d3d
000000e0: 5005 8fbd 302c b7bc 6d8d 643c f594 8abd
000000f0: 98a3 953d 0101 903d fc2a a6bc 0be5 863d
00000100: 4071 0cbb 341e cbbd 60f0 4e3d 32d4 4d3d
00000110: 65cd 1c3c 808d 9c3c 33f5 6dbd f4f5 dabd
00000120: 7e28 c9bd 6778 953d 0633 fe3c f64a 98bb
00000130: 2011 94bd c734 f63c bbf8 b43d 51b3 aebd
0.023929639 0.09426194 -0.06961879 -0.0686476 0.016789414 0.12244165 -0.049252942 0.06881472
-0.04388617 0.040976558 -0.020994619 -0.11121578 0.099438794 0.010382398 -0.07161407 -0.05789894
-0.11027606 0.057482637 -0.08292125 -0.06568545 0.099696316 0.008816826 0.08226461 -0.051033992
-0.005614632 0.093470596 -0.074303485 -0.025164066 0.058813844 -0.09522554 -0.054410588 0.07462681
0.049054854 0.026635714 -0.06598911 -0.01466772 0.017361239 -0.036473267 -0.053841364 -0.105171144
0.09974313 -0.030148141 0.0787516 0.036072038 -0.05335994 -0.061734967 0.022160824 0.10238576
-0.019063098 0.05475707 -0.03890735 -0.0030240566 0.0955529 0.06425572 0.040891543 0.03443043
-0.06983435 -0.022359937 0.013949734 -0.067666925 0.07306594 0.070314415 -0.020284168 0.06586655
-0.0021429807 -0.0991787 0.05052221 0.050251193 0.009570454 0.019110441 -0.05809517 -0.10691443
-0.098221764 0.072983555 0.03103019 -0.004647608 -0.07229829 0.030054463 0.08836504 -0.08530296

layers.12.weight f4 [40, 80]
00000000: 68d3 3d3d 669d 803d 52d5 e33d 9085 ffbc
00000010: 3c96 7a3d 540b c7bd 485f 9abc 4cba 153d
00000020: b621 903d 00fd 153d 1c80 863d 808b babd
00000030: bc43 513d 80c8 c1bd ecb9 b0bc 9eeb bfbd
00000040: caac bf3d 88d2 8bbd 006e 15ba 8884 213d
00000050: 8843 9c3d 0c5a d4bc d828 bf3c dc17 a63d
00000060: 3896 1cbc 1016 423d 98d8 aabc 1aa0 933d
00000070: 30e8 073d 487d 213d 9e00 dbbd de99 9a3d
00000080: 350d cabd 102f 2d3d c30f c1bd 1621 90bd
00000090: 797e d0bd 901f bdbc 9e5f 21bd 546c 9cbd
000000a0: 5c09 3cbd 94a4 143d b49f d73d 1047 1abc
000000b0: b5fd 97bd 73ca 8abd 649a 103d b074 86bb
000000c0: b047 3e3c 80d6 d03a 4c37 ddbc 00ad 303b
000000d0: d411 88bc 7009 ba3d a812 56bc 78ae bfbd
000000e0: ce31 94bd a8d7 b63c bc28 b93d e60a da3d
000000f0: 0e7e a23d 9c39 d4bc 0a23 843d c861 20bc
00000100: 60fe b1bb 10df 9b3c d043 9abd 2685 99bd
00000110: 2018 3abd d006 93bc 881e be3c 7a96 66bd
00000120: 50da 2e3d 40a5 9bbc 7803 f7bc bc86 bb3d
00000130: d888 fe3c e045 433c a464 e3bd 1ead a6bd
00000140: 1c76 a53d 6e23 40bd fff2 78bd f00e bb3c
00000150: bc07 a3bc 9074 c2bb 782f 493c 70c8 e33d
00000160: ae4b 97bd ece4 22bd b281 02bd 010d d9bd
00000170: ccbb 473d c815 28bc 401e e03d 08f0 1fbc
00000180: 3421 863d 0a68 e43d f685 ab3d 7063 6b3c
00000190: 6cb1 543d 94e8 853d da83 8cbd e874 cd3d
000001a0: e01d c03c 1f03 b2bd c0a3 0a3b ce87 58bd
000001b0: 9447 53bd 5aa1 cd3d 5c68 14bd 3436 c6bc
000001c0: fca0 ad3d 949a 113d 4ef2 803d 5085 9b3c
000001d0: 9449 c83d cc0a 98bd c090 883c a060 12bd
000001e0: c04f de3b fc1b 743d 5cba 763d 3019 993d
000001f0: d0e6 88bd 77c2 a3bd 2cf6 3d3d 4e88 c63d
00000200: 7635 bbbd b086 41bd e8eb 143d 769e ae3d
00000210: bc13 3abd b85c 78bd 8a4f 973d 5ee4 5abd
00000220: 7c63 1dbd 7004 8a3b d059 41bd 40e5 56bc
00000230: b23c 5dbd 78d3 cd3d 9c20 b2bd c456 e8bc
00000240: 30e4 133d 41c0 acbd ded4 9c3d d8f0 263c
00000250: 64c9 aebd b000 11bc 4c41 87bd 4063 88bc
00000260: 7166 87bd 0099 af3a b685 d53d 2899 ca3d
00000270: 9091 893d 48dc a5bd 74ac a1bd 58e0 72bc
00000280: 2f10 c33b bf9c 863b f46c 003d 821b c53d
00000290: 9c77 ae3c 0972 db3d 9037 bd3d 011b f93c
000002a0: 04b7 863d eca4 66bd c05c f13c ee87 d4bd
000002b0: d2e6 8d3d b38b 33bd d04d 69bc b87f 9b3d
000002c0: 8cda 8bbc 7c34 de3d e8ea 0d3d 7a9d e3bd
000002d0: ee0e e33c 1a35 d33d 12a4 ca3d ffdf e0bd
000002e0: 3992 8fbd 6a6b 55bd 5eca a1bd d270 6c3d
000002f0: a12b a8bd a071 7fbc f049 08bc 07bd 723d
00000300: db81 693d 0545 54bd 63ed 91bd 4eaf 843d
00000310: 141d abbc a428 99bd 488b 553d 96b9 68bd
00000320: b0bb 993c 009d fd39 a5fb 22bd 293c 3abd
00000330: a804 a4bd 0084 f43a 1239 dfbd efe8 b03d
00000340: a0e6 4c3d bf7b 90bd 82c6 813d ca1b 813d
00000350: 5992 7cbd 3080 623b ee36 d83d 82e8 95bd
00000360: 2add e13d e454 2c3d 750d a0bd 90c2 bdbb
00000370: f020 9d3d 5a9b 0dbb b2a2 3dbd c0b8 023c
00000380: a456 c53d d090 0b3d fcdb a83c 64ee e43c
00000390: 2479 d0bd 137d b1bd 5dc6 2c3d 44b1 d13d
000003a0: 1d6a d8bd ef5f a53d f928 b73d dcdf b23d
000003b0: d203 43bd 9348 c9bb a56a a2ba d038 c1bc
000003c0: 8216 213c 8dbb acbd 9075 c23d 24f8 743d
000003d0: 6cbc a0bc 9506 a3bd a05d 5fbc d00e d53c
000003e0: d468 35bd 58d3 cc3d 2aab 0ebd 1015 d03d
000003f0: eb83 d9bd 5991 8f3c c8c3 bb3d 00ab bc3c
0.04634419 0.06280021 0.11124672 -0.031191617 0.06117843 -0.097189575 -0.018844262 0.03655462
0.0703768 0.036618233 0.06567404 -0.09108639 0.051089987 -0.094620705 -0.02157303 -0.09371112
0.09359129 -0.06827265 -0.000570029 0.039433032 0.07630068 -0.025921844 0.023334906 0.081100196
-0.009557299 0.04738432 -0.020855233 0.07208271 0.033180416 0.039426118 -0.10693477 0.07548879
-0.098658 0.04228121 -0.094268344 -0.07037561 -0.10180373 -0.02308634 -0.03939783 -0.076378495
-0.045907363 0.036289766 0.10528508 -0.009416357 -0.07421438 -0.067768954 0.03530349 -0.0041032657
0.011613771 0.0015933067 -0.027003907 0.0026958585 -0.016610064 0.09083831 -0.013065971 -0.09359449
-0.07236062 0.02231963 0.090409726 0.1064661 0.07934199 -0.025906377 0.06451996 -0.009788938
-0.005431935 0.019027263 -0.075324655 -0.07496099 -0.045433164 -0.017947584 0.023207918 -0.05629585
0.042688668 -0.018999696 -0.030153021 0.09156558 0.031071112 0.011918515 -0.1110318 -0.08138488
0.08079168 -0.04690879 -0.060778614 0.022834271 -0.019901149 -0.0059343055 0.012279384 0.11122215
-0.07387482 -0.0397691 -0.03186197 -0.105981834 0.04876308 -0.010259099 0.1094327 -0.009761818
0.06549302 0.111526564 0.083751604 0.0143669695 0.051927015 0.065385014 -0.06861086 0.10032064
0.023451746 -0.086920016 0.0021154732 -0.05286389 -0.051581934 0.10040541 -0.036232337 -0.024195768
0.08477971 0.035547808 0.06296216 0.018984467 0.09779659 -0.07423934 0.016670585 -0.03573668
0.0067844093 0.059597 0.06023632 0.07475507 -0.06684649 -0.079960756 0.046377346 0.09693967
-0.09141056 -0.04724759 0.03635779 0.08526318 -0.045428976 -0.0606353 0.07388218 -0.053440444
-0.038424954 0.004211955 -0.047204792 -0.013116181 -0.05401296 0.100501 -0.08697626 -0.028361686
0.03610629 -0.08435107 0.07657789 0.010189258 -0.08534506 -0.008850262 -0.06604251 -0.016648889
-0.06611336 0.0013397038 0.10425894 0.098924935 0.06717217 -0.08098656 -0.07894221 -0.0148239955
0.005952857 0.004108041 0.031353906 0.09624387 0.021297269 0.1071511 0.09239113 0.030408384
0.06577876 -0.056309626 0.029463172 -0.10377489 0.06928791 -0.0438344 -0.014239743 0.0759272
-0.017071985 0.10849854 0.034647852 -0.11114021 0.02771708 0.10312863 0.09894575 -0.10980224
-0.07010312 -0.05210439 -0.078999266 0.05772478 -0.082114466 -0.015591055 -0.008318409 0.0592623
0.057008605 -0.051823635 -0.07125356 0.06478749 -0.020887889 -0.07478455 0.052134782 -0.056817614
0.018766254 0.00048372895 -0.03979077 -0.04546753 -0.080087006 0.0018655062 -0.10899557 0.086381786
0.05002463 -0.07054853 0.063366905 0.063041285 -0.061663006 0.003456127 0.10557352 -0.07319738
0.11028512 0.042073146 -0.07815067 -0.005791016 0.07672298 -0.002160749 -0.046297736 0.007978618
0.09635666 0.03407365 0.02061271 0.027945705 -0.10179356 -0.08666434 0.04218136 0.10238889
-0.105671145 0.080749385 0.08943362 0.08734104 -0.047611065 -0.0061426847 -0.0012391402 -0.02358666
0.009832026 -0.0843421 0.094950795 0.059806958 -0.019621097 -0.0796024 -0.013633162 0.02600804
-0.044289425 0.10001248 -0.034831204 0.10160267 -0.106208645 0.017525362 0.09168202 0.023030758

layers.12.bias f4 [40]
00000000: 6ef5 c0bd 5935 c4bd 0593 60bc 64c1 d3bc
00000010: 4063 cebb 4ac5 0c3c 313e b4bd 335f 65bd
00000020: f09b adbd 4e5e bbbd f60e 883d 2735 573d
00000030: c0e0 963b 60a5 313b eb7d 98bd 78b2 88bc
00000040: 4fee d43a 64d1 81bc 5287 b2bd 607b 94bd
00000050: 50a7 b03d af71 193d b8e9 4c3c 25b6 563d
00000060: 2068 563b 97f7 dfbd 4806 4abd 0bd2 4e3d
00000070: f14e 0e3d 08c1 8f3d 0cfa da3d 00ab e73c
00000080: bb45 e13d ecf2 8f3d 6e41 623d 4238 a1bd
00000090: 003a dabd 067e c6bd 582b 23bd 16cc df3d
-0.09421812 -0.09580488 -0.013706927 -0.025849052 -0.0062984526 0.008591959 -0.088009246 -0.055998992
-0.08477008 -0.091488466 0.066434786 0.052540924 0.004604429 0.0027106628 -0.07445892 -0.016686663
0.0016245338 -0.015846916 -0.087172166 -0.072500944 0.08625662 0.037461933 0.012506895 0.0524198
0.0032715872 -0.10935896 -0.049322397 0.05049328 0.034743253 0.0701924 0.10692224 0.028279781
0.10999628 0.070287555 0.05523818 -0.078720585 -0.10655594 -0.09692006 -0.039836258 0.10927598
