trained_lenet5.pt (torch, 249991 bytes, 10 tensors)

conv_layers.0.weight f4 [6, 1, 5, 5]
000000 73 4e a5 3e c6 55 75 3e 29 90 8a 3e 44 b1 92 3e
       0.32286415 0.23958501 0.2706311 0.28650868
000010 58 10 c0 3e 63 d6 3c 3e e1 53 5c 3e 34 d3 c8 3b
       0.3751247 0.18441157 0.21516372 0.006128693
000020 92 fd 86 bd 91 46 66 3e 34 23 e8 3e 72 6c 08 be
       -0.065913334 0.22487856 0.45339358 -0.13322619
000030 a5 3b 92 be 64 d7 e1 be 6f 23 a5 be 78 a1 ab 3e
       -0.2856113 -0.44109643 -0.32253596 0.33521628
000040 d2 64 82 be 04 22 0d bf 9d 46 84 be 99 a0 f4 be
       -0.25467545 -0.5513003 -0.25835124 -0.47778776
000050 0d 07 df 3d ea 98 0a bd f9 45 8e be 4f 0f ca bd
       0.10890017 -0.033837236 -0.2778776 -0.09866201
000060 c9 17 c2 be ea 09 e9 be 93 ed bb be 8e 2c 3f be
       -0.37908772 -0.45515376 -0.36704692 -0.1866934
000070 9d f2 c9 be 77 0f a8 be fb 97 c3 be 9c e6 01 3e
       -0.39442912 -0.328243 -0.3820189 0.12685627
000080 80 f4 97 bd b1 0e e7 bd b4 5f b9 be 2a 93 04 be
       -0.074196815 -0.11282099 -0.36205828 -0.12946764
000090 7d 6f 9c 3e 3b ac cf 3e 84 1a 15 bc 5a 23 be b9
       0.3055381 0.4056109 -0.00910056 -0.00036265963
0000a0 c3 22 97 3e e7 cb cc 3e 42 14 cb 3e af d5 fb 3d
       0.2951871 0.39999315 0.39663893 0.12296616
0000b0 bb 5e 82 be d7 b9 c5 3e 75 5e da 3e 18 06 ad 3e
       -0.254629 0.38618347 0.4265019 0.33793712
0000c0 85 79 91 3e ae 07 ee 3d 9f e9 5b 3e 02 30 f1 bb
       0.28413025 0.116225585 0.21475838 -0.0073604593
0000d0 b3 95 b0 3d ed ca 5b 3e 0b ba 42 3f 12 d3 5b be
       0.08622303 0.21464129 0.7606513 -0.21467236
0000e0 a3 16 ce be fa 17 20 bf a0 89 44 be e0 1d fa 3e
       -0.40251645 -0.62536585 -0.19193125 0.48850918
0000f0 cf 0d 1a bf ca 8c b1 be 24 ef b1 be 2f c6 c4 be
       -0.6017732 -0.34677726 -0.34752762 -0.38432452
000100 c0 b6 b5 3e 70 ff 1d bf ea a3 d1 be f6 83 ed be
       0.3549099 -0.6171789 -0.4094537 -0.4638974
000110 ac 58 5d be e9 74 8f 3e 4a a3 d1 bd 9e 03 d1 3d
       -0.21615857 0.28018883 -0.10236223 0.10205768
000120 86 7e b5 3d 5d 68 69 3e ec 06 ac 3e b0 64 7a 3c
       0.08862023 0.22793718 0.3359903 0.015282795
000130 2c 0a 2f bc e7 7b 43 bd 48 f9 1d 3d 89 a5 4e bd
       -0.0106835775 -0.047725584 0.03856781 -0.050450835
000140 6e 35 e6 3d 0b dd 85 3d 2b f1 a8 3e d0 61 4f 3e
       0.1124066 0.06536301 0.32996497 0.20252156
000150 54 36 87 3e fd 33 c8 3d 1f 7e 8d 3e ad 2d cf 3e
       0.26408637 0.09775541 0.27635285 0.40464535
000160 64 95 94 3e 74 2d c7 3d f7 42 5a bd 0c 63 09 3e
       0.29020226 0.09725466 -0.05328652 0.1341669
000170 ef 64 25 3e 5e b7 51 bd 79 1c c7 3d 4d 46 60 be
       0.16151784 -0.051200263 0.097222276 -0.21901818
000180 1d 0c 8a be a4 33 02 be 52 90 38 be 20 9e 84 3d
       -0.26962367 -0.12715012 -0.18023804 0.064754725
000190 d0 e0 63 be 7d bc 70 be be 7b 1d be a3 66 48 be
       -0.22253728 -0.23509403 -0.15379235 -0.19570403
0001a0 ac f8 82 be dd 60 c1 be b8 94 5a be f4 15 02 be
       -0.25580347 -0.37769213 -0.21345794 -0.12703687
0001b0 e1 d6 d8 bd f5 f0 be bc 06 b4 c1 bc 05 55 48 be
       -0.1058786 -0.023308257 -0.023645412 -0.19563682
0001c0 2f b2 81 be 89 85 01 be fb 75 5c 3e d6 f6 73 3c
       -0.25331256 -0.12648596 0.21529381 0.014890393
0001d0 5b 48 83 be 5b 67 87 bc 57 80 68 3e b6 1a 09 3f
       -0.2564114 -0.016528776 0.22705208 0.5355638
0001e0 ec 00 d8 bd 7a 57 86 bd c8 b1 dd 3d 69 87 83 3e
       -0.10547051 -0.065596536 0.10824925 0.25689247
0001f0 71 46 02 3f a5 7e b6 be eb 33 59 3e ee 50 1b 3f
       0.50888735 -0.35643497 0.21211211 0.60670364
000200 ce 85 be 3e c2 ad a3 3e c8 75 88 bc ac 0c 9d 3e
       0.3721146 0.31968504 -0.016657725 0.3067373
000210 c3 47 0f 3f 3b 90 db 3e a5 41 34 3e 83 e2 6c 3c
       0.55968875 0.42883477 0.17603166 0.0144583015
000220 c8 09 fa 3e 45 6e 0a 3f 85 91 aa 3e a4 e1 18 3e
       0.48835588 0.5407451 0.33314148 0.14929825
000230 6b ee c7 be 5b b0 63 3e 5d 58 de bc 2e 9c 52 be
       -0.39049086 0.22235243 -0.027141744 -0.2056739
000240 67 73 80 be 6c 2e 0f bf 0b 87 dc be 50 40 f9 be
       -0.25088045 -0.5593021 -0.4307178 -0.4868188
000250 d6 98 d6 be 8b a0 a1 be
       -0.4191348 -0.31567797

conv_layers.0.bias f4 [6]
000000 d1 08 11 bd f2 72 f8 3e 64 75 28 bf 18 54 48 be
       -0.0354088 0.48525196 -0.65804124 -0.19563329
000010 2f 27 b3 3e 2b 57 cd 3e
       0.34990832 0.40105566

conv_layers.3.weight f4 [16, 6, 5, 5]
000000 9d 0d 08 3e 9c 63 20 3e 7e 3c 3e 3c 90 ca df bd
       0.13286443 0.15662998 0.011611102 -0.109273076
000010 4a b2 f5 bd 5c 74 03 3e b2 c0 22 b9 28 4d 3f bd
       -0.119968966 0.12837356 -0.00015521309 -0.04670444
000020 96 97 26 be d2 7c 99 bd e0 ae 6f bd 5a 6a d5 bd
       -0.16268763 -0.07494511 -0.058516383 -0.104206756
000030 7b 57 92 bd cf 94 5e be 6c 25 55 be 70 8f d2 bc
       -0.07145592 -0.21736453 -0.20815057 -0.025703162
000040 f8 b3 85 bd c2 a9 c3 bd 63 8a 13 be 7e 81 60 bb
       -0.06528467 -0.09553863 -0.14408259 -0.003425687
000050 a0 09 9d 3e 4b 31 98 3e 91 31 f4 3d 90 90 85 bd
       0.30671406 0.29725108 0.119235165 -0.06521714
000060 8b b7 6a bc 60 7f 1a be 30 ce bc bc 0f 6b 15 be
       -0.014325987 -0.15087652 -0.023047537 -0.14591621
000070 7b 86 47 be cd 53 0d 3d c3 f1 35 3d ed 27 5b 3d
       -0.19484894 0.034503747 0.044420015 0.053504873
000080 2a 0f ba 3d 9a 74 85 3d 53 41 50 3e 18 c9 99 3d
       0.090849236 0.065163806 0.20337419 0.07509059
000090 84 ac 02 3e 06 f1 73 3e 38 e0 87 3d 95 04 fc 3d
       0.12761122 0.23822412 0.06634563 0.123055615
0000a0 b8 38 df bd f2 86 12 3c e9 3a bd 3c 94 3d f9 3c
       -0.1089949 0.008943306 0.02309938 0.03042487
0000b0 6d 32 5e 3d 6e 28 39 be 8a 7b 84 be e8 4b 82 be
       0.05424731 -0.18081829 -0.25875503 -0.25448537
0000c0 f8 82 2d 3c 13 96 b0 bc 86 db 6d 3d 37 94 81 bb
       0.010590307 -0.021555936 0.058070682 -0.003954436
0000d0 0b 13 1b 3e 23 16 8d 3d 4b b6 3a bd 6c bd 8e 3d
       0.15143983 0.06888988 -0.045584004 0.06969723
0000e0 d3 89 7e 3d 6f 9d 01 3d 2e da 28 b8 7d 0c dc bd
       0.06214316 0.03164428 -4.0257517e-05 -0.107445695
0000f0 82 1f a5 bd bc b7 0b be ef 46 fd bd 49 55 e8 bc
       -0.0806265 -0.13644308 -0.12367045 -0.02836098
000100 22 f5 b4 bd 8c b5 f0 3c 73 86 07 be 5f 94 02 be
       -0.08835818 0.029383443 -0.13234882 -0.12751912
000110 c9 ac ea bd c2 d0 80 be c8 93 8d 3e 21 82 26 3e
       -0.114587374 -0.2515927 0.2765181 0.16260578
000120 84 a4 ed 3d c1 04 cd bd a8 15 86 bd 78 1d af bd
       0.116036445 -0.10010672 -0.06547099 -0.085505426
000130 8f cc 88 bd 85 28 dc bd 53 0f b1 3b 06 8a 24 bd
       -0.066796415 -0.10749916 0.005403438 -0.040170692
000140 15 6d c6 bd 44 74 6a bd 43 52 19 be 23 8f ec 3c
       -0.096887745 -0.057239786 -0.14972787 0.028876847
000150 d5 7e a1 3d 9f 75 44 3d be df 7e 3d f1 4b ae bd
       0.078855194 0.047963735 0.062225096 -0.085105784
000160 ad 2f a0 3d 20 76 3d 3e 6d c6 e3 3d fd b5 45 3c
       0.078215934 0.18502092 0.11121831 0.012067315
000170 7e 18 b3 3c ac a8 70 3d ee d2 8a 3d 1a db c2 bd
       0.021862265 0.058754608 0.06778513 -0.095144466
000180 97 bf 26 be 0b 0f 05 bd 90 8b c0 3c 6d 94 68 bc
       -0.16284023 -0.03248505 0.023504049 -0.014195544
000190 72 f6 ce bd 19 f7 49 bd 9b 8c fd bd 45 d7 9e 3b
       -0.101055995 -0.049307916 -0.12380334 0.0048474395
0001a0 55 1b 17 be aa 73 7c 3d 62 41 2a 3d 97 f1 e6 3b
       -0.1475652 0.061633743 0.04156626 0.0070478427
0001b0 4e 2f 18 3e bb be a3 bd 3b de f7 3d f6 48 be 3d
       0.14861795 -0.07995363 0.12102934 0.0929126
0001c0 8e 1b 8d 3d 38 2e 29 3d f1 0d 0d bc 1f 57 a0 bd
       0.06890021 0.041303843 -0.008609281 -0.07829117
0001d0 37 e9 19 bd 10 a9 20 3e a3 dd 56 3d b0 40 4b bd
       -0.037575927 0.15689492 0.052457463 -0.049622238
0001e0 83 63 0f bd 78 ca 69 3d ca fb 7b 3d 00 f5 cc bc
       -0.03500701 0.057077855 0.06151942 -0.025019169
0001f0 a4 aa 2d bd 21 fd f4 bd f7 2b 4b bd e3 f7 d3 3d
       -0.042399064 -0.11962343 -0.049602475 0.10350015
000200 bf 31 9a 3d 18 64 9c 3c 7b 15 ec bb 87 e8 41 bc
       0.075290196 0.019090697 -0.007204709 -0.011835224
000210 b7 6a e1 bd 9d 6a 92 3c 7e b6 d8 3d 58 91 14 bd
       -0.11006682 0.017873103 0.105816826 -0.036271423
000220 4d bb fe 3b b3 3a bf 3d b2 67 5e 3e e0 b9 b1 3e
       0.007773793 0.09337368 0.21719244 0.34712124
000230 24 e3 32 3e b2 24 76 3e 93 6f 10 3e 81 b8 60 3e
       0.1746946 0.24037436 0.14105062 0.21945383
000240 84 86 8c 3e ce 69 a6 bd 96 97 24 bd 9c ea a6 ba
       0.27446377 -0.081256494 -0.040183626 -0.0012734714
000250 8e 66 6d 3e 3c 17 0e 3e 6f 27 14 3d ab d9 d8 3c
       0.23183653 0.1387605 0.03617042 0.02647098
000260 1a 3e 93 3d fa e7 e0 3c 3b 93 16 be 42 b6 da 3d
       0.07189579 0.027454365 -0.14704601 0.10679294
000270 83 71 a1 bc 45 d1 0e be 2e e7 05 bd 82 9f 40 be
       -0.019707447 -0.13947017 -0.032691173 -0.18810847
000280 6e 4b b4 bd fd 64 3a be bc bc 1d be 94 7d 04 be
       -0.088034496 -0.18202586 -0.15404028 -0.12938529
000290 47 27 04 3d f3 14 66 bd b4 ed 87 3d 64 4d c2 3d
       0.03226402 -0.056172322 0.06637135 0.09487417
0002a0 22 1c a3 3d 68 b3 2f 3d 06 68 fc 3d 5c 77 95 3d
       0.0796435 0.042895705 0.123245284 0.072981566
0002b0 10 5a 1a 3e 29 9f 89 3d b7 f1 8f 3d 62 f1 51 bd
       0.15073419 0.067198105 0.07028525 -0.05125559
0002c0 4e 8d e8 bc 1c 93 07 bd 37 99 66 bd 03 53 57 bb
       -0.028387692 -0.03309928 -0.05629846 -0.0032855875
0002d0 f3 0f b8 3d 2c 0a 0e 3d 3f 2d 03 3e 43 dc 35 3e
       0.08987417 0.03467767 0.12810229 0.17759804
0002e0 29 cf d5 3d 98 cf 1f 3e 3c ae a0 3d 3a ac 0a 3e
       0.10439903 0.15606534 0.078457326 0.13542262
0002f0 55 fb bc 3d f0 25 9a bd 0d e5 67 3d 05 cf 3b bd
       0.09227625 -0.07526767 0.056614924 -0.045851726
000300 10 f2 8d bd d6 a9 36 be 66 b1 4f be ea 68 3b bd
       -0.069309354 -0.17838225 -0.20282516 -0.04575435
000310 25 3e 09 be de 7f 2b be fb 20 4c be 78 25 ea bd
       -0.13402613 -0.16747996 -0.19934456 -0.11432928
000320 42 74 9a 3d df 23 9e 3d 2a a0 21 3e 56 7e c8 3d
       0.07541706 0.077216856 0.15783754 0.09789722
000330 05 4c 01 3d 6b a8 d0 bd 35 cc d8 ba 5b be 32 bc
       0.03156664 -0.10188373 -0.0016540351 -0.010909642
000340 13 28 cc bd 85 5b 25 3a 7c 34 f0 bb 3c 0e 1e 3d
       -0.09968581 0.0006307888 -0.0073304754 0.038587794
000350 0d ca 01 be fb 71 83 be 00 67 02 be 1f 2a 0a be
       -0.12674733 -0.25672898 -0.12734604 -0.1349263
000360 eb 16 f4 bd bd 94 12 be 79 12 2f be d5 7c 5b 3d
       -0.11918434 -0.14314552 -0.1709689 0.053585846
000370 f0 19 48 bd 86 3b 4d 3c da b5 ce 3c 8d a0 b5 3d
       -0.04885286 0.0125263985 0.025233198 0.08868513
000380 b6 77 f4 3d 58 2d cf 3c df ff f9 bd ed eb 14 be
       0.119368955 0.025290176 -0.12207007 -0.14543124
000390 92 16 91 bd f6 46 ba 3d eb 0e 4b 3c 5f b5 bf bd
       -0.07084383 0.09095566 0.012393693 -0.09360766
0003a0 07 81 33 3d 0c da 00 bd 9f bd 90 3d b9 00 b2 3d
       0.043824222 -0.031457946 0.07067417 0.08691544
0003b0 87 84 25 3d 10 da 4b 3c 60 dc 44 3d 5d 33 d3 3d
       0.04040959 0.012442127 0.04806173 0.10312531
0003c0 9c 6f c9 3d 52 24 65 bc 49 2b cf ba 90 9a 9e 3d
       0.09835741 -0.01398571 -0.0015805747 0.07744324
0003d0 2c 7f d8 3c fe 6e 1f 3d 5c 80 1e 3c 5e 00 c1 bd
       0.026427828 0.03892421 0.009674158 -0.09423898
0003e0 9b 26 33 be 7a cb 0c be c6 91 bd 3d 4f 1b 23 3e
       -0.17495196 -0.13749495 0.0925632 0.15928386
0003f0 6b 4d 30 3e b2 b8 fd 3d dd 69 d0 3d 72 c3 34 3e
       0.17217033 0.123887435 0.10176442 0.17652681

conv_layers.3.bias f4 [16]
000000 0f 09 34 bd a3 50 ca 3c 08 09 ab 3d dc cf ec 3d
       -0.04395395 0.024696654 0.08351332 0.115630835
000010 b9 dc 2c 3d a7 0b 3d bd 6a b4 7e 3d f8 3b 27 bd
       0.042202685 -0.04615369 0.062183775 -0.040828675
000020 ef cd f1 3d bd b9 0c bd 39 b3 44 3e a2 7d 08 bc
       0.11806857 -0.03435682 0.19208993 -0.008330734
000030 bc 57 76 be 83 e9 e1 3d d7 25 19 3e 36 2c 1f 3e
       -0.24056906 0.11030867 0.14955841 0.15544209

conv_layers.6.weight f4 [120, 16, 5, 5]
000000 fd e0 df 3c 70 08 b3 3d a6 34 fd 3c b0 b9 6d bd
       0.027328962 0.08741844 0.030908894 -0.058038414
000010 e2 23 02 be cb 91 96 3b 06 81 df 3d f5 30 83 bd
       -0.12709 0.0045950166 0.10913281 -0.06405822
000020 33 0a 14 bd 00 82 11 be fc 41 32 bd d0 7a df 3d
       -0.03614254 -0.14209747 -0.04351996 0.109120965
000030 34 a0 17 bd 6c d4 8f 3d 02 12 e9 3c d7 89 10 bc
       -0.037018016 0.07022938 0.02845097 -0.008821926
000040 7d 7e e7 3d 9b 90 23 3d 96 ec a2 3d ff c1 36 3a
       0.113034226 0.03993283 0.079552814 0.00069716567
000050 90 e2 82 bd 97 15 1d 3d ae a1 cf bb b5 3e 4c 3c
       -0.063908696 0.038350668 -0.0063364124 0.012466122
000060 48 b7 0b bd 3e 33 7b 3b fb c0 17 bc 37 12 88 3c
       -0.034110337 0.0038330103 -0.009262319 0.016610248
000070 dc 23 81 3d 13 4a b5 3c 9b 99 97 3c f1 3f 30 3d
       0.06305668 0.022130048 0.018505862 0.04302973
000080 4c 09 99 3c 30 b9 e9 3c 7c 73 47 3d 3f 36 a7 bc
       0.01868119 0.028530687 0.04869412 -0.020411609
000090 12 ca f7 3c 5a 88 d6 3c d5 1d a0 3d 69 56 9e 3b
       0.030247722 0.026188064 0.0781819 0.0048320782
0000a0 fb 11 0e 3d 02 d2 15 3d d2 99 74 bd c9 98 0b bd
       0.034685116 0.036577232 -0.059717007 -0.034081254
0000b0 67 88 b0 bd 7b 7d b8 3b 2d d7 4d 3d c7 df ab bc
       -0.08619767 0.005630193 0.050254036 -0.020980729
0000c0 09 98 03 bd de 84 c5 bc 6c bb c7 bc e7 9e 17 bd
       -0.032127414 -0.024111208 -0.024381362 -0.037016775
0000d0 20 e9 c7 bd e7 05 ec bc 21 06 d3 3d 48 68 56 3c
       -0.09761262 -0.028811408 0.10303903 0.013086386
0000e0 39 66 72 bd 9a a1 4b bc ff c0 8e 3d 14 65 89 3d
       -0.05917952 -0.0124286655 0.06970405 0.06708732
0000f0 3a b1 49 bd 03 b7 39 b9 e0 4e 9f 3d 94 a8 a5 bc
       -0.049241282 -0.00017711152 0.07778716 -0.020221986
000100 4a 24 50 bd c4 a6 68 3d 39 c4 e3 bd 12 c2 1b bd
       -0.050815858 0.056799665 -0.11121411 -0.038026877
000110 99 59 30 3d 79 75 20 bd 75 21 e9 3d 2a 6b 60 bd
       0.043054197 -0.03917453 0.113833345 -0.0547897
000120 83 65 c6 bd 1b c7 80 bd 14 a4 19 3d 1b f9 3e 3d
       -0.096873306 -0.06287976 0.037509993 0.046624284
000130 e2 98 94 3d 9a b2 87 3d 9e 19 d4 bd bc e8 5c 3d
       0.072557226 0.066258624 -0.103564486 0.05393289
000140 9f 93 f4 3c 9d 85 a1 3d 38 16 b9 3d 2c f9 43 bd
       0.029855547 0.07886813 0.09037441 -0.04784505
000150 65 db d5 bb 82 4c 91 bc fd 96 20 3c c2 a2 dc 3c
       -0.006526398 -0.017736677 0.009801623 0.026933078
000160 5c df 16 bb 3c ba b1 3b df 42 3f bc f1 88 1e 3e
       -0.0023021316 0.005423812 -0.011673658 0.15481927
000170 25 a3 5c 3d e5 ae 11 3d b1 b1 d6 bc 05 de 9a 3b
       0.053866524 0.035567183 -0.026207777 0.004726174
000180 10 78 26 3d c5 f7 98 3c 3d b8 52 bd 4c a2 9f bd
       0.040641844 0.018672833 -0.051445235 -0.077946275
000190 0d 79 13 bd 7a 25 86 bd 3f 41 af 39 10 7c 3e 3d
       -0.036004115 -0.06550117 0.00033427213 0.046505034
0001a0 84 6e af 3d db 64 bb bd 61 45 a2 bd 20 56 e4 3c
       0.08566001 -0.09150096 -0.07923389 0.027873099
0001b0 91 f6 79 3a 21 60 14 3e 90 80 b8 bd 28 27 47 bb
       0.00095353374 0.14489795 -0.09008896 -0.003038833
0001c0 94 9d c4 3c ed dd de 3a e1 12 35 ba 37 af 53 bd
       0.02400092 0.0017003395 -0.0006907415 -0.05168077
0001d0 0d 9b 8b bb 1c 5d b9 bc a0 13 79 bd 14 f4 b9 bd
       -0.004260427 -0.022627406 -0.06080973 -0.09079757
0001e0 d5 de c9 3d 87 f1 2c 3d 86 3e d9 3b e7 4e a1 bd
       0.09856955 0.042222526 0.006629768 -0.078763776
0001f0 62 44 85 3d 2d ca 3d 3d b0 89 9f 3d 2a b3 49 bd
       0.065071836 0.046335388 0.07789934 -0.04924313
000200 59 5c e9 bb 8c a6 49 3d cc da a1 bb 83 49 8e bc
       -0.0071216044 0.049231097 -0.0049394127 -0.017369037
000210 cc c5 c2 bc 77 6f ab 3b a8 81 41 bd fd 8d 42 3d
       -0.023775958 0.0052317935 -0.04724279 0.04749869
000220 db bf 46 bd 58 ad 77 bd 19 d0 18 bd f2 69 45 3c
       -0.04852281 -0.060468048 -0.037307832 0.012049185
000230 43 33 c0 3d 52 e9 25 bc b1 cf 9b bd 20 f1 f9 3c
       0.093847774 -0.010126429 -0.07607973 0.030510485
000240 2d 17 48 3d 4b 85 49 bd da c7 24 3c b1 ad cf b9
       0.048850227 -0.049199384 0.010057414 -0.00039611527
000250 87 e8 44 ba 0c a1 93 3d ed 95 43 3c 7d c0 28 3c
       -0.0007511456 0.07208452 0.011937601 0.010299799
000260 f8 0f 8f 3c 51 83 55 3d 45 c6 3c bc af ec 96 bd
       0.01746367 0.052127186 -0.0115218805 -0.073693626
000270 8a 3c 8e bd db 2e 28 3d ea bc 14 3d 0f 55 31 3d
       -0.06945141 0.04106031 0.036312975 0.04329401
000280 7c a1 40 bc cd 0c 5a 3d 3f 04 87 bc 26 14 8b bd
       -0.011757251 0.053234864 -0.016481517 -0.067909524
000290 3f 8e 8d bd fc da 8d bc f1 f0 04 3c 85 64 2d 3d
       -0.06911897 -0.017316334 0.0081140855 0.04233219
0002a0 b6 40 72 3c c9 da e2 bc c6 f4 96 3c 3b 32 1e bc
       0.014785936 -0.027692216 0.018427264 -0.009655531
0002b0 c8 07 f4 bc f6 1e 54 3d 61 3d 90 3c 75 86 73 3d
       -0.029788867 0.05178734 0.017607393 0.0594544
0002c0 da b9 5d bd a2 ab 8b bd d0 cd 82 bd 1e a8 b7 bb
       -0.05413232 -0.06819846 -0.06386912 -0.005604758
0002d0 5d 95 b7 bc 22 ec b8 3c de 33 1d bd 3f 06 08 bd
       -0.02241009 0.022573534 -0.038379543 -0.03320908
0002e0 5c eb e1 bd 95 9f eb 3d b4 99 4e 3c ad c6 87 bc
       -0.11031219 0.11505047 0.012609888 -0.016574228
0002f0 4d 5d fe bc f1 12 89 3c b5 c8 1a 3d 0d b2 20 bb
       -0.031050349 0.016732665 0.037789065 -0.002452019
000300 fe 2b e2 3c 73 2c 5a bc 4a e6 c7 3d 56 4e d0 3a
       0.027608868 -0.013316262 0.09760721 0.0015892487
000310 7e 21 0e bd 0d 71 9c bc ee 10 00 3d 71 9e 7d 3d
       -0.03469991 -0.019096876 0.031266145 0.06191868
000320 9c b7 aa 3c dc f2 71 bd 4e 90 69 bd 4a e2 02 3d
       0.020839505 -0.0590695 -0.057022385 0.031954087
000330 df cf 20 3d 51 bd b2 bd 30 d4 ef 3b 34 1a a4 bb
       0.03926074 -0.087275155 0.007318996 -0.0050080065
000340 f7 6d b1 bd 14 1e ad 3c ca 5d ff bc ad ae 4b 3d
       -0.08663552 0.021132506 -0.031172652 0.04972713
000350 55 3b 27 bd 4a 2e 3a bd a9 ef da bd 28 4b d0 bb
       -0.040828068 -0.0454543 -0.10690243 -0.0063566156
000360 ee 92 51 bc 9d e5 2c 3b 8d eb 56 3c 58 d6 31 bc
       -0.012791378 0.0026381977 0.013117683 -0.010854326
000370 d6 7f 2f 3d d9 7e a9 3d e7 cf e3 3c 18 f4 83 bc
       0.042846523 0.082761474 0.027809097 -0.016107604
000380 d3 e3 af 3d 08 03 d5 bd 14 67 1d bd 4a 02 d7 3d
       0.08588376 -0.10400969 -0.03842838 0.104984835
000390 51 23 ce 3b 78 8d 1d bd 05 ec 7c 3d 5a eb 29 3d
       0.006290831 -0.038464993 0.061748523 0.041484214
0003a0 a6 a2 bd 3d c7 2c b2 3a c3 32 bc 3d cf 73 2a 3d
       0.09259538 0.0013593667 0.091893695 0.04161435
0003b0 e9 a5 86 bd f4 1b 66 3c 6e 53 d4 3c e8 e1 14 3e
       -0.065746136 0.0140447505 0.025918689 0.14539301
0003c0 4b dd 78 3c d2 ca 95 3d aa f7 f3 3b dc fa 45 3c
       0.015189479 0.073140755 0.0074452953 0.012083735
0003d0 34 bb 47 3b 1a e9 56 bd 23 8c 7a 3d 32 39 12 3e
       0.0030476572 -0.052468397 0.0611688 0.14279631
0003e0 0e 7f 33 3d eb 9f c5 bd 51 f1 b7 3c 4d a5 10 3d
       0.04382234 -0.096496426 0.022453936 0.035313893
0003f0 00 fa 93 3d 10 79 96 3d b9 17 30 bd ff 50 e0 3b
       0.07225418 0.073473096 -0.042991374 0.006845593

conv_layers.6.bias f4 [120]
000000 34 ed 6d bd bf 1c 95 bb 25 e4 9a 3d 01 23 02 bb
       -0.058087543 -0.004550546 0.07563046 -0.001985729
000010 fa 24 99 bd 5f b7 e0 bd b2 d1 65 3b b2 69 17 3d
       -0.07477756 -0.10972475 0.0035067615 0.036966033
000020 5c 67 9c 3c 37 f9 4a 3c 39 7c e3 3b bf 3e 07 3d
       0.019092254 0.012388519 0.0069422987 0.033018824
000030 08 d8 2a 3a 53 4d 05 3c d1 ca bf 3b 70 89 cb bb
       0.00065171765 0.008136111 0.005853035 -0.006211452
000040 37 8a 99 bd 6a b0 df 3b a6 82 fd 3b 62 b0 dc 3d
       -0.074970655 0.00682645 0.007736522 0.1077583
000050 bf b7 63 bd 7d 46 76 3d e1 57 e2 3c 88 c0 39 bc
       -0.055595156 0.060125817 0.027629795 -0.011337407
000060 5e 9a 5f 3d 91 cf 91 bc 13 12 8f 3b 02 20 ed 3b
       0.054590575 -0.01779917 0.0043661683 0.0072364816
000070 89 a9 20 3d cc 73 80 3b 04 6a 13 3d 26 18 ce 3c
       0.03922418 0.003920054 0.035989776 0.025158
000080 1d 65 a9 3c b0 45 92 3c e6 a4 0f bc 68 54 91 3d
       0.020678097 0.017855495 -0.008767342 0.07096177
000090 f2 bb 3d 3d 8f ef 9b bc dc 96 c0 3c 49 26 94 bd
       0.046321817 -0.019035129 0.023509435 -0.07233865
0000a0 d4 f8 96 bc 5b 31 13 3d b0 0e b0 bc 76 54 a6 bd
       -0.018429197 0.03593574 -0.021491379 -0.081215784
0000b0 79 22 ea bc 3b 29 a4 3d 5b b1 78 3d a6 ee 16 3d
       -0.028580891 0.080156766 0.060716014 0.036848687
0000c0 33 ea 1b bb 1f d8 a0 3b 1e b6 0a 3c c0 85 d1 3c
       -0.0023790717 0.004908576 0.008466272 0.025576472
0000d0 cb ce 60 bd c7 8d 14 3d 34 3f d1 bc 16 85 e0 bd
       -0.054884713 0.036268022 -0.025542833 -0.10962884
0000e0 ec 33 45 3d ba 02 78 3c 46 62 a9 3c 87 f2 9c bc
       0.04814522 0.015137369 0.020676743 -0.019158615
0000f0 02 7d 4d 3d 37 ab 77 3c 13 b3 4a 3d 80 ea 53 bd
       0.050168045 0.015116504 0.049487185 -0.05173731
000100 03 4a 93 3c 08 d1 ef bc 90 cf 64 bc 05 de b0 3d
       0.017979627 -0.029274479 -0.013965502 0.08636097
000110 e2 77 74 bd f8 8a e8 3c b9 9d c7 bc b6 8d 10 bb
       -0.05968464 0.028386578 -0.0243672 -0.0022057123
000120 0c f8 9b 3c 77 c4 2a 3c 34 92 7d 3d e3 fd d1 3b
       0.019039176 0.010422817 0.06190701 0.0064084395
000130 64 9b e0 3c 0d 76 3a 3c be e2 2a bd 81 4e 93 3c
       0.027417846 0.011380685 -0.041720144 0.01798177
000140 67 48 34 bd e4 ad 89 bc b6 1e b2 bc ba 34 86 3d
       -0.04401436 -0.01680655 -0.02174316 0.065530255
000150 f3 0d b7 bd 14 78 70 3c fd e3 10 bd 02 2d cc bb
       -0.089382075 0.014677066 -0.035373677 -0.0062309513
000160 60 21 9a bd 6d 55 3e bd b6 d4 02 3b f3 1c 16 3d
       -0.07525897 -0.046468187 0.0019963211 0.036648702
000170 8f b3 5b bc 8e 9e e5 bb 73 90 61 3d 3f 5e 05 3c
       -0.013409509 -0.0070074266 0.055069398 0.008140146
000180 b5 b4 5d bc 67 21 a7 3d 09 b0 d1 bc c5 04 26 3d
       -0.013531853 0.08160668 -0.025596635 0.040531892
000190 81 d5 96 bc 75 e6 2a 3d 32 88 02 bd 94 7b 1b 3b
       -0.018412353 0.041723687 -0.031868167 0.0023724781
0001a0 08 f9 a5 bd c8 dd f3 bc fe 81 98 3d fe cb 78 bc
       -0.081041396 -0.02976884 0.07446669 -0.015185354
0001b0 60 e3 0e bd d2 4a c9 bc 1d ea 1d 3c 55 e3 1b 3d
       -0.03488481 -0.02457181 0.0096383365 0.038058598
0001c0 66 d6 da bc 15 23 1f 3a 5c a2 0b bc a6 20 97 bb
       -0.026713561 0.0006070596 -0.008522596 -0.0046120463
0001d0 aa f0 8c bc 76 52 3e 3d 4d 4f 7a 3d 91 90 9d 3c
       -0.017204601 0.04646536 0.061110783 0.019233974

fc_layers.0.weight f4 [84, 120]
000000 68 b4 4d 3d 93 d5 81 3d 59 cd 87 bd aa 8f 66 3c
       0.050220877 0.06339564 -0.06630964 0.014072338
000010 80 73 43 3b 96 c9 b0 3d d8 86 7c bb f5 1c 9b 3a
       0.0029823482 0.086321995 -0.0038532522 0.0011834191
000020 0f 46 8a 3d 56 93 f5 3d b3 a1 a1 bc ef ec 58 bd
       0.06751644 0.11990993 -0.019730425 -0.052960332
000030 16 7e 8c 3d bf c3 a6 3d 2a ce ca bd 80 d7 e2 bb
       0.068599865 0.08142804 -0.09902604 -0.0069226623
000040 53 97 d9 bd 51 f9 20 bd 04 fd b9 3d 02 91 04 be
       -0.10624566 -0.039300267 0.09081462 -0.12945941
000050 93 be 13 bd 7e 48 c9 bc 26 4e 4e bc 47 54 68 bc
       -0.036070418 -0.0245707 -0.012591874 -0.01418025
000060 d0 12 10 3e bc 36 08 3d d7 77 18 be 6b 56 f0 bd
       0.14069676 0.033255324 -0.14889465 -0.11735233
000070 7c a1 0f 3e 53 06 fb 3c ea 97 97 bc 7f 24 7f bc
       0.14026445 0.030642664 -0.018505055 -0.015572666
000080 06 1f 5e 3d 30 c0 8b 3d bf 15 21 bd e5 56 6f 3d
       0.054228805 0.06823766 -0.03932738 0.05843248
000090 42 9c 11 be c5 fd 03 3e cb 05 ab bc 01 4b 4a 3d
       -0.14219764 0.12889774 -0.020876786 0.049387936
0000a0 fb 61 80 bd d2 76 93 bd 46 b9 0f 3d 22 ac e9 bb
       -0.06268688 -0.072003976 0.0350888 -0.0071311155
0000b0 a8 50 3b 3d 92 3b cf bd 2e 41 82 3c 8e ac 82 bd
       0.045731217 -0.10118784 0.01590022 -0.063805684
0000c0 01 22 83 ba 14 cd 00 3e e3 52 1b be f3 af 9f bd
       -0.0010004641 0.12578231 -0.15168338 -0.077972315
0000d0 43 7f f6 3c ab 5a fe bd 07 ca 04 3e bd 39 16 be
       0.03008998 -0.12419637 0.12967692 -0.14670463
0000e0 b0 c6 de bd df 37 05 3e 32 be 3d bd d2 3b e9 bb
       -0.108777404 0.13009594 -0.046323963 -0.007117727
0000f0 e0 36 dc 3c 1c 30 dd bd 5a a4 7d 3d 05 2c 96 bd
       0.026881635 -0.10800192 0.061924316 -0.07332615
000100 9c 93 80 3c 45 81 07 3d cb 06 be bd 4f 3d ee bd
       0.015695386 0.033082265 -0.092786394 -0.116327874
000110 de cd 24 3b 1b c8 e8 3b d1 ae 94 3c 3b fa 52 bd
       0.002514712 0.0071039326 0.018149765 -0.05150817
000120 c5 19 98 bc 8c 36 f1 3c 14 8c 87 bd 11 c1 95 3d
       -0.018566975 0.029444955 -0.06618515 0.07312215
000130 cf 66 2c bc 23 0b dc 3c 8f 08 18 3e ce 2a 36 bb
       -0.010522558 0.02686078 0.14847015 -0.002779651
000140 c5 af 8a 3d 35 79 cb bd 87 c8 62 3d 5f 02 9c 3c
       0.06771807 -0.09935228 0.05536702 0.0190441
000150 87 d0 31 bc 5e 8a b5 3c 8c 57 04 be c1 0b 85 3d
       -0.010852939 0.022160705 -0.12924021 0.064963825
000160 4c 7e 60 3d 09 0d 4c bc fe ef eb bd 14 7b bf 3d
       0.054807946 -0.01245428 -0.11520384 0.09349647
000170 21 3a aa ba 69 6c f8 3d 43 76 d4 bd 2b a9 fc bd
       -0.0012987294 0.121300526 -0.10374119 -0.12336954
000180 b2 61 97 3d 6f 0f e0 bd 7d 27 22 bc 22 b7 1e bd
       0.07391681 -0.10940444 -0.00989711 -0.038748868
000190 50 5c a8 3b bd 71 48 3d 89 c9 86 3d a7 7c 0f 3e
       0.0051379576 0.048936594 0.065814085 0.14012395
0001a0 a5 51 b4 3c 64 7d aa 3d 18 bd 07 bc 82 3f 21 3d
       0.022011587 0.083246976 -0.00828483 0.039367206
0001b0 f6 69 4f 3c ff 01 e1 bd dc 1e 3b bc 7a 23 28 3d
       0.01265954 -0.10986709 -0.011420932 0.041049458
0001c0 01 eb 29 3d 6b d9 11 3d c0 41 80 bd ae 23 a5 bd
       0.041483883 0.035607737 -0.06262541 -0.08063446
0001d0 43 2f 91 bb b0 be 05 be c9 38 53 3c af 49 73 3d
       -0.004430683 -0.13061023 0.012891957 0.059396442
0001e0 1b 3f dc 3d de 7e 6b bd 6f ba 1a 3d 3f 39 9b 3d
       0.10754224 -0.057494037 0.037775453 0.07579278
0001f0 e9 7b b2 3c 93 df 11 3e 8d b5 3f 3c 75 03 ad bd
       0.0217876 0.14245443 0.011701 -0.08447925
000200 c3 01 b3 3d f5 a7 b5 bd a6 f9 fe 3d c8 9a e1 3d
       0.087405704 -0.08869926 0.124499604 0.1101585
000210 9b d9 8c 3d a0 90 21 bc ce cd ae 3c 6c 9c 68 bd
       0.068774424 -0.009861141 0.02133837 -0.0567898
000220 89 ec 5c 3b fa 0e c9 3c b4 20 2d 3d 50 1c 14 3c
       0.0033710322 0.024543274 0.042267516 0.009039953
000230 9d 0d cc 3d 2d 01 7d bc 1f 3a c3 3d 69 4d 3e 3d
       0.09963534 -0.015442175 0.0953257 0.046460543
000240 40 23 a4 3d a1 20 9a bd 61 2e da 3d 4f 0f 18 bd
       0.08014536 -0.07525755 0.10653377 -0.037123974
000250 bf 47 44 bb 0e a5 fb 3b 77 a8 44 bd 8f d1 f9 bd
       -0.002994999 0.007679588 -0.048012223 -0.12198173
000260 34 35 c9 bd 14 a3 95 3b ad f8 2b 3e b4 6b 89 3c
       -0.09824601 0.0045665596 0.16794081 0.01677499
000270 6a 75 88 bd 58 05 97 bd d6 60 e9 bc a8 9a 19 bd
       -0.0666302 -0.07374066 -0.028488558 -0.037501007
000280 97 93 cd 3c c7 aa 3c 3d 20 29 26 be fd 12 e1 3c
       0.02509479 0.046061303 -0.16226625 0.027474875
000290 db a7 8b 3d 6e 65 99 bc 81 1f df bd 36 d6 b7 3d
       0.06819125 -0.018725123 -0.10894681 0.08976404
0002a0 5e 1f 84 3d 14 f3 bb 3d 15 96 8d bc 6b 15 9e 3d
       0.06451295 0.09177223 -0.017283479 0.07718929
0002b0 fe a9 f4 3d d2 9b ec 3d be 1a 19 bd f9 c3 04 3d
       0.11946486 0.11553158 -0.03737902 0.032413457
0002c0 d5 05 c0 3d 8d 00 96 bd a5 27 89 bd 02 6d 2c bc
       0.09376112 -0.07324324 -0.06697015 -0.010524036
0002d0 1a 25 01 bd f8 e6 8e bd 61 22 11 be 5f 52 75 3b
       -0.031529523 -0.069776475 -0.14173271 0.003743313
0002e0 86 5f bc 3c c3 52 2b bd 61 f1 65 3d 06 3f f7 bc
       0.022994768 -0.041826975 0.0561384 -0.03018142
0002f0 6b bd 24 3e f2 f2 0b be a0 e2 17 bc f0 95 3c bd
       0.16087882 -0.13666895 -0.00927034 -0.04604143
000300 d9 0f 5f 3d 8e 0f 38 be cf a1 57 3d 6f 4a 46 bd
       0.054458473 -0.17974684 0.052644547 -0.04841083
000310 fe 59 ea 3c cb 60 23 bd f6 d8 2b 3d 69 b9 0d 3d
       0.028607365 -0.03988723 0.041954957 0.03460065
000320 11 7d 16 bd 0b bb fe 3c 79 80 92 3d 64 18 0f bd
       -0.036740366 0.031095048 0.071534105 -0.03493537
000330 43 b5 32 bd dc 96 49 3d ac 83 c3 bc c3 aa 21 bd
       -0.043629896 0.049216136 -0.023866497 -0.03946949
000340 13 e0 76 3d c3 08 df 3b 20 5b 11 3e 70 fa 48 3d
       0.060272288 0.0068064644 0.14194918 0.04906696
000350 9c 97 15 3d b5 c5 12 bd f3 81 29 3d 40 48 e6 3c
       0.03652154 -0.03583308 0.041383695 0.028110623
000360 39 b1 ba bc 70 5f 03 bb 25 3b 1b 3e 20 00 11 be
       -0.022789584 -0.00200459 0.1515928 -0.14160204
000370 a6 9f 76 bc a2 38 db bd 5a 5b 59 bd 4f 31 e8 bd
       -0.015052712 -0.10704161 -0.053065635 -0.1133753
000380 9e 6c b3 ba ef e1 ed 3d a5 82 97 3b fa 63 53 bb
       -0.0013688987 0.11615359 0.0046237283 -0.0032255636
000390 f2 99 2f bd 59 e2 88 3d d9 cb 77 3d f1 24 42 3d
       -0.042871423 0.066837974 0.06049714 0.04739851
0003a0 04 8a 9d 3d aa d7 eb 3d 75 f5 e8 3b 1a 4d 67 3d
       0.0769234 0.11515744 0.007109339 0.056470014
0003b0 2c ed 0a bd 59 6b 32 3e 1d a8 ad 3c 9c 6b 09 bd
       -0.03391759 0.17423762 0.021198327 -0.03354989
0003c0 82 d5 70 bd e8 c6 a4 bd 66 47 64 3b 10 8f 3d bd
       -0.058797367 -0.08045751 0.0034832596 -0.046279013
0003d0 96 ab a2 bc 4b ba 7e bd 64 4b 8d 3d d6 b3 83 3c
       -0.01985721 -0.06218938 0.06899145 0.016076963
0003e0 d7 f6 ba 3d 90 fa 95 3d 25 c7 f2 bd 9e 17 16 3d
       0.09129112 0.07323182 -0.1185439 0.036643617
0003f0 a7 4e 13 bc f8 61 f1 3d ce b5 b0 bd 2c 2d 18 3d
       -0.00899092 0.11786264 -0.086284265 0.037152454

fc_layers.0.bias f4 [84]
000000 8d 29 a4 bb 30 58 a5 bd e3 a3 e2 bd da 3d e9 3d
       -0.005009836 -0.08073461 -0.11066415 0.113887504
000010 df 71 80 3c 6d 04 a9 bd e3 b3 cc bc b1 11 04 3c
       0.015679298 -0.08252797 -0.02498812 0.008060859
000020 49 a1 4c 3d 71 30 54 bc c5 2c e8 3c 3e d3 1a bd
       0.0499585 -0.012951002 0.02834166 -0.037799112
000030 05 d9 ae 3d f2 19 d7 bd f8 77 31 bd 83 e7 2b bd
       0.08537487 -0.105029956 -0.0433273 -0.041968834
000040 1e f9 ba 3c 16 68 02 bd 52 56 6c 3c 09 38 4b bd
       0.022823866 -0.031837545 0.014424877 -0.049613986
000050 a2 8e 8a bd 40 1d 8e bc 82 c9 da 3d 08 eb 83 3d
       -0.06765486 -0.017347932 0.10682966 0.06441313
000060 78 e3 32 bd b4 e3 51 3d 25 f3 d9 bc 83 c8 17 bd
       -0.043673962 0.051242545 -0.026605198 -0.037056457
000070 f2 8d a1 bd e0 70 64 3d 26 b0 27 3a 21 d6 89 3d
       -0.07888402 0.05577171 0.00063967926 0.06730295
000080 6a 82 f3 bd dc 39 09 39 10 1c 65 bd a5 65 d9 bc
       -0.11890109 0.00013086892 -0.055934966 -0.026537726
000090 8c ed de bd 23 1a 35 3d da 9c 18 bb 0a e3 98 3d
       -0.10885152 0.04421438 -0.002328685 0.07465179
0000a0 d1 66 5a bd 36 25 3b 3c 9a d7 e6 bc 14 52 d2 3d
       -0.05332071 0.011422446 -0.028178979 0.102695614
0000b0 db 7a b7 3d 4b 3e 20 be 32 03 83 bb cf e2 a2 ba
       0.0895898 -0.15648763 -0.0039981836 -0.0012427213
0000c0 e1 fe b3 3d 10 75 4c 3d 51 ca c4 3d b7 ba 48 bd
       0.08788849 0.049916327 0.09608901 -0.04900619
0000d0 14 9f 53 3d dd f9 95 3d 69 72 39 3d d9 25 33 bd
       0.05166538 0.07323048 0.045275126 -0.043737266
0000e0 bf 32 b2 3d 7b 9b 89 3d fb 72 15 be 0a 20 d6 3c
       0.08701085 0.06719109 -0.14594643 0.026138324
0000f0 95 db 7f bd b7 e8 60 bd 00 49 eb bb da b6 3f 3d
       -0.06246527 -0.054909434 -0.007180333 0.04680524
000100 9d 61 a4 bb 63 c9 b7 3c 44 8e 05 3c bb 25 1a be
       -0.005016519 0.022434896 0.008151595 -0.15053456
000110 53 d5 6c bd c3 62 09 3d 38 08 48 bd 26 6f fa 3d
       -0.05782063 0.033541452 -0.048835963 0.12228231
000120 96 6c 66 bd 45 d2 9c bb 49 19 69 3c 18 b0 ed bd
       -0.0562559 -0.0047858083 0.01422722 -0.11605853
000130 3b 6d a7 3d 74 f0 b9 bb 40 ba 56 bc f5 de 9f 3d
       0.08175131 -0.005674416 -0.013105929 0.078061976
000140 16 1f 52 3d ac 7f 46 3c 9e 7f 98 3d fb 02 71 bd
       0.051299177 0.0121154 0.07446216 -0.058840733

fc_layers.2.weight f4 [10, 84]
000000 f6 0d ad 3e df fe f9 bd 00 ee 8d 3d bd b0 b3 be
       0.33799714 -0.12206816 0.069301605 -0.35095778
000010 53 f7 53 be 9d 1d 99 be 8f 1f 7c 3e 31 a3 bd bd
       -0.20699815 -0.29905406 0.24621414 -0.09259642
000020 29 03 0f 3e 66 a2 3b 3e 24 df e2 3d 84 18 59 3e
       0.13966049 0.18323669 0.11077717 0.21200758
000030 68 85 bd bd 05 fc e3 bd 7c 6d 1d be d5 8b 72 3e
       -0.09253961 -0.11132053 -0.15373796 0.23686154
000040 53 70 8b 3e c1 85 52 be 48 74 34 3e b9 14 31 3e
       0.27234134 -0.20558836 0.17622483 0.17293061
000050 52 75 89 3c 50 ab 7e bb 82 4e ad bd fa 3b 91 3e
       0.016779575 -0.0038859434 -0.0846224 0.2836607
000060 18 90 10 3e 67 8d 9e 3e 0e 3b 36 bc 4b a3 2d be
       0.14117467 0.30967256 -0.011122478 -0.16956823
000070 5b 0c 4f be f5 83 98 3e 9d 52 56 3e c1 5c c7 3b
       -0.20219557 0.29788175 0.20929952 0.006084055
000080 1a d8 a3 bd 20 6c ff 3a a1 68 bb 3d 84 5c 22 be
       -0.080002025 0.001948718 0.09150816 -0.15855604
000090 3b 25 6e 3e f9 9b 08 be 71 fa b8 be 79 3d 27 3e
       0.2325639 -0.13340749 -0.36128572 0.16332044
0000a0 6a dd 89 3e fb 2e 8e 3e c2 64 93 3e f0 46 bc be
       0.26926738 0.27770218 0.2878781 -0.3677287
0000b0 1f 72 75 3d 1a 60 16 be a6 71 c4 be 1c 88 f6 bd
       0.059923287 -0.14685097 -0.38367957 -0.120376796
0000c0 ce 0b 68 bc d1 ba c6 be e5 58 dd 3b 66 84 4d 3e
       -0.014162971 -0.38814405 0.006754982 0.20070037
0000d0 ef 32 31 3e b8 30 aa 3d c4 39 a5 bd 55 1c bf 3e
       0.17304586 0.083100736 -0.080676585 0.37326303
0000e0 0c 39 8a bd 1a 64 05 be c5 4a 08 be 52 fc 00 3e
       -0.06749162 -0.13026467 -0.13309772 0.12596253
0000f0 b4 ae a8 3e 3a 06 62 3d 88 f2 76 be c4 af 07 3d
       0.32945788 0.05518172 -0.24115956 0.033126608
000100 1f fe 88 3e 1a 11 1d 3e 82 3d be bc 08 8e 94 3d
       0.2675638 0.15338555 -0.023222689 0.07253653
000110 fe b4 60 be b1 ba a0 3e f8 0f 12 be c4 cc 70 3e
       -0.21944043 0.31392434 -0.14263904 0.23515612
000120 26 9c 7b be ce ae 8b be 32 80 75 3e a1 c9 e9 3e
       -0.24571285 -0.27281803 0.23974684 0.45661643
000130 aa 65 3f bd 17 f6 fd 3c 8e 1c a2 3d b3 b7 b2 3e
       -0.046727814 0.031001134 0.079156026 0.34905776
000140 26 12 b3 3e 09 90 c7 be de 1a 74 be 42 fa 86 bd
       0.34974784 -0.38977078 -0.23838374 -0.06590702
000150 3b 16 07 3e 84 e3 ea 3e c6 9f 9c bd d4 93 1b be
       0.13192074 0.45876706 -0.07647662 -0.1519311
000160 c8 51 a8 3e d3 9c 34 be f0 e8 81 3d 23 d8 f9 3d
       0.32874894 -0.17637949 0.063432574 0.12199428
000170 1e 84 8d be dd 6f ad bc 44 4b 66 be ee 0a b2 be
       -0.2763986 -0.021171505 -0.22489649 -0.34773964
000180 c5 98 0d 3e 62 cc 60 3e a1 84 e0 be 7d cc 11 be
       0.13827808 0.21952966 -0.43851188 -0.14238162
000190 d5 73 81 be fc 35 d2 3d 46 85 27 bd 43 a8 12 be
       -0.25283685 0.10264203 -0.040898584 -0.14321999
0001a0 30 21 95 be 9a dd 08 be 98 8a 58 3d c5 a8 3b be
       -0.29126883 -0.13365784 0.05286655 -0.18326099
0001b0 b6 89 8e bd 2a 9a c8 be 30 17 82 be e6 51 5d 3e
       -0.0695986 -0.39180118 -0.25408316 0.21613273
0001c0 ce 1d 61 3e cd db fb bd 45 c5 39 be 6d 36 93 3d
       0.21984026 -0.12297783 -0.18141659 0.07188115
0001d0 f4 65 f6 3e 28 15 d1 be bb 2f 41 be 91 11 c0 3e
       0.4812466 -0.40836453 -0.18865864 0.37513402
0001e0 6c d1 0d be e3 c6 ad bd b2 db a0 3e 3b d8 a2 3d
       -0.1384942 -0.084852 0.31417614 0.07951399
0001f0 5b 81 42 be 4d 31 85 3e 4a a4 33 3e 48 e0 1f 3e
       -0.18994658 0.26014176 0.1754314 0.156129
000200 06 f3 e6 3d 3c 1d 97 be 86 b1 52 be 65 21 ab 3e
       0.11276822 -0.29514492 -0.20575532 0.33423916
000210 f3 fe 3e 3e 4d 1b 3b 3e 44 fc 3e 3e 52 69 cb be
       0.18651943 0.18272133 0.18650919 -0.3972879
000220 e6 e5 86 3c bc e9 a3 3d 2b 50 93 be c7 dd 81 be
       0.016467046 0.08003566 -0.287721 -0.25364515
000230 59 4a 85 3e 40 cf 02 3d 37 96 64 be f2 ff bb bd
       0.26033285 0.03193593 -0.22322927 -0.09179677
000240 77 5a bc 3e b0 65 87 be cf 8f 32 be 47 2b a0 bc
       0.3678777 -0.2644477 -0.17437671 -0.019551886
000250 af bd ec 3d eb 3a 86 be c0 4a a0 3e 12 56 65 3e
       0.11559617 -0.26216826 0.3130703 0.22396114
000260 b9 68 ad 3e de 8d 89 3e 31 95 92 3e 9c 8a 83 be
       0.3386896 0.2686605 0.2862945 -0.25691688
000270 2c d5 70 3e 67 7d 13 3e 4f c1 94 be 89 53 88 be
       0.23518819 0.14403306 -0.29053733 -0.26626232
000280 e7 41 9b 3e cc de 9f 3d 0e c9 77 be 8a f6 1f 3e
       0.30323717 0.07806167 -0.2419779 0.15621391
000290 f2 17 81 be c7 88 19 3e 92 a7 e7 3d 4f 68 f5 bc
       -0.2521358 0.14993583 0.113112584 -0.029956965
0002a0 4c 9b 95 bd f7 44 3e 3d 1c 6b 5e be ae 1a bb 3e
       -0.07305011 0.04645249 -0.21720546 0.36543792
0002b0 20 71 0e 3e 0f 2f 46 be 8f 2c c5 be 1d c4 39 3e
       0.13910341 -0.19353889 -0.38510558 0.18141218
0002c0 7c 87 ac be be fa e5 be 83 11 5a 3d 61 db 6b be
       -0.33697116 -0.44917864 0.053239357 -0.23032905
0002d0 4b a6 f7 3d 3d c1 83 3e 81 4e 9e be 0f 54 21 3c
       0.12092265 0.25733367 -0.3091927 0.009846701
0002e0 d1 47 44 3d d6 cb 3f be 4a 90 c7 3e 6a a2 a7 be
       0.047920052 -0.18730101 0.3897727 -0.327411
0002f0 07 d8 63 3e 2b 00 c0 be 98 e9 f3 3d 65 87 a1 3e
       0.22250377 -0.37500128 0.11909789 0.3154861
000300 a2 f5 31 be c3 6c 3f 3d e2 20 67 3d ec 9d 1f 3e
       -0.17378858 0.046734583 0.056427844 0.15587586
000310 71 7b 48 3e 35 7d 9b 3d f9 03 01 3e e2 af 3e 3e
       0.19578339 0.07592241 0.12599172 0.18621781
000320 64 db 34 be 0d 09 b8 3c 0c 5e d9 bd 5c 2c bf bd
       -0.17661816 0.022465253 -0.10613641 -0.09334633
000330 62 72 fd 3d 8d 15 34 3e c6 92 79 be f9 90 89 3e
       0.123753324 0.17586346 -0.24372396 0.26868418
000340 ed 99 84 3e c2 72 94 3d 09 99 ea be 17 3a fb 3e
       0.25898686 0.07248451 -0.45819882 0.49067757
000350 98 2b cd 3d 22 13 c0 be 05 1e 8d be 9c 78 1b 3e
       0.100180805 -0.37514597 -0.27561966 0.15182728
000360 7d df 19 be d1 f8 be bc 02 db d7 be e0 e2 bf 3e
       -0.1502666 -0.023312004 -0.42159277 0.3747778
000370 52 f8 7b 3e 1b 66 8d 3d a2 9e c1 be 4b 9f b4 3e
       0.24606445 0.06904241 -0.3781634 0.3527778
000380 60 67 1c be 1f e1 be be bb 19 eb 3d bd ec eb 3d
       -0.1527381 -0.3728113 0.11479517 0.115197636
000390 a7 e9 4e 3e 96 f5 89 be 31 d3 8f 3e ae 3a 04 3f
       0.20206319 -0.2694518 0.28090814 0.5165204
0003a0 f1 63 83 bd c5 d9 04 be 88 d5 f3 be cc 46 c9 be
       -0.06415547 -0.12973697 -0.4762385 -0.39311826
0003b0 b0 5e ba ba 39 9a 82 3d 94 d9 bb be c6 85 cc 3e
       -0.0014218893 0.06377072 -0.36689436 0.3994581
0003c0 c4 83 93 bd 0b 49 2d 3d cb 09 82 3c db 51 0e be
       -0.07202867 0.042305987 0.01587381 -0.13898413
0003d0 a2 1b 58 3e a1 47 25 3e 1b 6a 07 b9 91 07 f4 3e
       0.21104291 0.16140606 -0.0001291413 0.47662023
0003e0 0b 4d 00 be 09 c3 a7 bd 33 51 25 3e a6 53 05 3e
       -0.1252939 -0.08191497 0.16144256 0.1302019
0003f0 93 84 92 be 5d c9 9e 3d c0 0e 5a be 72 2d 88 3e
       -0.2861677 0.07753251 -0.21294689 0.26597172

fc_layers.2.bias f4 [10]
000000 9f 04 2d bd 6d 84 3d 3c b9 aa 4c 3e aa 91 91 3d
       -0.042240735 0.011567217 0.19987 0.07107861
000010 36 d3 bb bd fa 9a 81 3e 29 39 01 be ee 18 c7 3a
       -0.09171145 0.2531355 -0.12619461 0.0015189925
000020 af d6 fb bd a3 07 0d 3d
       -0.12296807 0.03443111
