trained_lenet5.pt (torch, 249991 bytes, 10 tensors)

conv_layers.0.weight f4 [6, 1, 5, 5]
000000 aa ff da be 88 8e 06 bf 08 e4 11 bf 8d b6 a0 be
       -0.4277318 -0.52561235 -0.56988573 -0.31389275
000010 7c 66 8c be 62 81 00 bf 78 75 0e bf 36 a0 4c be
       -0.2742194 -0.5019742 -0.55647993 -0.1998299
000020 da b7 64 bd f8 41 a3 3d 0c af f0 bd 1d c8 41 be
       -0.055839397 0.07971567 -0.117521375 -0.18923993
000030 31 8b bf 3d ca 1b 1f 3e e9 d3 9a 3e 1a 57 cd bd
       0.093527205 0.15537944 0.302398 -0.10026379
000040 dd 38 7c 3e 04 76 09 3e cb 2a 0b 3f 1f 99 b4 3e
       0.24631067 0.13423926 0.5436217 0.35273072
000050 6c 4a 56 3e 4d 5c c0 3e 9c 1a c9 3e be b6 e9 3e
       0.20926827 0.3757042 0.39278114 0.45647234
000060 e0 e2 9c 3e a4 95 ce 3d 14 c2 00 3e f4 af 94 3e
       0.30641842 0.100871354 0.12574035 0.29040492
000070 9b 7f 0c 3f b0 45 19 3f 31 08 5f be 72 d4 29 be
       0.5488221 0.5987196 -0.21780469 -0.16584948
000080 6c 06 1c 3c 1a 51 f6 3e c5 e5 24 3f a6 5d e8 be
       0.0095230155 0.4810875 0.644131 -0.45383948
000090 95 b4 a0 be 22 5e 1b bd 0c 54 74 3e 24 79 c3 3e
       -0.31387773 -0.03793157 0.23860186 0.3817836
0000a0 14 0c 04 bf 9e 60 c1 be 3a be a8 3d fa 11 34 3e
       -0.5158093 -0.37769026 0.08239408 0.17584983
0000b0 2f 39 07 be 4a 19 9c be 53 65 7f be 10 f5 5f be
       -0.13205408 -0.30488044 -0.24940996 -0.21870828
0000c0 63 c0 a0 be d6 4e 06 3c 20 e0 70 3d ad 9a be 3e
       -0.3139678 0.008197507 0.058807492 0.37227383
0000d0 fc 60 aa 3e 43 4d 03 3f ef 9f 68 3e 4f cd d4 3e
       0.33277118 0.5128977 0.2271726 0.41562888
0000e0 aa da 1c 3f 40 ee 06 3f 96 c2 f7 3e c5 43 2f bd
       0.61271155 0.5270729 0.48390645 -0.04278924
0000f0 ab ea c4 3e 76 92 9c 3e 9a 22 95 3e 99 59 10 3e
       0.38460287 0.3058049 0.2912796 0.14096679
000100 a2 60 8e bd 27 70 8e bc 21 97 2c bd 9f 05 ce bb
       -0.06952025 -0.017387463 -0.042136315 -0.006287291
000110 86 af 5a bd 66 38 a5 be 01 82 ab be b8 db 6b be
       -0.05339005 -0.3226959 -0.33497623 -0.23033035
000120 94 be e5 be 0a 1b ca be cc b7 04 bf 3f 7c 6a be
       -0.44871962 -0.39473754 -0.5184295 -0.22898959
000130 dd 28 19 be 07 ee c5 bc 7e 49 f8 bc 16 83 bd 3e
       -0.14956994 -0.024161352 -0.030308481 0.37014073
000140 d3 a1 07 3e 51 e9 02 3e 53 f8 a2 3d 7d fa e0 3e
       0.13245325 0.12784316 0.0795752 0.43941107
000150 31 d2 85 3e 7e d1 ac 3e 88 38 68 3e 83 b3 e8 3e
       0.26136926 0.3375358 0.22677815 0.45449457
000160 6b 4b e5 3e 70 5a 73 3e ba 9e 4e 3e c9 3d 90 3e
       0.44784102 0.23764968 0.20177737 0.28172138
000170 a5 c4 9c 3e fb a3 c7 3e a9 c4 de 3d 30 dc c7 3e
       0.30618778 0.38992295 0.10877354 0.39035177
000180 e8 42 65 3e da f3 94 3e 97 c9 9b bd 56 c6 3c 3e
       0.22388804 0.29092294 -0.076068096 0.18435034
000190 db 23 93 be ac 4d 6b 3d a6 a4 ad 3d 26 01 be 3e
       -0.28738293 0.05744712 0.0847867 0.3711025
0001a0 85 cc 3a 3e da e7 b7 3d 53 ce 84 3e a1 06 a7 3e
       0.1824208 0.08979769 0.25938663 0.32622245
0001b0 01 83 92 3e 85 e2 03 3f cc f0 0a bc 46 e6 35 3d
       0.28615573 0.51517516 -0.008480262 0.04440906
0001c0 16 26 89 3e f4 36 e2 3e 89 aa c9 3e 11 7d 16 be
       0.2678687 0.4418255 0.3938792 -0.14696147
0001d0 87 8e da bd 70 8a b8 3d 02 92 f2 3d f4 6e a0 bd
       -0.10671716 0.0901078 0.11844255 -0.07833663
0001e0 54 1b a1 be 4a f5 9d be c6 a5 bb be 2c 3f e7 be
       -0.31466162 -0.30851203 -0.36649913 -0.45165384
0001f0 0d 61 e5 bc 77 c5 d8 3e 3c 86 03 bd 6b 41 d6 bd
       -0.028000379 0.42338154 -0.032110438 -0.10461696
000200 40 80 99 be 9b 0e 39 be ff 75 98 bd 7c 12 7c 3b
       -0.2998066 -0.18071978 -0.07444381 0.0038463166
000210 0f 52 16 be a8 46 95 be 61 04 e6 be 3b 21 d8 bd
       -0.1467974 -0.2915547 -0.44925216 -0.10553213
000220 a1 84 5b be 3d f5 09 bf 3e d2 ab be a6 c6 9c be
       -0.21437313 -0.5388983 -0.3355884 -0.30620307
000230 a3 86 cf bd cb 0c 22 be ec 37 b2 be b3 fd de be
       -0.10133102 -0.15825193 -0.3480829 -0.43552932
000240 bf da af be a7 4c a2 be 8b 80 e4 be ec 4b 88 be
       -0.34346578 -0.31699106 -0.4462932 -0.26620424
000250 eb ed d6 be 9e b5 36 be
       -0.41978392 -0.17842719

conv_layers.0.bias f4 [6]
000000 ab 6d d0 bd 3f 71 b4 bc 5c 29 dc be 2c 72 9f be
       -0.101771675 -0.022026656 -0.43000305 -0.31141794
000010 27 83 23 bf 34 96 03 3f
       -0.63872 0.51401067

conv_layers.3.weight f4 [16, 6, 5, 5]
000000 6c 26 73 bd b2 bf e0 bd 97 61 02 be d3 ce 06 be
       -0.059362814 -0.10974063 -0.1273254 -0.13164835
000010 42 68 2e bd b3 0e 68 bd 55 a4 95 39 97 5e 51 3e
       -0.042579897 -0.056654643 0.00028541932 0.2044624
000020 9d d9 2c 3e 26 d7 ae 3d 11 68 e2 3d f9 63 eb 3d
       0.16879888 0.0853713 0.11055005 0.11493678
000030 6f 59 98 3e 46 fe 80 3e 9c 72 92 3e f0 00 f7 bd
       0.29755732 0.25193995 0.28603065 -0.12060726
000040 7d c3 03 be 9d f2 37 be 7d 64 f4 bc 30 0e 12 3e
       -0.12867542 -0.17963643 -0.029833073 0.14263225
000050 cc ed 93 be 36 9b c4 bd 73 e8 18 bc d9 03 f5 3d
       -0.28892362 -0.09599917 -0.009332764 0.119636245
000060 dd 55 6d 3e ce e2 40 be e2 38 11 be ab 37 83 3d
       0.23177285 -0.18836519 -0.14181855 0.06407102
000070 ef 99 49 3e bb 30 0c 3e dd 27 56 be c4 3f 7d be
       0.19687627 0.13690464 -0.20913644 -0.24731356
000080 b7 76 f7 bd c2 01 5a 3d 69 9c 16 3e c5 72 0d be
       -0.1208319 0.053224333 0.14708103 -0.13813312
000090 62 4e 3a be 56 be 18 be d8 1c 88 be 56 59 4d be
       -0.18193963 -0.14916357 -0.26584506 -0.2005361
0000a0 d4 06 12 bd 35 ae fc 3d 78 0f f9 3c c2 a7 bb 3d
       -0.035651043 0.12337915 0.030402884 0.09162857
0000b0 f3 21 21 bd 17 ac 1d bd 9f 46 73 3b 69 8c dd bc
       -0.039339017 -0.038494196 0.003712095 -0.027044492
0000c0 06 03 bc 3d e1 69 13 bd 3b 61 00 3d 55 2c b6 bd
       0.09180264 -0.035989646 0.031342726 -0.088951744
0000d0 6c 5a 61 bd 92 ad dc 3d f6 a0 19 3e 9f 4b 2d 3a
       -0.055017874 0.107752934 0.15002808 0.00066106947
0000e0 ce 6f 19 be 88 58 43 be f1 2a 3e be d7 03 d8 bd
       -0.14984056 -0.1907674 -0.18571068 -0.105476074
0000f0 e8 3d 7c 3d bc b6 d8 bc f9 7c d9 3c 99 ff 0f be
       0.061582476 -0.026454322 0.02654885 -0.14062347
000100 ac 41 21 be 40 26 8a 3e ff 96 8b 3e 8b 16 8f 3e
       -0.15747708 0.26982307 0.27263638 0.27946886
000110 3a 3d 23 3e e5 5a f7 3c 07 f7 6f 3e 75 d3 e9 3d
       0.15941325 0.03019471 0.23434077 0.11417285
000120 95 1b 40 3c 4a 92 7d bd b3 e7 bd bd 1b 78 cf bd
       0.011725326 -0.06190709 -0.09272709 -0.1013033
000130 af 0d 13 be 30 78 cb bb bf 40 2a bc 82 8e aa bd
       -0.14360689 -0.006209396 -0.010391413 -0.083279625
000140 ed ce fd 3c d4 cf 0f 3c e8 c2 8b bb 3b 80 3c bd
       0.030982459 0.008777577 -0.004265178 -0.046020728
000150 fa 4d 3d bc c5 1d 16 3e 51 f6 08 3e de 54 2f 3e
       -0.011554236 0.14659794 0.13375212 0.17122218
000160 ed 40 ba 3d 8a 09 83 bd b6 94 2d 3e a3 5b ce 3d
       0.09094415 -0.06398304 0.1695126 0.10076072
000170 ea d2 3a 3e 53 b3 1e 3e 24 dd ee 3d df af 31 bd
       0.1824452 0.15498094 0.11663273 -0.043380614
000180 ad c8 81 3c bf 36 02 bd 6c e7 fd 3d 63 ad 84 3e
       0.01584276 -0.03179049 0.12397656 0.25913534
000190 79 86 9d bd f1 94 18 be 14 f3 9a bd ef ab b3 3d
       -0.07691664 -0.14900567 -0.07565895 0.08773028
0001a0 2b 7f 26 3d 0d 6f 08 be 48 98 3c be 9f c2 a9 be
       0.04064862 -0.13323613 -0.18417466 -0.33156297
0001b0 58 2d 45 be cb 0b 32 bd ad 40 87 3b de b1 74 3d
       -0.19255579 -0.043468278 0.004127583 0.05973994
0001c0 bd 4d fb bd e5 94 40 bd f8 3c a2 bc 97 89 08 3d
       -0.12270687 -0.047016997 -0.019804463 0.03333434
0001d0 19 9a 26 3e da 35 10 3e 3f 97 1d 3e 8f 37 cd 3d
       0.16269721 0.14083043 0.15389727 0.100203626
0001e0 46 20 fa 3a 48 76 f7 bd 4d 40 48 bd 0f 47 91 3a
       0.0019083105 -0.12083107 -0.048889447 0.0011083799
0001f0 80 0f a0 3d 8c ad 11 3e e7 c2 95 3d 32 a8 b8 ba
       0.078154564 0.14226359 0.07312565 -0.0014088212
000200 9b 6d eb 3a 4e 88 c7 3c 88 a1 a7 bc 88 2c 42 bd
       0.0017961742 0.024356987 -0.020462766 -0.04740575
000210 42 70 8f 3b 20 3e 4c bd 22 cf 38 3d 5d 09 2a be
       0.004377396 -0.049863935 0.045119412 -0.16605134
000220 36 b0 83 be 9d 4b 5c be a1 0c 23 bd ba 93 ee bc
       -0.25720376 -0.21513219 -0.039806966 -0.029123176
000230 b3 57 20 be 47 82 23 be 8b 6d d2 bd 5b 32 68 be
       -0.15658455 -0.15967666 -0.102748 -0.22675459
000240 34 e8 a4 bd d7 86 2b 3d 7f 7e a3 3d e2 3e 85 3d
       -0.08052102 0.04187664 0.079831116 0.065061346
000250 ac c2 d2 bd 88 79 a1 be c0 7a 4b be b8 3a 2c 3d
       -0.10291037 -0.31538033 -0.19871044 0.042048186
000260 5c 7a 9a bd 98 31 d3 bd af 6a d9 3b cd 08 80 3d
       -0.075428694 -0.10312194 0.006635032 0.062516786
000270 1c 5c 1f bd 93 de 8b be 5d 2f fe bd 10 79 e4 bb
       -0.0389062 -0.27318248 -0.124113776 -0.0069724396
000280 e2 a1 3b 3e cb f7 98 be fc 0f 8d be bd c3 96 bc
       0.18323472 -0.2987655 -0.27551258 -0.018403882
000290 f3 12 c1 bc 2b aa b2 bd 3b a0 ca be 00 49 33 be
       -0.023568606 -0.08723863 -0.3957537 -0.17508316
0002a0 98 42 0a 3e 72 98 7f bd 82 2d 5e be 53 61 5c be
       0.13501966 -0.062401243 -0.21697047 -0.21521501
0002b0 96 77 02 be f6 24 0d bd bc 7d 13 bd 99 5d dd bc
       -0.12740931 -0.034459077 -0.03600858 -0.02702217
0002c0 cf 81 0e bd 23 e0 b3 bd 3a 11 ce bd a7 b6 f5 bd
       -0.034791764 -0.08782985 -0.100618795 -0.11997729
0002d0 ef ee 58 ba 25 b6 32 bd 65 49 96 be a5 f3 85 bc
       -0.000827535 -0.043630738 -0.2935287 -0.01635153
0002e0 c4 32 87 bd 42 87 5f 3e 1e 57 0b be c9 81 4b be
       -0.0660148 0.2182894 -0.13607451 -0.19873728
0002f0 72 fb de 3d 80 60 15 bd e4 82 f9 bc 76 02 59 be
       0.10887803 -0.036468983 -0.030457921 -0.21192345
000300 58 53 ad bc ca 9b c5 3d 78 f6 b5 bd ad 50 1d be
       -0.021157905 0.09648855 -0.08884901 -0.15362807
000310 e0 f0 51 be 14 e6 28 3d 55 90 cb 3d 2a ea 08 bd
       -0.20502043 0.041235045 0.099396385 -0.03342644
000320 e5 75 24 3e 53 6a f1 bb b2 c5 5f 3d 39 87 fb bc
       0.16060598 -0.007367411 0.054631896 -0.030704128
000330 ec a1 7e bd 96 f7 02 bd b3 cf 50 3e f0 74 d8 3d
       -0.06216614 -0.031974398 0.20391731 0.10569179
000340 8a 77 ad 3c ad ae 82 bd 5b d6 d0 3c f6 94 89 3e
       0.021175165 -0.06380973 0.025492838 0.2687146
000350 6d 33 cf bc c7 e8 2e be a1 18 1c be 31 58 7b 3e
       -0.025293076 -0.17080985 -0.1524377 0.24545361
000360 6b 03 ea 3d 55 d4 91 bd 06 91 1a be 3c 98 53 bd
       0.11426433 -0.07120577 -0.15094385 -0.051658854
000370 4d 92 b8 3e 91 22 06 3e b9 53 48 bd 1b 62 c6 bd
       0.3604912 0.13099124 -0.04890797 -0.09686681
000380 25 94 a7 bd 03 1a 87 3b 09 f0 9a 3c 9a a8 2b 3d
       -0.08182553 0.004122974 0.018913286 0.041908838
000390 e7 cd a3 bd 42 7c b3 bc e5 dd b5 3d 03 84 2c 3d
       -0.07998257 -0.021909837 0.08880214 0.042118084
0003a0 b0 4d 70 bd d4 c6 83 bd ac ad ef bd eb 72 fc 3d
       -0.05866784 -0.06434408 -0.11703047 0.12326606
0003b0 9c 09 78 3d 5d db ae bd 38 af e8 bc 35 01 07 bd
       0.06055604 -0.08537934 -0.028403863 -0.032960135
0003c0 a1 83 6e 3e a8 a9 be 3d 0e 4a c4 bd 1b 19 d8 bd
       0.232924 0.09309703 -0.09584437 -0.105516635
0003d0 83 00 b8 bc b6 df 21 3e 39 ba bf bd 35 5f ad bd
       -0.022461182 0.15807995 -0.09361691 -0.08465425
0003e0 6b 36 c0 bd 29 f2 36 be c8 2d 0d 3e 09 d3 a9 bc
       -0.093853794 -0.17865814 0.13786995 -0.020730512
0003f0 52 e9 e7 bc 9e 0d 2b 3d 76 d7 fc bc 55 fa 2c 3e
       -0.028309498 0.041761033 -0.030864459 0.16892369

conv_layers.3.bias f4 [16]
000000 f3 82 11 be 18 07 94 3d ad 10 1c 3d 10 39 a4 3c
       -0.1421011 0.072279155 0.03810184 0.02004674
000010 28 51 5f bd ab e7 f0 3d a6 6d da 3d 26 ff 90 3d
       -0.054520756 0.11762937 0.10665445 0.07079916
000020 26 99 20 be 12 8d 9f 3d e6 26 d7 bd 02 d9 63 3d
       -0.15683421 0.07790579 -0.10505466 0.055626877
000030 bd e7 d4 bd cf 1c 16 3e a8 56 fe bd c2 43 bf bd
       -0.10395763 0.14659427 -0.12418872 -0.09339096

conv_layers.6.weight f4 [120, 16, 5, 5]
000000 f2 91 59 3c aa d0 32 bd bb 4e d1 3c db e0 7e 3d
       0.013279425 -0.04365603 0.025550237 0.062226158
000010 94 28 e3 3c 9a 5a 34 3c 10 34 95 3c 2d ee 74 bc
       0.02772931 0.011007929 0.018213302 -0.014949364
000020 6a b2 86 3d 9a de 4f 3c 89 ea 8f bd bf 98 de bc
       0.065769985 0.01268735 -0.07027156 -0.027172444
000030 59 eb 41 bd 50 3b 32 bd 5d a1 d1 bc 32 40 3e bc
       -0.047343586 -0.043513596 -0.02558964 -0.011611985
000040 63 dd 1a 3c 4a 94 0d 3c 62 06 e8 3c d2 bb 19 bd
       0.009452197 0.008641312 0.028323356 -0.037532635
000050 cf d4 69 3d d8 24 c6 3c 03 ef ed bb 98 d9 25 3d
       0.057087716 0.02418749 -0.0072611584 0.040490717
000060 27 ee 3f bd 4e e2 b1 3b cb 0b 58 bd 94 1e 12 bd
       -0.04685798 0.005428589 -0.05274562 -0.035673693
000070 d4 f8 70 3c 5b bb 39 bd f5 49 95 bb 31 fb a6 bd
       0.014707763 -0.04534469 -0.0045559355 -0.0815338
000080 62 33 4d 3b bd b6 07 bd 0f e6 84 bd 8a 33 fd 3b
       0.0031311144 -0.033133257 -0.06489193 0.007727091
000090 ad 9b ac bc 28 cf 87 3c ed c6 6b 3d 18 9f e6 3b
       -0.021070326 0.016578272 0.057562757 0.0070380084
0000a0 4a 09 49 3d 1c 2e 4b 3d 87 23 21 3d b1 82 e1 bb
       0.049081124 0.04960452 0.039340522 -0.0068820347
0000b0 b0 32 75 bc 3c e8 3b bd 4f 3e 13 bc fe 00 1f bc
       -0.014965698 -0.045875773 -0.0089870235 -0.009704826
0000c0 38 d5 00 bc 6f 4b 21 bd d4 ec a9 3c 07 b5 90 bc
       -0.007863335 -0.03937858 0.020742811 -0.017664446
0000d0 c2 33 23 bd 87 4e 5a bd 5f 67 3e 3d 9e 74 62 3d
       -0.039844282 -0.053297546 0.0464853 0.055286996
0000e0 83 59 95 bc 72 84 12 bd 87 45 7c bc d5 6c 36 bd
       -0.01823116 -0.03577084 -0.015397436 -0.044537384
0000f0 7a 67 42 bb 18 14 32 bc 93 0b 96 3c 6a 2a e1 3c
       -0.0029663728 -0.010869049 0.018316066 0.027486045
000100 c3 88 06 bc 31 52 0b 3d 4b c4 b0 bc 82 6e d9 3c
       -0.0082113175 0.03401393 -0.021577975 0.026541952
000110 f3 e6 c6 3d 41 87 a6 bb a5 12 ef bc 56 62 7f bd
       0.09712019 -0.0050820415 -0.029183695 -0.06234964
000120 8e cb 57 3d 51 f2 3b bd d9 3a c8 bc 29 c7 1b bd
       0.05268436 -0.045885388 -0.024442123 -0.03803173
000130 83 fa 7b bd b3 c8 25 3c 80 c4 a8 3c 5d 88 25 3d
       -0.061518203 0.010118651 0.020601511 0.04041325
000140 a6 98 87 bc db 8a e8 bc 93 4d 1e bd c5 24 54 bd
       -0.01655228 -0.028386524 -0.0386482 -0.05179288
000150 fb b0 a6 bc c8 73 46 3d 25 5e aa 3c 7a 91 76 bb
       -0.020348063 0.04845026 0.020796845 -0.0037623332
000160 79 d7 17 bd 4e 66 c9 3b ee 27 2f 3d 71 3c 49 3d
       -0.037070725 0.006146229 0.04276269 0.049129907
000170 f5 3f 56 3c d2 20 77 3d 6d e6 aa 3c b0 26 9b 3c
       0.013076772 0.060334034 0.020861829 0.018939346
000180 dd 7e 96 bc 53 b1 ca bc a2 0d c4 bc de c9 05 bc
       -0.01837104 -0.024742758 -0.023932282 -0.008165805
000190 33 f5 5d bb b6 0d 3a 3d 17 4c 56 bd 02 be 93 3c
       -0.0033868074 0.045423232 -0.05231866 0.018034939
0001a0 ad 00 c9 bb 3b 39 98 3c da 55 35 3d 07 6f 8c 3d
       -0.0061341138 0.018581977 0.044271328 0.06857114
0001b0 0c 1b 0e bd 62 a4 7d bd ea 7f b2 3a 50 03 f8 3c
       -0.034693763 -0.061924346 0.0013618444 0.030275017
0001c0 d6 80 bd 3c 55 35 0f bd c3 90 37 3d f8 71 37 bd
       0.023132723 -0.03496297 0.04481579 -0.044786423
0001d0 7b f5 01 3d e7 5d 41 3c f5 0c 08 bd a1 9a a5 3c
       0.03172825 0.011802173 -0.03321548 0.020215334
0001e0 a4 20 eb bb 3c 1c 74 bc c4 30 82 b9 cf 22 ef bc
       -0.007175522 -0.01489931 -0.00024831865 -0.029191403
0001f0 5c e1 dc 3c d4 1b 4d 3b 24 31 e0 bc 47 6c 88 3c
       0.026962928 0.0031297104 -0.027367182 0.016653193
000200 3f 28 4c bd b5 08 5e bd 7f 2b 0d 3d 0d 5d 2a 3d
       -0.04984307 -0.054207522 0.03446531 0.041592646
000210 66 a6 87 3d 2a 8c a7 bc f2 af 16 bc d7 fa 0b bd
       0.06623535 -0.020452578 -0.009197222 -0.034174766
000220 5c 7b b1 3b e5 7c 89 bd d1 7f 93 bd 56 28 d6 bc
       0.005416317 -0.06713275 -0.072021134 -0.02614228
000230 eb e3 c1 3c 7a 8b 3a bd dc 51 13 bd 0d 27 2d bd
       0.02366825 -0.04554317 -0.03596674 -0.04227357
000240 ab 04 32 3d 14 41 1a bd de a1 25 3d 9c c8 98 bc
       0.043461483 -0.03765972 0.04043757 -0.018650346
000250 51 82 da bb 7f c2 85 3c 7e 52 73 3c 91 16 0a 3d
       -0.006668367 0.016328095 0.014851211 0.033712927
000260 fa c0 89 3d 36 61 cc 3c dc aa 81 3d cf c5 12 bd
       0.067262605 0.024948698 0.06331417 -0.035833176
000270 8c 9d 14 bc ce bb 09 bc 96 03 9f 3d 67 6c d2 3c
       -0.009070765 -0.0084065925 0.07764356 0.025686456
000280 0c 41 4e 3c 17 92 84 bd 86 0b 5e bd 59 4b 8a bb
       0.012588751 -0.06473177 -0.05421021 -0.004220408
000290 0f da e9 3c 0c a5 c8 3c f4 cd 61 bd e8 be 5c 3d
       0.028546361 0.024492763 -0.055128053 0.053893
0002a0 db 9b 8a bc f4 8c 8c 3d 7f 60 23 3d 17 50 01 3d
       -0.01692002 0.06862822 0.039886948 0.03157052
0002b0 b2 7a 9a 3d 73 56 a9 3c 0e fc d4 bc 87 62 f6 3c
       0.075429335 0.020671105 -0.025999095 0.030076278
0002c0 e1 13 21 bc 14 7f 65 bd 1b 50 01 3d 50 65 92 bc
       -0.0098314 -0.056029394 0.031570535 -0.017870575
0002d0 6a f9 81 3d a8 03 15 3c 0b 69 1c bc 22 c6 8d bd
       0.063464 0.00909511 -0.009546529 -0.069225565
0002e0 b5 53 24 bc ac 93 37 3c 27 c9 c7 bb 19 05 9c 3d
       -0.010029723 0.011204641 -0.0060969773 0.0761816
0002f0 28 b4 50 bc 0a e5 55 bd e1 5c 84 bd fc e5 e7 bc
       -0.012738265 -0.05222038 -0.06463028 -0.028307907
000300 0c 14 01 bd c5 cd 0e 3c 12 57 c6 bc d1 69 af 3c
       -0.03151326 0.0087160515 -0.02421144 0.021412762
000310 ca 59 5d bd 37 0a b9 bb 61 2a 65 3d 74 eb fc 3c
       -0.054040708 -0.0056469697 0.05594862 0.030873992
000320 85 e3 74 bc 9e 5d 04 bd b9 8c 70 3d f4 3e 1d 3c
       -0.014946823 -0.032315843 0.058727954 0.009597529
000330 7e ba 8d 3c 66 51 95 bb ae 95 57 bd 24 71 ab bc
       0.01730084 -0.0045568226 -0.05263298 -0.020927973
000340 f1 cb 83 3c 1f 12 ac bc fc a7 a0 3c ce 86 9c bb
       0.016088458 -0.021004735 0.019611351 -0.004776812
000350 1a 38 10 bc d9 f8 46 3c b3 32 e8 bc f3 bd 01 3d
       -0.008802438 0.012144291 -0.028344488 0.03167529
000360 72 08 1a bd c3 46 a7 3c e5 e8 09 bd e5 e7 17 bd
       -0.03760571 0.020419484 -0.03366937 -0.037086386
000370 38 14 61 3c bf e5 c3 3b b6 1d 8b bd 9c c0 66 bd
       0.013737731 0.0059783156 -0.06792776 -0.05633603
000380 ac 7a 04 3d d9 65 2d bc 02 38 54 3c 5b 91 44 bc
       0.03234355 -0.010583364 0.012952806 -0.011997546
000390 3d a9 e0 3b 11 82 75 3d 24 5c 05 bb ff 4e ab 3c
       0.0068561123 0.059938494 -0.002034911 0.020911692
0003a0 f6 6f 7b 3d 59 e7 23 bd 06 01 1a bd 8c de 07 bd
       0.06138607 -0.040015552 -0.037598632 -0.03317122
0003b0 6b 55 ef 3b 96 ca 8f 3d 9f 99 a8 3d 25 27 22 3d
       0.007303884 0.07021062 0.08232426 0.039588112
0003c0 bf 53 0d bd bc f6 af bc 91 55 c2 3c f4 74 84 3c
       -0.034503695 -0.021479957 0.023722442 0.016169049
0003d0 2a b2 3a bd 95 ff 51 bd 05 cc de 3c 16 af ff ba
       -0.045580067 -0.051269133 0.027196893 -0.0019507136
0003e0 3a 58 29 bd c2 1d 45 bd 00 a3 aa bc 1c 78 6a bd
       -0.041343905 -0.048124082 -0.020829678 -0.05724345
0003f0 ea c0 f4 3c d5 54 4f bc 5a e3 48 3c e9 8b c0 bb
       0.029877145 -0.012654503 0.012261236 -0.0058760536

conv_layers.6.bias f4 [120]
000000 84 d8 b0 3b 79 8d 24 3c c5 28 16 3d 42 38 93 bb
       0.0053969044 0.010043495 0.036659975 -0.0044927904
000010 a7 90 8d bd 82 77 c7 3c cc 82 82 bd de 92 87 bc
       -0.06912356 0.024348978 -0.06372604 -0.016549524
000020 ae b7 58 bd 40 68 85 3b c3 e9 b6 bd 94 d4 21 bc
       -0.052909546 0.0040712655 -0.08931305 -0.009877343
000030 4d 0f ed bc f5 6e d7 bb e2 f5 bc bc 31 75 b9 bb
       -0.02893796 -0.0065745064 -0.023066465 -0.0056597223
000040 6e 94 50 3d f3 91 5a 3c f1 bd 41 3d 8c 1c 41 bd
       0.050922804 0.013340461 0.047300283 -0.047146365
000050 0c 8f 6e 3d 67 9c 59 3c 05 ac 72 3d f1 07 99 3c
       0.05824189 0.013281918 0.05924608 0.018680545
000060 de 73 e1 3c e0 c8 71 bc 86 c1 ac bd 0a c5 85 bc
       0.02752107 -0.014757365 -0.08435349 -0.016329307
000070 e0 e5 06 3d cf 95 b5 bc ee 0c ea bc 55 f6 fb bc
       0.03293407 -0.02216616 -0.028570618 -0.030757109
000080 aa 8c 53 3b ef 21 5e 3d f9 3b 38 bd c7 96 b3 3b
       0.0032279887 0.05423158 -0.04497907 0.0054806205
000090 61 03 20 3d 14 a3 c2 3a 90 c0 1d bb 1f 8f 06 bc
       0.039065722 0.0014849626 -0.0024071075 -0.008212834
0000a0 d5 50 11 bc 59 b1 20 bd 99 76 b2 3c 88 cd d9 3c
       -0.0088693695 -0.039231632 0.021785067 0.026587263
0000b0 d7 af a7 bc 9c 7b 54 3d 6f 85 57 3c f9 06 a2 3d
       -0.02046959 0.051875696 0.013154372 0.07911486
0000c0 49 cc dd bd 99 d7 d1 3c d2 46 bb bc 08 cc 24 3b
       -0.1082998 0.0256155 -0.022860918 0.0025146026
0000d0 a8 0a 52 3d a3 45 55 3d 3a 75 8f bc 36 ff 86 3c
       0.051279694 0.052068364 -0.017511953 0.016479116
0000e0 55 95 2e bd d5 79 2d bd 3c 0e 72 3c c0 55 9f 3c
       -0.042622883 -0.042352516 0.014773902 0.019450068
0000f0 5d d8 c3 3d 11 8e 6b bd 17 5e bf 3c 33 dc d8 3c
       0.095627524 -0.057508532 0.023360295 0.026472187
000100 5b 79 24 ba 07 22 34 3d 2d 36 cf 3d 81 87 23 bd
       -0.0006274187 0.043977764 0.10117755 -0.03992415
000110 85 22 85 bd c9 d0 85 3d 65 ea 65 bc e7 a7 8f bd
       -0.06500725 0.06533963 -0.014032935 -0.07014447
000120 3d 27 11 3d f9 7a 98 bd 02 bf 7d 3c dc d2 66 38
       0.03543781 -0.0744533 0.015487434 5.503265e-05
000130 3d 4c 72 3d c6 90 78 ba 93 27 65 bc 89 a5 8d bd
       0.059154738 -0.0009482022 -0.013986486 -0.06916339
000140 35 d0 5e bb df b8 b9 bd 79 1f 1b bd cd 0e ed bc
       -0.0033998613 -0.090684645 -0.03787181 -0.028937722
000150 f8 c2 85 3d 9d 6c 79 bc 84 bb cf bc 73 1a 64 bd
       0.06531328 -0.015223649 -0.02535797 -0.055689286
000160 a9 93 0c 3b c2 4c cd 3d d3 67 87 3d 8d 46 94 bc
       0.0021450317 0.10024406 0.066116 -0.018100047
000170 d8 4a 37 bc 28 f0 76 3d 84 81 87 bc 99 9a 69 bd
       -0.011187278 0.060287625 -0.01654125 -0.0570322
000180 2b cd 41 3c a7 dd 17 bc c7 0a 7b bd dc 0c 6f bb
       0.011828701 -0.009269155 -0.061289575 -0.003647617
000190 5e f7 c6 3c e2 7a d1 3c a7 71 25 3c 22 77 a5 bd
       0.024287876 0.02557129 0.010097898 -0.080793634
0001a0 ec 90 19 3d 70 68 86 3d 29 64 08 3d 79 aa 03 bd
       0.037491724 0.065628886 0.033298645 -0.032144997
0001b0 24 8c ff bc 3d ac 5d 3d 54 01 8a 3c 8e f0 ac bd
       -0.031194754 0.054119337 0.016846336 -0.0844432
0001c0 4f 27 97 bd 5b 83 41 bc 22 d6 a9 bd e8 53 46 bd
       -0.073805444 -0.011811103 -0.08292796 -0.048419863
0001d0 72 74 4f bc 3c ed 51 bd 10 81 8f 3d 4b f6 b5 3d
       -0.01266204 -0.051251635 0.070070386 0.08884867

fc_layers.0.weight f4 [84, 120]
000000 fc de 37 bd 16 d5 89 3d 0d 7f 6f 3d 97 50 40 bd
       -0.04489039 0.06730096 0.058470774 -0.046951856
000010 14 35 db 3c 44 71 e0 3b 41 42 b8 bc d9 f5 53 3d
       0.026758708 0.00684944 -0.02249253 0.05174813
000020 da 99 58 3d 0e c4 39 be df fc c8 3c 70 6c 91 bd
       0.0528811 -0.18141195 0.02453464 -0.07100761
000030 ef 29 a1 3d d5 e2 7e bd 5b e8 4f be 20 fc 48 3d
       0.07869326 -0.062228043 -0.2030348 0.04906857
000040 c8 2d 0f bd 5e d7 ba 3a c1 52 05 be 7d 7a 03 3e
       -0.03495577 0.0014254858 -0.1301985 0.12839694
000050 9e c7 6f bd 67 42 1e bc ab da 20 bd 62 8e b5 3d
       -0.05853998 -0.009659386 -0.039271038 0.08865048
000060 55 6d 09 3e 00 8b 04 be 63 09 9b bd ae 44 ca bd
       0.13420613 -0.1294365 -0.0757015 -0.09876381
000070 fe 3e bf b8 0c 36 de 3d 39 ee a6 bc 9e ff 9f bb
       -9.119323e-05 0.108501524 -0.020377265 -0.004882767
000080 5e d8 87 3d 16 22 03 be 11 8e 9d 3b 9e f9 25 3c
       0.06633066 -0.12805972 0.0048081954 0.010130314
000090 19 b2 8c 3d 2f 57 d1 bb 45 a6 2d 3e ec 19 5f bc
       0.06869907 -0.006388567 0.16957958 -0.01361702
0000a0 0d 84 e0 bd 3c 97 f3 bd 86 2d 20 be db 1c 84 3c
       -0.10962687 -0.1189408 -0.15642366 0.01612704
0000b0 88 76 04 3e 20 90 0d 3e 9e db ee bb 33 8c d9 3d
       0.12935841 0.1382451 -0.007289364 0.10622444
0000c0 1e 09 c1 3d c9 43 e8 bd 65 23 f6 3c 1a 11 07 3e
       0.09425567 -0.11341054 0.030046174 0.13190117
0000d0 25 a3 c2 3d a2 42 bf bc 72 36 5d 3e 2a 2d 6a 3c
       0.095037736 -0.023347203 0.216028 0.0142929945
0000e0 39 da f2 3d 40 66 a1 bd ab 37 ba bc 42 ed 6c bd
       0.11858029 -0.07880831 -0.022731623 -0.057843454
0000f0 9e 7f 2b 3d f4 fd fb bd 09 14 35 3e 7b 3b 13 bc
       0.041869752 -0.12304297 0.17683424 -0.008986349
000100 82 f0 97 bc a0 9e a5 3d 23 ef 8f 3d db 9a 08 be
       -0.0185473 0.08086896 0.070280336 -0.13340323
000110 ee 9b 6a bd 54 9f 97 3d 34 c2 01 bc 5f e4 29 3e
       -0.057277612 0.07403436 -0.007919837 0.16591023
000120 64 2e 5d bd 42 3c a7 bd 13 8f dd 3d 04 96 df 3b
       -0.05399932 -0.0816579 0.10818305 0.006823303
000130 81 82 f8 3d d8 c9 a0 3d ba c7 91 bd 82 b2 65 bd
       0.12134267 0.07850999 -0.07118173 -0.05607844
000140 32 ad 4c 3c e1 a1 f9 bd 93 c3 9b bd 86 9b 80 3c
       0.012492465 -0.12189079 -0.07605662 0.01569916
000150 37 9c dc 3d 39 47 81 bd 3b d3 0e 3e e9 b5 30 bd
       0.10771983 -0.06312413 0.13947766 -0.043142233
000160 ea 82 31 bc 9b f8 f7 3b 06 5a 52 bd d4 01 06 3d
       -0.010834435 0.007567478 -0.051355384 0.032716587
000170 c2 42 ad bc 24 a8 13 3e d3 63 03 be b8 a1 93 bd
       -0.021149997 0.1441961 -0.12831049 -0.0720858
000180 37 d7 0b 3e 8e c3 ab 3d 89 87 12 3d 99 df a6 3d
       0.13656317 0.083869085 0.035773788 0.081481166
000190 24 de 0b bc af b6 ce 3d 92 ce e2 bd f8 2f 23 3c
       -0.008536849 0.10093438 -0.110745564 0.009960167
0001a0 3a d1 18 be 6e c8 50 bc aa 07 be bd f3 3e 16 bd
       -0.14923564 -0.012743099 -0.092788056 -0.036681127
0001b0 28 cc 8e bd c8 21 a1 bc 98 20 55 3d 15 5d 08 3e
       -0.069725335 -0.019669428 0.052033037 0.13316758
0001c0 7c b7 94 3d e8 61 1e 3b 9b fd 03 3d 7f 89 dd bd
       0.07261559 0.0024167243 0.03222428 -0.10817241
0001d0 3c d0 c0 bc 67 95 3f bd 18 a7 85 3d 76 4a 96 bd
       -0.023536794 -0.04677334 0.06526011 -0.07338421
0001e0 59 15 5d bd c2 1a 90 3c df 56 62 3c 49 28 70 3d
       -0.053975437 0.017590884 0.013814657 0.05863217
0001f0 3f 8f 99 3d 9b 73 11 3d bb d5 12 bd 2a 2a 38 3b
       0.07498025 0.03551064 -0.03584836 0.0028101304
000200 fe c5 6e bc 40 61 ce 3d 2e 67 2c 3e 88 61 ef 3c
       -0.014573572 0.10077143 0.16836235 0.029221311
000210 ea c5 ab bd f2 fa 86 3d f1 92 4b bc 86 6f a2 3d
       -0.083873585 0.06590833 -0.01242517 0.07931428
000220 1a df ae bd c4 4d 63 3d 69 01 0d 3d 64 a3 9e 3d
       -0.08538647 0.055494085 0.034425173 0.07746008
000230 ba 8b 91 bd 89 f8 48 bd 0d bd f3 bc eb 9e 06 be
       -0.07106729 -0.049065147 -0.029753232 -0.1314656
000240 ab 8a 98 3d b2 7b 26 bd 20 3f 13 bc 83 30 fc 3c
       0.07448324 -0.04064531 -0.008987218 0.030784851
000250 bf 8b a5 ba b9 c0 22 bd d7 c4 1d 3d 50 43 b0 3c
       -0.0012630149 -0.039734576 0.0385178 0.021516472
000260 f4 37 e0 3d de b1 6d bb fd 80 f8 bd cb b2 23 3d
       0.10948172 -0.0036269347 -0.121339776 0.039965432
000270 dd 1b 07 3d f6 8a a3 3c e7 b0 ad bd ee 51 d5 bc
       0.032985557 0.019963723 -0.08481007 -0.026040044
000280 2a e3 77 bd d7 d3 5b bc c0 43 3b bc 2f c9 07 3c
       -0.060519375 -0.013417206 -0.011429727 0.008287712
000290 2e 61 90 3d 3a 0e 0d 3d f3 3f 0d 3d 96 eb 02 3e
       0.070497856 0.034437396 0.034484815 0.12785181
0002a0 7d 6e 6d 3c 11 4a 8d 3d 7f b3 d0 bd 68 b8 d5 3c
       0.0144916745 0.06898893 -0.10190486 0.026088908
0002b0 ce 40 30 3e 9f 42 fe 3b 13 e3 df bb 8d 40 16 3e
       0.17212221 0.0077594067 -0.0068324893 0.14673062
0002c0 0d ff 46 3d 87 55 bf bd 77 51 07 bd e2 a4 98 bd
       0.04858308 -0.09342485 -0.033036675 -0.07453324
0002d0 40 fd eb bc 37 31 34 bc 40 67 60 bd cc 79 fd bc
       -0.028807282 -0.010998062 -0.054785967 -0.030941866
0002e0 a4 35 e2 3c 6c 4a 45 bd 52 24 49 b8 d9 b5 8f 3d
       0.027613468 -0.048166677 -4.795596e-05 0.070171066
0002f0 b4 db f2 ba e3 31 6b bc ba d6 80 bc b7 22 a6 3d
       -0.0018528611 -0.014355156 -0.01572739 0.0811209
000300 ed cc 24 be e9 3a ac bc 0c 86 15 3c da d7 9b bd
       -0.16093798 -0.021024184 0.009126198 -0.0760953
000310 8e f8 12 3c b6 cf d0 bd 90 09 92 bd 4d 5f 61 bd
       0.008970393 -0.10195868 -0.0713073 -0.055022527
000320 d6 c4 25 3c a0 43 bf bc 75 c5 9e bc c0 34 09 3e
       0.01011773 -0.023347676 -0.019381264 0.13399029
000330 a9 09 f8 bd c9 43 d3 3d 9a 9a 9a 3d 3d 7e 89 bc
       -0.121112175 0.10315663 0.07549019 -0.016783828
000340 6d 34 11 bd 45 af a3 bd 40 67 e4 3d bf bb 4b bc
       -0.035450388 -0.079924144 0.11152506 -0.012434899
000350 86 ca 9d bd e6 c8 b1 bd ec b0 4b 3a b5 a4 b4 bd
       -0.07704644 -0.086808965 0.0007770199 -0.08820478
000360 e7 46 8d 3c 03 51 1e 3d 8c 51 91 3d b6 3b 11 be
       0.017245723 0.038651478 0.07095632 -0.14182934
000370 87 49 03 3e 6b e7 b4 3d b0 57 39 3d fa 79 28 be
       0.12821017 0.08833202 0.04524964 -0.1645278
000380 05 50 77 bd 02 63 ff bc 58 34 c8 3d 09 f5 0e be
       -0.060379047 -0.03117514 0.09775609 -0.13960661
000390 81 b9 a2 bd b1 03 a5 3c a1 b7 ec 3d 76 19 a5 3d
       -0.07945538 0.020143362 0.11558462 0.08061497
0003a0 54 ff 86 3c c1 a9 3c 3d 91 84 b1 bd 34 0b ba 3d
       0.016479172 0.046060327 -0.08667863 0.09084168
0003b0 eb 5a 39 be d0 b7 95 bc 69 f4 89 3c 29 7c a4 3d
       -0.18101089 -0.018276125 0.016840177 0.08031494
0003c0 43 d0 33 3d 4d c6 7f bd c9 b1 5c bc 4a 63 22 bb
       0.043899786 -0.062444974 -0.013470122 -0.002477842
0003d0 b7 31 df 3c 8c 55 98 3d 84 f6 17 be 10 27 11 bd
       0.027245386 0.07438192 -0.14840132 -0.035437644
0003e0 38 f1 98 3d c9 a3 a3 3d 79 b0 d4 3b 8b 5d c1 bd
       0.07467884 0.07990224 0.0064907637 -0.0944167
0003f0 1f 46 fe bd 92 b3 14 3e 94 93 4e 3d 76 ca 81 bd
       -0.12415718 0.14521626 0.05043371 -0.063374445

fc_layers.0.bias f4 [84]
000000 65 70 92 3d 8c bf 03 bd 45 13 5c 3d 6c ac 06 3e
       0.07150344 -0.032165095 0.053729314 0.13151711
000010 f1 1d dd 3d 85 5c bb bc a0 d2 d3 bd d0 14 5f bd
       0.107967265 -0.022871265 -0.10342908 -0.054463208
000020 54 2f 4b 3c fc 99 01 bc 0c 9c 5e bd 4d 00 bc bd
       0.012401421 -0.007910248 -0.054348037 -0.09179745
000030 32 99 bb 3c 7f 3b 39 3d be f2 0e bd 83 8d 88 bd
       0.022900198 0.045222756 -0.034899466 -0.06667616
000040 f4 f8 8e 3d 0b ba 69 3d a8 7b ff bd 2a e7 4c bd
       0.06981078 0.05706219 -0.124747574 -0.050025143
000050 15 c3 e3 3c ce ea 16 3e 85 4a 5d 3b 67 b4 d4 3c
       0.027802983 0.14738008 0.003376634 0.025964929
000060 7e fd 76 bd 5a 28 78 bd 58 6c 7e 3d 8b 4f 2f 3d
       -0.060300343 -0.060585357 0.062115043 0.042800467
000070 94 91 4c 3d e0 fe af bd 06 cd 23 3d fc de db 3d
       0.04994352 -0.085935354 0.039990447 0.1073589
000080 8b 5e 95 3b 1c d9 91 bd 45 8d 09 be be a3 bd bc
       0.0045583895 -0.071214885 -0.13432796 -0.023149367
000090 a7 62 0d 3d 90 d8 da 3c 03 00 c6 bd 64 94 57 bd
       0.03451791 0.026714593 -0.09667971 -0.05263175
0000a0 7c e6 b3 bd 36 85 20 3e 0f e2 0e 3e 23 94 ce 3c
       -0.08784196 0.15675816 0.13953422 0.025217121
0000b0 77 aa 16 3d 34 d0 61 3d 77 a7 83 bc 90 df 0b 3d
       0.03678366 0.0551302 -0.016071064 0.034148753
0000c0 10 47 92 3d c2 ca 4a 3d 41 dd b2 3d 9e 0e 23 3d
       0.0714246 0.04950977 0.08733607 0.039808862
0000d0 8c 17 e9 3d 09 44 d1 bd 10 b5 97 bd 65 34 7f bd
       0.11381444 -0.10218055 -0.07407582 -0.062305827
0000e0 a8 3b 82 3d 6b 56 cd bd 24 46 68 3d b9 d5 06 be
       0.06359035 -0.100262485 0.056707516 -0.13167466
0000f0 63 8e a6 bd 52 b7 59 3d 81 84 36 3d 8b 6a 0e bd
       -0.08132627 0.053153343 0.04455996 -0.034769576
000100 2f e3 b3 bc d9 13 80 bd 6a ea 1c 3b 00 24 9c 3d
       -0.021958916 -0.06253786 0.0023943433 0.07624054
000110 d0 18 79 bc 13 9c a5 3d 2d 31 8b bd 29 82 f3 3d
       -0.01520367 0.080864094 -0.06796489 0.118900605
000120 5c 32 66 bd 90 69 0d bb 6a 3f fe bc c6 62 80 bd
       -0.05620037 -0.0021577813 -0.031036098 -0.062688395
000130 07 b4 1e 3c d5 2c 20 3c 67 b0 de bc b1 3c 90 bd
       0.009686477 0.009776314 -0.027183725 -0.07042826
000140 77 b8 52 bd 2e 84 a7 3d 00 77 66 3c 32 8d 14 be
       -0.05144545 0.08179508 0.014066458 -0.14506987

fc_layers.2.weight f4 [10, 84]
000000 43 31 b8 be 1a 41 82 be fc c3 55 be a0 60 06 be
       -0.35975084 -0.25440294 -0.20875543 -0.13122797
000010 0e 1a 9d 3d 75 ae a8 3e 0c 3d 96 be cc 0c e4 3e
       0.07670985 0.329456 -0.2934345 0.44541013
000020 8a 46 86 3e de e7 26 bd b8 50 a1 be 1d e8 b5 be
       0.26225692 -0.04074847 -0.31506896 -0.3552865
000030 bd 3d b1 3e c8 84 f9 bd b0 d3 8a 3e d9 61 b8 be
       0.34617415 -0.12183529 0.2711463 -0.36012152
000040 9a 59 61 be 37 99 ca be 5a b7 e8 3e d1 01 5c be
       -0.22006837 -0.3957002 0.45452386 -0.21485068
000050 d9 ff 9b 3e 3f 56 47 3e 3d 0e 4a 3d fd 64 e5 3d
       0.30468634 0.19466494 0.049329985 0.112009026
000060 ef d7 02 be 47 8d 30 3e 4d f7 5f 3e 37 63 36 3e
       -0.12777685 0.17241393 0.21871682 0.17811285
000070 f4 e3 3c be e7 2a 32 3e 75 d0 88 3e de 7f 50 3e
       -0.18446332 0.17399178 0.2672154 0.20361277
000080 b5 62 9e be 54 ce 1b 3e e3 a0 88 3e c4 59 3c 39
       -0.30934682 0.15215427 0.26685247 0.00017962517
000090 3d 13 fc be d0 1b 23 bb c5 68 fb bd e2 93 bf 3e
       -0.49233428 -0.0024888404 -0.122758426 0.37417513
0000a0 92 6d 14 3e 3e e0 44 be ed 82 81 be 96 ce 4d 3e
       0.14494923 -0.19226167 -0.252952 0.20098338
0000b0 4f 63 84 be 7c 80 fb be cd 78 b2 3d b7 30 87 bc
       -0.25857016 -0.49121463 0.08714447 -0.016502721
0000c0 23 90 a6 3e 77 67 43 3e a5 e5 cd be b2 3f 9b be
       0.32531843 0.19082437 -0.40214267 -0.30322033
0000d0 d7 32 ea bd 30 b3 a6 bd 4b e1 95 be 59 6c 0c be
       -0.11435478 -0.08139646 -0.29273447 -0.13713206
0000e0 31 c8 64 3e 4c 8b 96 be 41 dc 25 3e 30 bd 21 3d
       0.22341992 -0.2940315 0.16197301 0.039487064
0000f0 32 b6 8e bd 83 69 83 3b 59 6e d4 3e 73 0c 74 be
       -0.06968345 0.0040103807 0.4149044 -0.23832874
000100 3d 57 0a 3e 60 dd 08 be ac 76 99 3e 8c bb 45 3e
       0.13509841 -0.13365698 0.29973352 0.19309825
000110 ba 9c 86 3e ba 83 49 3e aa c9 ac 3d 92 a8 a2 3e
       0.26291448 0.19679156 0.08436902 0.31769234
000120 18 0b 3d bd 67 7b 1c 3e f4 b8 7a 3d 93 22 d9 be
       -0.046153158 0.1528145 0.06121154 -0.4240919
000130 90 bf da 3c b4 11 a8 be 8f b5 97 bc 95 4d d8 3b
       0.026702672 -0.32826006 -0.018519191 0.0066010454
000140 0d 86 ac 3e 0c da e2 3e 58 3e 9b be 8d 7f fe 3e
       0.33696023 0.44306982 -0.30321002 0.4970669
000150 65 c7 ca 3e 60 66 91 3e f4 15 ab 3e 04 a3 c7 3e
       0.3960525 0.28398418 0.33415186 0.3899156
000160 a4 69 56 be c1 68 53 3d fa 39 78 3e 26 0c ce be
       -0.20938736 0.051613573 0.24240866 -0.40243644
000170 a6 33 84 3e ee 71 82 3d 23 33 b0 be aa a3 04 3e
       0.25820655 0.063693866 -0.34414014 0.12953058
000180 a3 ac 90 be 41 27 fb 3e 25 50 b6 3e a4 3e 27 3e
       -0.2825671 0.49053386 0.3560802 0.16332489
000190 35 59 a8 3e ff 8b c1 bd ac fc 85 be a9 40 bd bd
       0.3288056 -0.0945053 -0.26169336 -0.092408486
0001a0 92 48 96 3e a5 ea 7c bd 14 9a 41 3d 23 d4 02 3f
       0.29352242 -0.061747212 0.04726608 0.51104945
0001b0 d9 6b f8 be b0 52 ba be da bc b0 be e9 40 d7 be
       -0.4851978 -0.3639121 -0.34519082 -0.4204171
0001c0 ab aa 39 3e 4a 01 fd be 0d 02 a3 be 19 d9 fe 3c
       0.18131511 -0.49415046 -0.31837502 0.03110938
0001d0 93 b8 a6 3e 59 5d 0b 3e b1 09 e9 be c2 0a dd be
       0.32562694 0.13609828 -0.45515206 -0.4317227
0001e0 6d c2 75 3e a0 f9 04 3e e7 57 84 be dd be 80 be
       0.23999949 0.1298585 -0.25848314 -0.25145617
0001f0 9b 82 b8 be 87 2a 91 3e 6b 55 a7 3e d1 db ab be
       -0.36037144 0.28352758 0.32682356 -0.33566144
000200 72 5d 6d 3e ff 84 8a 3d 65 da 76 be 03 f2 ec 3d
       0.23180178 0.06763648 -0.24106748 0.115695976
000210 31 0d 23 3d d4 4f a9 be 59 c5 4b 3e 53 b3 62 be
       0.039807502 -0.33068717 0.19899501 -0.2213872
000220 f1 63 8b 3e ab 0d 1b be ac d0 6d 3d 99 87 8d be
       0.27224687 -0.15141933 0.058060333 -0.27642515
000230 44 b2 cd bc 70 ee 6b be 16 ad 66 3e 93 e0 9e be
       -0.025109418 -0.23040175 0.22526965 -0.31030712
000240 bf 21 aa 3e b9 68 95 3e 3f f3 04 3e 1a 0a cd 3e
       0.3322887 0.2918146 0.12983416 0.4004677
000250 3e 3f 17 bd d4 ae c4 3e 01 76 bd be fc 86 ca bc
       -0.036925547 0.38414633 -0.37004092 -0.024722569
000260 4b ef a7 be 99 03 05 be ca 10 59 be 21 44 fa bc
       -0.32799754 -0.12989654 -0.21197811 -0.030550065
000270 be a1 a3 3e 82 39 c7 be 11 1e a7 3e 13 b4 d1 bd
       0.31959337 -0.38911062 0.32640126 -0.102394246
000280 9c 39 79 3e db 31 19 be 38 b4 75 be 1e 39 e2 be
       0.24338382 -0.14960425 -0.23994529 -0.44184202
000290 0c 54 92 be ca a6 08 bd da bc 89 3e 4e a9 9a be
       -0.28579748 -0.033362187 0.26901895 -0.30207294
0002a0 ed 38 3d be 19 a8 8f be 5d d9 ae 3e 2b c2 94 be
       -0.18478747 -0.28057936 0.3415021 -0.29054388
0002b0 28 74 84 be 26 c8 d8 bb 4b e5 0a bf a4 61 f5 be
       -0.2586987 -0.0066156564 -0.54256123 -0.47926056
0002c0 92 24 cc be 50 36 46 3e 39 93 c8 3d 04 78 81 bd
       -0.3987165 0.19356656 0.097937055 -0.06321719
0002d0 84 20 59 be 86 03 f5 3c b7 d2 e8 be 6a 9a c8 be
       -0.2120381 0.029908907 -0.45473263 -0.3918031
0002e0 4b 32 b2 be c9 fb 94 3e 0c bd 24 3f ea fe bd bd
       -0.34803995 0.29098347 0.6435096 -0.092771366
0002f0 e4 0f 3e bc 65 a0 d4 3c 73 01 a8 3e 54 99 07 3e
       -0.011600468 0.025955388 0.32813606 0.13242084
000300 e2 f4 ca 3e ba 46 b3 be d2 4b 8a bd 7c eb c2 bd
       0.39639956 -0.35014898 -0.06752743 -0.09517571
000310 62 bf 65 bd 27 7d 1c 3a ad e3 bf bd b6 4c e1 be
       -0.05609072 0.0005969577 -0.093695976 -0.44003838
000320 88 a2 e5 3e d9 20 b6 bd 3c e3 dc 3e 78 82 20 be
       0.44850564 -0.08892984 0.43142116 -0.1567477
000330 83 81 f3 bb 76 44 f2 bd 9b cd 7e be f3 a6 0c be
       -0.0074312105 -0.11829464 -0.2488312 -0.13735561
000340 56 0d 07 3f 7d e9 60 be a4 f3 90 3e d1 fb 9f be
       0.52754724 -0.21964069 0.28310883 -0.31246808
000350 df f7 bb 3e 26 96 d3 be 1b 8f 78 be 6d c6 b5 3e
       0.36712548 -0.41325492 -0.2427334 0.3550295
000360 b2 b2 e3 3c 25 a3 8a be 66 45 b3 3e 73 1e a0 be
       0.02779517 -0.27077594 0.35013884 -0.3127323
000370 29 6d cb 3e 98 e7 5a 3e 78 a4 91 be b2 a3 c7 bc
       0.3973172 0.21377409 -0.28445792 -0.024370048
000380 71 ce e2 3e 90 41 2c 3e 5b 37 97 be 23 fb 11 bf
       0.44298127 0.16821885 -0.2953442 -0.5702383
000390 45 46 02 3e 2e 1b 16 be 64 a6 3c 3e 18 7a a8 be
       0.12722118 -0.14658806 0.18422848 -0.3290565
0003a0 8a 65 be bd 5f 8d 1a be 5f b1 67 3e 97 ec aa 3e
       -0.09296711 -0.15092991 0.22626255 0.3338363
0003b0 25 73 65 3e e4 d0 c5 3e 23 b7 fc 3e 24 cd 0e 3e
       0.22407205 0.38635933 0.49358472 0.13945442
0003c0 a4 e6 04 3e e8 ff a1 3e 4a 77 4b be 96 e3 c7 be
       0.12978607 0.31640553 -0.19869724 -0.39040822
0003d0 16 2e 9b 3e cd 7d b2 3d fc 71 b7 be 51 7c a0 be
       0.30308598 0.08715401 -0.3582915 -0.31344846
0003e0 29 89 11 bf d8 d3 8f 3e 86 32 9f be 94 ae 80 bc
       -0.56849915 0.2809131 -0.31093234 -0.015708245
0003f0 63 04 94 be 68 0a 33 be 6d 8e e3 bd 46 d0 20 be
       -0.28909597 -0.17484438 -0.1111115 -0.1570445

fc_layers.2.bias f4 [10]
000000 ee 92 bb bd 0c 11 2b 3d c5 80 21 3e aa 85 b4 bd
       -0.09158884 0.041764304 0.15771778 -0.08814557
000010 f9 a5 aa bd 00 10 26 3e 4c 44 02 be b7 1d a6 3d
       -0.08332438 0.16217041 -0.12721366 0.081111364
000020 8c 59 dd bd b0 1d 05 be
       -0.10808095 -0.12999606
