trained_lenet5.pt (torch, 249991 bytes, 10 tensors)

conv_layers.0.weight f4 [6, 1, 5, 5]
0	0x3d93a38d	0.07208929
1	0x3e888e68	0.26671147
2	0x3ef78f32	0.48351437
3	0x3eb607f6	0.3555295
4	0x3e945a3f	0.28975102
5	0x3e13d2f4	0.14435941
6	0x3eb28809	0.34869412
7	0x3eaa8b9a	0.33309633
8	0x3ecb2907	0.3967974
9	0x3ca8c8af	0.020603506
10	0x3e9b83a4	0.3037387
11	0x3ecf698f	0.40510222
12	0x3e1231dd	0.14276834
13	0x3d7f41b5	0.062318522
14	0xbdf30ace	-0.11867295
15	0x3daf6b04	0.085653335
16	0x3dcff41c	0.10153982
17	0x3e00f8cb	0.12594907
18	0xbe1cb1b6	-0.15302166
19	0xbeb55201	-0.35414127
20	0xbe63f46a	-0.22261205
21	0xbdfa07ef	-0.122085445
22	0xbdb564f4	-0.08857146
23	0xbef3304f	-0.47497794
24	0xbf0d2d75	-0.55147487
25	0xbe608a77	-0.2192782
26	0xbe8a9480	-0.27066422
27	0xbe287a5d	-0.16452928
28	0xbe90fbf5	-0.28317228
29	0xbeb67511	-0.3563619
30	0xbe3d60b1	-0.18493916
31	0xbdb50551	-0.08838905
32	0xbe93451f	-0.28763673
33	0xbdc1c42f	-0.09461247
34	0xbe0d9cce	-0.13829347
35	0xbe634efc	-0.22198099
36	0xbdfb49ec	-0.12269959
37	0xbde59d62	-0.11211659
38	0xbe697a13	-0.22800474
39	0xbe92c21e	-0.28663725
40	0xbe6232ff	-0.22089766
41	0xbe68fe3c	-0.22753233
42	0xbeb7c385	-0.35891357
43	0xbe93c2ad	-0.28859463
44	0xbea2e014	-0.31811583
45	0xbe8c82d8	-0.27443576
46	0xbdd494df	-0.103799574
47	0xbea62ee3	-0.32457647
48	0xbe25ae0e	-0.16179678
49	0xbdd9f65d	-0.10642693
50	0xbe6eda72	-0.23325518
51	0xbeb1799a	-0.34663087
52	0xbe8e08fe	-0.27741235
53	0xbe810341	-0.25197795
54	0xbe74dbc0	-0.23911953
55	0xbe391dc0	-0.18077755
56	0xbd897c0e	-0.06713115
57	0xbeac78eb	-0.33686003
58	0xbebb6d0d	-0.36606637
59	0xbec1a6f5	-0.3782269
60	0xbdd8e773	-0.105910204
61	0xbe18a650	-0.14907193
62	0xbcfeb8ce	-0.031093981
63	0xbcd44341	-0.025910975
64	0xbe1f619c	-0.15564579
65	0xbdd8e53e	-0.105905995
66	0xbd525773	-0.05135293
67	0xbe3c8a87	-0.18412219
68	0x3e08e21f	0.13367508
69	0x3e458ddd	0.19292398
70	0x3e1ba51c	0.15199703
71	0xbd89e1df	-0.067325346
72	0x3dd44f1c	0.103666514
73	0x3c4fe956	0.012689909
74	0x3ea1657e	0.31522745
75	0xbeee5501	-0.46549228
76	0xbee75f58	-0.4518993
77	0xbe9441a2	-0.28956324
78	0xbe6304e8	-0.2216984
79	0xbe5063bc	-0.20350546
80	0xbea77592	-0.32706887
81	0xbe9ddca9	-0.30832413
82	0xbe8799ca	-0.2648452
83	0xbdb8b249	-0.0901838
84	0xbdd8d982	-0.10588361
85	0xbeae2e8c	-0.34019887
86	0xbdf79a3a	-0.12089963
87	0x3cc2447a	0.023714293
88	0x3e1683f1	0.14698769
89	0xbc2bffbd	-0.0104979845
90	0x3d816c3a	0.06319471
91	0xbd588196	-0.052857958
92	0x3e0d7050	0.13812375
93	0x3eb380e1	0.35059264
94	0x3e8e5a11	0.2780309
95	0x3e2d0adc	0.16898674
96	0x3d9a8831	0.07545508
97	0x3edb8334	0.42873538
98	0x3ecfdece	0.40599674
99	0x3eef2211	0.46705678
100	0x3ea22055	0.31665292
101	0x3d61abdc	0.05509554
102	0x3dbfff8a	0.09374912
103	0x3e146737	0.14492498
104	0x3e8d7809	0.27630642
105	0xbe166d61	-0.14690162
106	0xbc86d497	-0.016458793
107	0x3ca27d8f	0.019835262
108	0xbe90c13f	-0.28272435
109	0xbc4657e7	-0.0121059185
110	0xbe842d7f	-0.2581596
111	0xbec29984	-0.38007748
112	0xbe6a546a	-0.22883764
113	0xbd9c8d97	-0.076441936
114	0xbea3fabc	-0.32027233
115	0xbdb5f6ac	-0.088849396
116	0xbeb73543	-0.35782823
117	0xbe92559a	-0.28580934
118	0xbeb5f2b7	-0.3553674
119	0xbe8b5d88	-0.27219796
120	0xbdda2c98	-0.10653037
121	0xbe1a6940	-0.15079212
122	0xbd48430b	-0.048892062
123	0x3db03664	0.08604124
124	0xbe05231d	-0.13001676
125	0xbd79602d	-0.060882736
126	0x3e1a4920	0.15066957
127	0x3eb556a3	0.3541766
128	0x3eedb6db	0.4642857
129	0x3eb1aea7	0.34703562
130	0xbd7f4cfd	-0.06232928
131	0x3de66b53	0.11250939
132	0x3eb76344	0.3581792
133	0x3ee8444c	0.45364606
134	0x3e221471	0.1582811
135	0xbdc603f2	-0.09668721
136	0x3c9a4f12	0.018836532
137	0x3def427d	0.116826035
138	0x3e75b73a	0.23995677
139	0x3ea25bcf	0.3171067
140	0xbe9ec048	-0.31006074
141	0x3bd4e8fc	0.0064975005
142	0x3e2a30f7	0.16620241
143	0x3d7954a3	0.06087173
144	0xbe7c9860	-0.24667501
145	0xbea4ef8a	-0.32214004
146	0xbe6e22ee	-0.23255512
147	0xbe9a7460	-0.30166912
148	0xbe8f19dd	-0.2794942
149	0xbe5321ba	-0.20618334

conv_layers.0.bias f4 [6]
0	0xbe9bf80f	-0.3046269
1	0x3e7a3c88	0.24437153
2	0x3dd6f7aa	0.10496457
3	0x3e9f0fbb	0.3106669
4	0x3ec7ed28	0.39048123
5	0xbe99363a	-0.29924184

conv_layers.3.weight f4 [16, 6, 5, 5]
0	0x3cfd8fbc	0.030952327
1	0xbd341726	-0.04396739
2	0x3d6e3ced	0.058163572
3	0x3d847962	0.064684644
4	0x3e1997e3	0.14999346
5	0xbc9ef230	-0.019402593
6	0x3da3718a	0.0798064
7	0x3d178748	0.03699425
8	0x3e3eeaac	0.18644208
9	0x3e5dbb76	0.21653542
10	0x3d71bc31	0.059017364
11	0x3e4be3e1	0.19911148
12	0x3e161e43	0.14659981
13	0x3cea4030	0.02859506
14	0x3ddfbd44	0.109247714
15	0x3dfc66db	0.123243056
16	0x3decfa4f	0.1157118
17	0xbb4023b3	-0.0029318153
18	0xbdc7bc8a	-0.09752758
19	0xbd83bb07	-0.06432157
20	0xbc947af1	-0.01812503
21	0xbdc79536	-0.097452566
22	0xbe0dc0cb	-0.13843076
23	0xbcfd31fb	-0.030907622
24	0x3d5bd0c4	0.05366589
25	0xbd85cdd9	-0.06533403
26	0xbc6f2b0e	-0.014597667
27	0xbd7fbc9c	-0.06243573
28	0x3ae367e0	0.0017349683
29	0xbe0c580b	-0.1370546
30	0xbb6c3d18	-0.0036047157
31	0xbce07274	-0.027398326
32	0xbda7a198	-0.081851184
33	0xbe258487	-0.16163836
34	0xbd974e8d	-0.07388029
35	0xbdb75f14	-0.089536816
36	0xbcf3c7e8	-0.029758409
37	0xbccdc6df	-0.025119243
38	0x3c8a2306	0.016862404
39	0x3d329a9d	0.043604482
40	0x3da2a35f	0.07941317
41	0x3dc05915	0.09391991
42	0xbc4c932b	-0.012486259
43	0xbc4b6154	-0.012413342
44	0xbce2e6e5	-0.02769799
45	0x3e3db586	0.18526277
46	0x3e46a7b5	0.19399913
47	0x3e25fe53	0.16210298
48	0x3dd13837	0.102158
49	0x3dd102a5	0.102055825
50	0xbcf28cde	-0.029608186
51	0x3d6dd352	0.05806286
52	0x3c8338fb	0.016018381
53	0x3d06a824	0.032875195
54	0xbdab500f	-0.08364879
55	0xbcef287e	-0.029194113
56	0x3c8b5cff	0.017012117
57	0xbcc93565	-0.024561593
58	0xbd2d9896	-0.042381845
59	0xbe1c578f	-0.15267776
60	0xbd27aa11	-0.040933672
61	0xbe1b1003	-0.15142827
62	0xbe1d0470	-0.15333724
63	0x3c269d86	0.010169392
64	0xbdc9c0e5	-0.09851245
65	0x3bdad18c	0.006677812
66	0xbdd06a32	-0.10176505
67	0xbdbaa428	-0.091133416
68	0x3cb0a09a	0.021560956
69	0xbd41c567	-0.0473074
70	0x3e0a17c8	0.13485634
71	0x3e1d038b	0.15333383
72	0x3dc693fb	0.09696194
73	0x3cecba93	0.02889756
74	0xbd39ac1f	-0.045330163
75	0xbceb9b48	-0.028760567
76	0x3d9dbeb6	0.07702391
77	0x3d6712f9	0.056414578
78	0xbd8a5130	-0.067537665
79	0xbb94ea30	-0.004544519
80	0xbd0e0f40	-0.034682512
81	0x3d97c28d	0.074101545
82	0xbc17aecc	-0.009257983
83	0xbe2387bb	-0.15969746
84	0xbd8e2292	-0.069401875
85	0xbda36f83	-0.079802535
86	0xbd8c4499	-0.068490215
87	0xbe7cd37d	-0.24690051
88	0xbda93f65	-0.08264045
89	0xbd33d4c5	-0.043904085
90	0xbe510dd1	-0.20415427
91	0xbdc3a8f4	-0.095537096
92	0xbd53923e	-0.05165314
93	0xbda61ee8	-0.08111364
94	0x3d9e49ed	0.07728944
95	0x3d981f7e	0.07427882
96	0x3d9eacfb	0.07747837
97	0x3c50cc60	0.012744039
98	0x3cc71d96	0.0243061
99	0x3d3f7819	0.046745393
100	0x3c23eac6	0.010004705
101	0xbd835528	-0.06412727
102	0xbcc95a9a	-0.024579335
103	0xbced38e5	-0.028957793
104	0xbdcbfeb7	-0.099606924
105	0xbd92f60b	-0.07175835
106	0xbe127ddc	-0.14305824
107	0xbd500c78	-0.05079314
108	0xbd6781bf	-0.05652022
109	0xbdb37f23	-0.08764484
110	0xbd53a68f	-0.051672515
111	0xbd8d7aae	-0.06908165
112	0x3cf1b82a	0.029506762
113	0xbd3e9353	-0.046527218
114	0xbce8c406	-0.028413784
115	0x3e62364e	0.22091028
116	0x3e0216ea	0.12704054
117	0x3db6f0ff	0.08932685
118	0x3d195c2e	0.037441425
119	0xbd30e1e3	-0.043184172
120	0x3e6d0ad6	0.23148665
121	0x3e4b473f	0.19851397
122	0x3e06aa16	0.1315082
123	0x3de322a5	0.11090592
124	0x3da1f488	0.07907969
125	0x3c16039b	0.009156133
126	0xbd4a4b35	-0.04938813
127	0xbd004684	-0.03131725
128	0x3db4c518	0.08826655
129	0x3da3ed3e	0.08004235
130	0x3d772c22	0.060344823
131	0x3cb576c4	0.022151358
132	0x3df21b36	0.11821596
133	0x3cb8c09d	0.022552783
134	0x3e4028e4	0.18765599
135	0x3e35727e	0.17719457
136	0x3dc85b16	0.09782998
137	0x3e4b9d0c	0.19884127
138	0x3e111240	0.14167118
139	0xbcaa5ee5	-0.020797202
140	0x3e0f0a0e	0.1396868
141	0x3cd4e2c5	0.025987038
142	0x3df5545c	0.11978981
143	0x3c73c182	0.014877679
144	0x3ac196d3	0.001476968
145	0xbd8435e8	-0.06455594
146	0xbe348c0b	-0.17631547
147	0xbe32c341	-0.17457296
148	0xbd8f1ba5	-0.06987695
149	0x3ddc1e4f	0.107479684
150	0xbbedf430	-0.0072617754
151	0x3c6e85e3	0.014558288
152	0xbc1b1a06	-0.009466654
153	0x3d9a310e	0.07528888
154	0x3dbb9de1	0.091609724
155	0x3d8c3270	0.06845558
156	0x3dcfc835	0.10145608
157	0x3dbbab8f	0.091635816
158	0x3de242d8	0.11047906
159	0x3ca74536	0.020418745
160	0x3dd98811	0.10621656
161	0x3e364a59	0.17801799
162	0x3d9f98dd	0.07792828
163	0x3db6a927	0.08918982
164	0x3e01d0f6	0.12677369
165	0x3c1f1c0a	0.009711275
166	0xbcd60057	-0.026123209
167	0xbdb45f05	-0.08807186
168	0xbe270a17	-0.16312443
169	0x3d07e4e3	0.033177268
170	0xbde310c2	-0.11087181
171	0xbd899f70	-0.067198634
172	0xbe3ccd37	-0.18437658
173	0xbd3de9d9	-0.046365593
174	0x3d544081	0.05181933
175	0xbe093809	-0.13400282
176	0xbdd4c12c	-0.10388407
177	0xbdcf6f9c	-0.1012871
178	0xbd83fd85	-0.064448394
179	0xbe1e3403	-0.15449528
180	0xbda48c39	-0.08034558
181	0xbde5fb76	-0.11229603
182	0x3cf5dbab	0.030011972
183	0xbc63526c	-0.013874631
184	0xbd894232	-0.06702079
185	0x3cbd1454	0.023080982
186	0x3c7ff0b4	0.015621353
187	0x3ddf3878	0.108994424
188	0x3cdc02e1	0.026856842
189	0xbdb55f6d	-0.08856092
190	0x3dc95845	0.09831289
191	0x3d81b9cc	0.06334266
192	0x3da16cb5	0.07882062
193	0x3d69eee2	0.057112582
194	0xbbaa4713	-0.005196461
195	0x3dbc74e0	0.0920198
196	0x3db4f781	0.0883627
197	0x3dd0061f	0.101574175
198	0x3df06f5b	0.11739989
199	0x3deff186	0.11715989
200	0xbd4a2c88	-0.049358875
201	0xbd8f4b7e	-0.06996821
202	0x3d8322ad	0.06403098
203	0xbd729c57	-0.05923113
204	0xbd464465	-0.04840507
205	0x3cd01120	0.02539879
206	0xbd6e0313	-0.0581084
207	0xbc3a9460	-0.011387914
208	0xbcc1ff52	-0.023681317
209	0xbe096143	-0.13416009
210	0xbde523e3	-0.111884855
211	0xbd0762fb	-0.03305338
212	0xbddcc1fb	-0.10779186
213	0xbd9b947f	-0.07596683
214	0xbd44e55e	-0.048070304
215	0x3e12f1b9	0.14350022
216	0x3e28dcf5	0.16490538
217	0x3d3fda72	0.046839185
218	0x3de766d9	0.112989135
219	0x3d895bd7	0.0670697
220	0x3e05a1d2	0.13050011
221	0x3e3f4be1	0.1868129
222	0x3e52be2f	0.20580362
223	0x3d7c33db	0.06157289
224	0x3d625fa6	0.055267
225	0xbd62df48	-0.05538872
226	0xbd563e89	-0.052305732
227	0xbdba9119	-0.091097064
228	0xbbfef89b	-0.007781101
229	0xbd07f5b9	-0.033193324
230	0x3d00ab35	0.031413276
231	0xbd2300d8	-0.039795727
232	0xbd688fcc	-0.05677776
233	0xbc867bcb	-0.016416451
234	0xbd1ad4ac	-0.037800476
235	0xbe3fca70	-0.18729568
236	0xbe1ebc92	-0.15501621
237	0xbe1aaa62	-0.15104058
238	0xbe37c96f	-0.17947935
239	0xbe228226	-0.1586996
240	0xbd34ff2b	-0.04418866
241	0x3bc7cec6	0.0060976474
242	0x3d06236d	0.03274863
243	0xbcee7f2e	-0.029113378
244	0x3d47f4e9	0.04881755
245	0x3e6bccf3	0.230274
246	0x3e3cb015	0.18426545
247	0x3e1b0de8	0.15142024
248	0x3d80824c	0.06274852
249	0x3d1e222d	0.03860681
250	0xbd530807	-0.051521327
251	0xbdfe5016	-0.12417619
252	0xbdf70f30	-0.12063444
253	0xbd8bfdf1	-0.06835545
254	0xbdb7a7ad	-0.089675285
255	0xbd609988	-0.05483392

conv_layers.3.bias f4 [16]
0	0x3c61b011	0.013774888
1	0xbcba9a0b	-0.022778532
2	0x3d93ea0d	0.07222376
3	0xbd94edea	-0.07271941
4	0x3e404717	0.18777119
5	0x3e00d5b5	0.12581523
6	0xbdbc0ab7	-0.09181731
7	0xbdb4a85e	-0.08821176
8	0x3e40e561	0.18837501
9	0xbdbe1226	-0.09280805
10	0xbdb8ea26	-0.09029035
11	0x3ccce4e5	0.02501149
12	0x3d832025	0.064026155
13	0xbd79623c	-0.0608847
14	0xbdbccfaa	-0.09219296
15	0x3ca20c75	0.01978133

conv_layers.6.weight f4 [120, 16, 5, 5]
0	0xbaaf1e10	-0.00133604
1	0x3d42aafa	0.047526337
2	0x3d954437	0.072884016
3	0x3d8bfe8d	0.06835661
4	0xbc5e70ce	-0.013576699
5	0xba8251dd	-0.000994261
6	0x3d37f4c2	0.044911154
7	0x3bf29992	0.007403561
8	0xbc99859a	-0.018740464
9	0x3d1aa5a1	0.037755612
10	0x3cd6de24	0.026228972
11	0x3c3050ba	0.010761434
12	0xbcd70914	-0.026249446
13	0x3d243808	0.040092498
14	0x3c854e47	0.016272677
15	0x3d5ecae9	0.05439273
16	0x3ca534d9	0.020166801
17	0x3d0d99ae	0.03457039
18	0x3ca0d497	0.01963262
19	0x3c25f3f3	0.010128963
20	0x3ca2eaec	0.01988741
21	0xbcae43d2	-0.021272574
22	0x3c99b209	0.018761652
23	0xbd363f7a	-0.04449413
24	0x3c8e7a6e	0.017392363
25	0xbc6a8b8b	-0.014315496
26	0x3b56bae6	0.0032765209
27	0x3dbb86ad	0.09156547
28	0x3d7c1ad2	0.061549015
29	0xbd85618b	-0.065127455
30	0xbd4fa346	-0.05069282
31	0x3d625d97	0.055265035
32	0x3bb54c89	0.0055328053
33	0x3d208c2c	0.03919618
34	0x3b25fa02	0.0025326018
35	0xbd031e38	-0.03201124
36	0x3bbfacbd	0.0058494494
37	0xbd0b9931	-0.03408164
38	0x39feccb0	0.0004859916
39	0x3d0714a9	0.032978687
40	0xbc3438bb	-0.010999854
41	0xbcca1f36	-0.024673086
42	0xbd486b2d	-0.048930336
43	0xbc2dd7c0	-0.010610521
44	0x3d43c219	0.047792528
45	0xbc57a56f	-0.013162001
46	0x3b7af7d7	0.0038294697
47	0x3b8b2758	0.0042466335
48	0x3c2d934c	0.0105942
49	0xbad59f52	-0.0016298092
50	0xba01d16e	-0.0004952167
51	0xbce96714	-0.028491534
52	0x3b0ba3b1	0.0021307284
53	0xbd740079	-0.059570763
54	0x3d1bf269	0.038072977
55	0x3d28c8db	0.041207176
56	0x3d1784df	0.03699195
57	0xbd88aab2	-0.066731825
58	0xbd0daf3a	-0.034590937
59	0x3d813541	0.063089855
60	0xbcefb331	-0.02926025
61	0xbc078969	-0.008272507
62	0x3d31354e	0.043263726
63	0xbcc6e69f	-0.02427989
64	0xbcc72210	-0.024308234
65	0xbce3f44e	-0.027826454
66	0xbd64dfcb	-0.055877488
67	0x3d304132	0.043030925
68	0x3cb299e1	0.02180189
69	0xbd8c431e	-0.06848739
70	0x3ce278b7	0.027645452
71	0x3d637bda	0.055538036
72	0x3c194e06	0.009356981
73	0x3a8ebfa1	0.001089085
74	0x3ce8ad1f	0.028402863
75	0xbd600a15	-0.054697115
76	0x3c9b1146	0.018929135
77	0xbb433380	-0.0029785335
78	0x3d804010	0.06262219
79	0xbbe26cc1	-0.006909937
80	0xbc319f71	-0.010841236
81	0xbd88d85c	-0.06681892
82	0xbcecc36c	-0.028901778
83	0x3d284fda	0.041091777
84	0x3d5d3c0c	0.054012343
85	0xbd3ced49	-0.04612473
86	0x3d2584b5	0.040409762
87	0xbce2477a	-0.027621973
88	0x3cf94761	0.030429544
89	0xbd3db7b9	-0.04631779
90	0x3c1ac7d9	0.009447061
91	0xbd0d6afc	-0.034525856
92	0xbc9093a3	-0.017648524
93	0xbd01366f	-0.031546053
94	0x3abd47a0	0.0014440902
95	0xbd208cb9	-0.039196704
96	0x3c7f6ede	0.015590398
97	0x3bcf1e50	0.006320752
98	0xbd2208bf	-0.039559122
99	0xbc084fd4	-0.008319814
100	0x3d2e6a5f	0.042581912
101	0xbd522a85	-0.05131008
102	0xbc8b8c43	-0.017034655
103	0xbd09c5cf	-0.03363591
104	0xbce9ba8b	-0.028531333
105	0xbd1bbe33	-0.038023185
106	0x3bc21b90	0.005923696
107	0x3d3e6a6a	0.046488203
108	0xbc415925	-0.011801039
109	0xbbd512db	-0.006502492
110	0x3c650cfc	0.0139801465
111	0xbd7f2847	-0.06229427
112	0xbd647f6e	-0.05578559
113	0x3cfbca36	0.03073607
114	0xb93de2de	-0.00018108959
115	0x3d207de1	0.039182547
116	0xbd2cfca3	-0.04223312
117	0xbc601fce	-0.013679458
118	0x3d388c25	0.045055527
119	0xbb6ef2a2	-0.0036460538
120	0xbc9b26b6	-0.018939357
121	0xbd0c4df2	-0.034254022
122	0xbc9836cd	-0.018580819
123	0x3d38f519	0.04515562
124	0x3cb2b45d	0.02181452
125	0xbc59c60f	-0.01329185
126	0xbd576901	-0.052590374
127	0x3cd0eb90	0.02550295
128	0x3db897b1	0.09013308
129	0x3d7ecd33	0.062207412
130	0x3cac2cc4	0.02101744
131	0x3d258b5e	0.040416114
132	0xba7a417c	-0.0009546501
133	0x3d42e6b1	0.047583286
134	0x3ccabb7c	0.024747603
135	0x3d1ceafd	0.03831004
136	0xbcadac19	-0.021200227
137	0x3b1affce	0.0023651007
138	0xbcb261ef	-0.021775214
139	0xbcb263ad	-0.021776045
140	0xbc0ad63e	-0.008473931
141	0xbc999a26	-0.018750262
142	0x3c3fe599	0.011712455
143	0x3c66f552	0.014096575
144	0xbd0a2580	-0.03372717
145	0x3ce8b366	0.028405856
146	0x3cfb8fdc	0.030708246
147	0x3d84d771	0.06486405
148	0x3a80b380	0.000981912
149	0x3d2cbedb	0.0421742
150	0xbd511ffd	-0.051055897
151	0x3c46dcde	0.01213762
152	0x3be8de1d	0.007106556
153	0x3da3b1f1	0.07992924
154	0x3a9a0b62	0.001175266
155	0xbd28cae0	-0.0412091
156	0x3d406a80	0.046976566
157	0x3d2ca6a5	0.042151112
158	0x3d88cb7e	0.06679438
159	0x3d2e623a	0.042574145
160	0xbc8bcc1a	-0.017065097
161	0x3ccbfb17	0.024900002
162	0x3d1ef1c3	0.03880478
163	0x3d8284fc	0.06373021
164	0x3db8830a	0.09009369
165	0xbc5072fe	-0.012722729
166	0x3bd624c3	0.006535144
167	0x3cf92dcd	0.030417347
168	0x3d5c409c	0.053772554
169	0x3bbda326	0.005787271
170	0x3ccc961b	0.02497392
171	0xbd332dc2	-0.04374481
172	0x3d2f30a7	0.042771008
173	0xbd8d04f3	-0.068857096
174	0xbd4cc980	-0.049996853
175	0x3cb09218	0.021554038
176	0x3c236c1d	0.009974507
177	0x3cac7034	0.021049596
178	0xbd79de45	-0.06100299
179	0xbcffdbbd	-0.031232709
180	0xbb873aa7	-0.004126865
181	0xbd1be1aa	-0.038057007
182	0xbcdd493c	-0.02701246
183	0xbc0d9f24	-0.008643899
184	0x3d002e0c	0.031293914
185	0x3d2c3efb	0.04205225
186	0x3c903298	0.01760225
187	0xbd9b760a	-0.075908735
188	0x388e4084	6.7831046e-05
189	0x3ced06a7	0.028933836
190	0x3bd3fc3a	0.0064692767
191	0xbceba692	-0.02876595
192	0x3d2128ab	0.039345425
193	0xbcd5295f	-0.026020704
194	0xbd21ab87	-0.03947022
195	0x3d0ef29b	0.034899335
196	0x3d84162a	0.0644954
197	0x3d8cbc40	0.06871843
198	0x3d3256dd	0.04353987
199	0xbc16596d	-0.009176594
200	0x3c92d156	0.017922085
201	0xbc988a08	-0.018620506
202	0xbc863f82	-0.016387705
203	0xbc87ac1d	-0.016561562
204	0xbd45c737	-0.04828569
205	0xbc7c8c1b	-0.015414263
206	0xbce40ffc	-0.027839653
207	0x3c50aabb	0.012736018
208	0x3d7a640e	0.061130576
209	0xbcc0d3eb	-0.02353855
210	0xbcee53d2	-0.029092703
211	0xbd7f404c	-0.062317178
212	0xbbe44332	-0.006966018
213	0xbcf0fad2	-0.029416475
214	0xbba08166	-0.004898238
215	0xbc5ec0c6	-0.013595765
216	0x3d11f174	0.03563066
217	0x3cfbee02	0.03075314
218	0xbd47b3c4	-0.048755422
219	0x3b4d400d	0.0031318695
220	0xbd150cc8	-0.036389142
221	0xbbf10d00	-0.007356286
222	0xbc852d0c	-0.016256832
223	0x3d0bcc00	0.034130096
224	0xbc868093	-0.01641873
225	0xbc94517b	-0.01810526
226	0x3cf3a019	0.029739426
227	0xbd38223c	-0.044954523
228	0x3c16c13a	0.009201342
229	0x3ca20bc2	0.019780997
230	0xbc36e09d	-0.01116195
231	0xbd2aaedb	-0.04167066
232	0x3b959c46	0.0045657484
233	0xbc3b5826	-0.01143459
234	0xbb37072d	-0.002792786
235	0xbc459198	-0.012058638
236	0x3d74399d	0.059625257
237	0x3d3cbbda	0.046077587
238	0xbd8493b2	-0.06473483
239	0xbdd2c9ed	-0.102924205
240	0xbd66f02c	-0.05638139
241	0x3c68f606	0.014218813
242	0xbce36efd	-0.027762884
243	0xbcb862b3	-0.022508001
244	0x3d18c274	0.03729482
245	0xbd885ab3	-0.066579245
246	0xbcef8a00	-0.029240608
247	0x3c8bdc11	0.01707271
248	0xbd543757	-0.05181059
249	0x3d4120d8	0.047150463
250	0xbcbea23e	-0.023270722
251	0xbca836c5	-0.020533929
252	0xbc3de66a	-0.0115905795
253	0xbd355778	-0.04427287
254	0x3c0904dc	0.008362975
255	0x3d20ef16	0.03929051

conv_layers.6.bias f4 [120]
0	0xbd9c5149	-0.076326914
1	0x3aef90b8	0.0018277382
2	0xbb932064	-0.0044899452
3	0x3caac5a5	0.020846197
4	0xbd1c34d1	-0.038136307
5	0x3c6d4d2e	0.014483733
6	0x3b1d1b24	0.0023972476
7	0xbcde37da	-0.027126241
8	0xbd880e6d	-0.066433765
9	0x3d2afa1e	0.041742437
10	0xbc274732	-0.010209845
11	0x3db5cf21	0.08877397
12	0x3b8d1174	0.004305059
13	0x3d400e0f	0.046888407
14	0xbc432574	-0.011910785
15	0x3baea51b	0.0053297407
16	0x3b455065	0.0030107733
17	0xbb7d8315	-0.0038682867
18	0xbd000e8b	-0.03126387
19	0xbd882516	-0.066476986
20	0xbd2305cd	-0.039800454
21	0xbc40875d	-0.011751023
22	0x3d619c74	0.055080846
23	0xbc3173a3	-0.010830793
24	0x3c569514	0.013097066
25	0xbd00498b	-0.031320136
26	0xbdaa4b69	-0.083151646
27	0x3cb50814	0.022098579
28	0xbc35fddc	-0.011107888
29	0x3c066b9e	0.008204369
30	0xbcd7c57e	-0.026339289
31	0x3d115eda	0.035490848
32	0xb94ddd28	-0.0001963271
33	0xbc11a1f6	-0.008888712
34	0x3dce8d07	0.100854926
35	0xbce7d8e3	-0.028301662
36	0x3d84830c	0.06470308
37	0xbc88c80a	-0.016696949
38	0xbc9c0db9	-0.019049512
39	0x3c9344c2	0.017977122
40	0x3d0fe86c	0.035133764
41	0xbb687b6e	-0.003547396
42	0xbd377ebd	-0.0447986
43	0x3d4f705c	0.050644264
44	0x3d34ed84	0.044171825
45	0x3d4c78d2	0.04991991
46	0xbabfd504	-0.0014635627
47	0x3ccf9c4a	0.02534308
48	0xbd8ee89f	-0.06977963
49	0x3db85215	0.09000031
50	0x3d974c6d	0.07387624
51	0x3d862331	0.06549681
52	0x3d031daa	0.03201071
53	0xbc756eb8	-0.014980011
54	0x3b0d844a	0.0021593743
55	0xbcaebde8	-0.021330789
56	0xbc7d9f37	-0.015479854
57	0xbdb415e5	-0.087932386
58	0x3da98ca3	0.082787775
59	0xbd06d4ae	-0.03291767
60	0x3ce0f61d	0.027461106
61	0x3c9528cf	0.018207936
62	0xbca60d4a	-0.020270009
63	0xbd84e95b	-0.064898215
64	0x3bb501d3	0.005523899
65	0x3d0b79da	0.034051754
66	0xbd455ad5	-0.048182327
67	0xbcd0e852	-0.025501404
68	0x3bf87dcb	0.007583355
69	0xbc72584f	-0.014791562
70	0xbd42a969	-0.047524843
71	0x3cdd5dc8	0.027022257
72	0x3d025a72	0.031824537
73	0xbc925676	-0.017863493
74	0xbd78a28e	-0.0607019
75	0xbb4c026c	-0.0031129373
76	0x3d1e9721	0.038718347
77	0x3d0f3589	0.034963164
78	0xbc1a047d	-0.009400484
79	0x3cdd29e3	0.026997512
80	0xbccbd246	-0.02488054
81	0x3c5cb8b5	0.013471772
82	0x3d0ec404	0.034854904
83	0x3b50404f	0.0031776612
84	0xbd6cb932	-0.057793804
85	0xbc308dd7	-0.010776005
86	0x3cdc354a	0.026880879
87	0x3cbab384	0.022790678
88	0xbb930ba7	-0.004487473
89	0xbc00caaf	-0.007860824
90	0x3b693303	0.0035583384
91	0x3d400988	0.04688409
92	0xbd723735	-0.05913468
93	0x3de3e243	0.111271404
94	0xbcf4ea2d	-0.02989682
95	0xbb95e78f	-0.004574723
96	0x3d05000d	0.03247075
97	0xbcc11bcb	-0.023572823
98	0xbc323c17	-0.010878584
99	0x3d656261	0.056002025
100	0xbc3a0caf	-0.011355563
101	0xbd1cc0b7	-0.038269725
102	0xbcb42fae	-0.021995392
103	0xbdadd7d0	-0.084884286
104	0xbd493288	-0.049120456
105	0x3d598e71	0.05311436
106	0xb945eaf1	-0.00018874907
107	0x3d65660c	0.056005523
108	0x3cddaa1c	0.027058654
109	0x3ce98a46	0.028508317
110	0x3a3fcb04	0.00073163235
111	0x3cca12ce	0.02466717
112	0x3bf0f4b1	0.0073533882
113	0x3d558291	0.05212647
114	0x3c145e4e	0.009055687
115	0x3d3e2d8f	0.046430167
116	0x3c615b85	0.01375473
117	0xbd1cf864	-0.03832282
118	0x3d2dac44	0.042400613
119	0x3d2ed1fc	0.042680725

fc_layers.0.weight f4 [84, 120]
0	0xbda1fb79	-0.07909293
1	0xbdde83e4	-0.10865
2	0x3e04bbce	0.12962267
3	0x3db68a68	0.08913118
4	0xbd7a6e12	-0.061140127
5	0x3c93439b	0.017976573
6	0xbda28c08	-0.07936865
7	0xbc9c14aa	-0.019052822
8	0xbdd97011	-0.10617078
9	0x3df3263b	0.11872526
10	0xbd8d3813	-0.06895461
11	0xbde10ee1	-0.10989166
12	0xbd91e01e	-0.07122825
13	0xbc93fe70	-0.018065661
14	0x3d2b7057	0.041855182
15	0x3d9afa3f	0.07567262
16	0x3d891ecc	0.06695327
17	0xbd7feee3	-0.06248368
18	0xbdb33c28	-0.08751708
19	0xbdac3b6d	-0.08409772
20	0xbdcda46f	-0.10041129
21	0xbde0a489	-0.109688826
22	0x3da397c9	0.07987935
23	0xbcb1964e	-0.021678116
24	0x3b605488	0.0034230072
25	0xbd9fd712	-0.07804693
26	0x3ddc035b	0.107428275
27	0x3d8c22bc	0.068425626
28	0x3d9245a5	0.0714219
29	0x3d8bbaa5	0.06822709
30	0xbdc0b16c	-0.094088405
31	0x3d8baa87	0.06819635
32	0xbd87de7e	-0.06634234
33	0x3d739a71	0.05947346
34	0xbdf21983	-0.11821272
35	0xbadc88ee	-0.0016825476
36	0xbd63eab4	-0.055643752
37	0x3d1363c2	0.03598381
38	0xbbbefab1	-0.0058282246
39	0x3cdaa8b1	0.026691766
40	0xbd3c6933	-0.045998763
41	0xbd3f8aab	-0.046763103
42	0x3d0c998f	0.034326132
43	0xbb392dcf	-0.0028256064
44	0xbd9da3ef	-0.076972835
45	0xbd66eea5	-0.056379933
46	0xbdbb6c6c	-0.09151539
47	0xbd650755	-0.055915195
48	0xbd62264d	-0.055212308
49	0xbd730b98	-0.05933723
50	0xbd9700fd	-0.073732354
51	0xbc732876	-0.01484119
52	0x3d29d22d	0.041460205
53	0xbdfee4ad	-0.1244596
54	0xbe03fe30	-0.12889934
55	0x3dc17e1d	0.09447882
56	0x3acbdea2	0.0015554021
57	0xbc6bbe55	-0.01438864
58	0x3d17a233	0.03701992
59	0x3dc42f86	0.09579377
60	0xbc04925c	-0.008091535
61	0xbe1e2d45	-0.15446956
62	0xbdcea66a	-0.10090335
63	0x3a4a2cf3	0.00077123864
64	0x3dac2adb	0.084066115
65	0x3d06fb84	0.032954708
66	0xbdf2caa5	-0.118550576
67	0x3cba4763	0.022739118
68	0x3c9e502d	0.01932534
69	0x3d6505cd	0.055913735
70	0x3d071b2f	0.03298491
71	0x3d672e4e	0.056440644
72	0x3d76562e	0.06014078
73	0x3ca21325	0.01978452
74	0xbcd13ee0	-0.025542676
75	0xbcaafef8	-0.020873532
76	0x3d45e4a5	0.048313756
77	0xbd253148	-0.0403302
78	0x3d4db867	0.050224688
79	0xbd03a7b7	-0.032142367
80	0x3da56c33	0.08077278
81	0x3b4889b1	0.0030599649
82	0xbdb36996	-0.08760373
83	0x3df30f5f	0.11868166
84	0x3d37f748	0.04491356
85	0x3c847f62	0.016174022
86	0x3e06bc45	0.13157757
87	0xba35d926	-0.00069369597
88	0xbd095c51	-0.033535305
89	0x3dbf7014	0.09347549
90	0xbd8f049c	-0.06983301
91	0xbd8afae4	-0.06786135
92	0x3daad310	0.08341038
93	0xbd25fa44	-0.040521875
94	0x3da0aba1	0.078452356
95	0xbdf9792d	-0.121813156
96	0xbe09710a	-0.13422027
97	0x3c89f27f	0.016839264
98	0x3d500493	0.050785612
99	0xbccd6655	-0.02507321
100	0x3baf98f2	0.0053588087
101	0x3d6be658	0.05759272
102	0xbbb882a0	-0.005630806
103	0xbc70c79d	-0.014696029
104	0xbc5eaae2	-0.013590546
105	0x3c7f68e8	0.015588976
106	0xbde91102	-0.11380197
107	0xbdb900dc	-0.09033367
108	0x3beb4212	0.007179507
109	0xbc137ce6	-0.009001946
110	0xbdc7cfdf	-0.09756445
111	0xbd0babc7	-0.034099367
112	0xbd98743f	-0.07444047
113	0xbd4fa519	-0.05069456
114	0x3da440a7	0.08020144
115	0xbdb92886	-0.09040932
116	0xbd30d939	-0.04317591
117	0x3daad798	0.083419025
118	0x3c1c7015	0.009548207
119	0x3d87f1c0	0.06637907
120	0x3dabb4af	0.08384072
121	0x3c96793b	0.018368354
122	0x3ceec2d3	0.029145634
123	0xbdd02d69	-0.10164911
124	0xbc408290	-0.0117498785
125	0x3d42835f	0.047488566
126	0x3d9e0dbb	0.07717463
127	0xbd7d7c0b	-0.061885875
128	0xbcc6a517	-0.024248643
129	0xbd72980b	-0.05922703
130	0xbd8aecd9	-0.06783456
131	0xbdb8c39f	-0.09021687
132	0x3daed3e4	0.08536509
133	0xbd69248c	-0.05691962
134	0x3cff9eaa	0.031203587
135	0x3cf05f48	0.029342309
136	0xbd8ce8df	-0.06880354
137	0x3da03516	0.07822625
138	0xbb0aa245	-0.002115385
139	0xbd30f5a3	-0.043203007
140	0x3bc4910e	0.005998737
141	0x3c8a29c4	0.016865619
142	0x3b7c3d48	0.0038488675
143	0x3d627b6b	0.05529348
144	0x3d4f7e25	0.05065741
145	0x3d5bf861	0.05370367
146	0x3dbd2382	0.09235288
147	0x3d19e726	0.037573956
148	0x3d044f8c	0.032302424
149	0x3c3afd58	0.011412941
150	0x3d4c5f1e	0.0498954
151	0xbd649afd	-0.05581187
152	0xbdaaa27a	-0.08331771
153	0xbd01a7ac	-0.031654045
154	0xbdf83210	-0.12118924
155	0x3de3fe2e	0.11132465
156	0xbd9c2e44	-0.07626012
157	0xbdb9ea7b	-0.09077927
158	0x3dcf28f7	0.10115235
159	0x3d7f2f88	0.06230119
160	0xb98e5748	-0.0002714938
161	0x3d51489b	0.051094633
162	0x3df8fff0	0.12158191
163	0xbd0c7b07	-0.034297016
164	0xbca118fc	-0.019665234
165	0x3c3627c9	0.011117884
166	0xbd7e2bac	-0.062053367
167	0xbdc0d1be	-0.09415005
168	0x3bdc819d	0.0067293183
169	0xbdc79142	-0.097445026
170	0xbda94d65	-0.08266715
171	0x3d4160f5	0.047211606
172	0x3bbc8125	0.0057527
173	0xbd94213d	-0.07232902
174	0xbd5b825e	-0.053591125
175	0x3d0b4614	0.03400238
176	0x3dbc6c44	0.092003375
177	0x3db8aff4	0.090179354
178	0x3d5347d1	0.05158216
179	0x3d88a48f	0.06672012
180	0x3d6ab7b4	0.0573041
181	0xbd7f8195	-0.06237944
182	0xbcd41aeb	-0.025891742
183	0x3e0611f8	0.13092792
184	0xbd16b96d	-0.03679793
185	0xbcae9f24	-0.021316119
186	0x3da7d2af	0.081944816
187	0x3da68a98	0.081319034
188	0xbe0f6f89	-0.14007391
189	0x3c27863b	0.010224874
190	0x3def8b0e	0.116964445
191	0x3dd8c6ec	0.10584816
192	0x3d635be3	0.055507552
193	0x3d97ee78	0.07418531
194	0x3cae7ad0	0.021298796
195	0x3ded00a3	0.11572387
196	0x3da8c1d4	0.08240095
197	0xbd5d1723	-0.053977143
198	0x3cd5b2a9	0.026086168
199	0xba1f0c7d	-0.00060672296
200	0xbdb8a3ff	-0.09015655
201	0xbd970042	-0.07373096
202	0xbd37c8af	-0.04486912
203	0xbd04da0a	-0.0324345
204	0x3d6a0b8d	0.057139922
205	0xbcb7da74	-0.022443034
206	0x3d88531a	0.06656475
207	0xbde1129a	-0.10989876
208	0x3d2f3c89	0.04278234
209	0x3e05d00a	0.13067642
210	0xbcc84170	-0.024445266
211	0x3cf76c03	0.030202871
212	0x3d963140	0.073336124
213	0xbd8e68d1	-0.06953586
214	0x3d0c3996	0.034234606
215	0x3d111aad	0.03542583
216	0xbdb6d40c	-0.089271635
217	0x3d938a2c	0.072040886
218	0x3d8f0352	0.06983055
219	0xbc7ba7ad	-0.015359801
220	0xbd8c940b	-0.068641745
221	0x3dce5b59	0.10076017
222	0xbd179287	-0.037004974
223	0x3dcdbe0e	0.10046016
224	0xbcd80984	-0.026371725
225	0xbdb7baa0	-0.08971143
226	0x3c9906bd	0.01867997
227	0xbd624ed3	-0.055250954
228	0x3ca6317e	0.020287272
229	0xbccfa737	-0.025348289
230	0xbdc23440	-0.09482622
231	0x37480d69	1.1924051e-05
232	0x3d955033	0.072906874
233	0xbd5fdef7	-0.054655995
234	0x3d89dfba	0.067321256
235	0x3d9ac865	0.075577535
236	0xbc1f0771	-0.009706364
237	0x3ce3d9b2	0.027813766
238	0x3d3dfd75	0.046384294
239	0x3da44fc5	0.08023027
240	0x3d438188	0.047730953
241	0xbb904d2c	-0.004403731
242	0xbcdb65ce	-0.026781943
243	0xbd7bac8d	-0.061443854
244	0xbdd24d5d	-0.10268662
245	0x3d880ebf	0.066434376
246	0xbd416737	-0.047217574
247	0xbca26182	-0.019821886
248	0x3d883706	0.0665112
249	0x3c842e93	0.01613549
250	0x3ba29b9f	0.004962399
251	0xbd9e249b	-0.07721826
252	0x3d69ef31	0.057112876
253	0x3ddbc9c8	0.10731846
254	0xbdc17250	-0.094456315
255	0xbc3d012b	-0.011535923

fc_layers.0.bias f4 [84]
0	0xbd28cf6b	-0.041213434
1	0xbd3f4525	-0.0466968
2	0x3d9244e2	0.071420446
3	0xbd958905	-0.07301525
4	0x3e125a7a	0.14292327
5	0xbdd4d977	-0.103930406
6	0x3c27bcb0	0.010237858
7	0x3cc49b8e	0.023999956
8	0xbd431828	-0.04763046
9	0xbda3a881	-0.07991124
10	0xbc8ec9d0	-0.017430216
11	0x3c7bdfef	0.015373214
12	0x3ceb5046	0.0287248
13	0xbcb1a84e	-0.0216867
14	0xbb836449	-0.0040097577
15	0xbd7bd0a6	-0.06147828
16	0x3ce4a108	0.027908817
17	0xbc09bc38	-0.008406691
18	0xbd7b30d7	-0.061325874
19	0xbe2135a2	-0.15743116
20	0x3d44ca23	0.048044335
21	0xbd164d4d	-0.036694814
22	0x3da43a02	0.080188766
23	0xbdc188ad	-0.09449897
24	0x3c76dac4	0.015066806
25	0xbdea85d1	-0.11451305
26	0x3bd09a82	0.006366075
27	0xbcccd723	-0.025004929
28	0xbd329047	-0.043594625
29	0x3db83720	0.08994889
30	0x3d69f208	0.057115585
31	0x3d1d220a	0.03836254
32	0x3c6a8f09	0.014316329
33	0x3c0db5cb	0.0086493
34	0x3d708c97	0.058727827
35	0xbcf368b2	-0.029713009
36	0xbcf4374a	-0.02981152
37	0xbb89a47a	-0.0042005153
38	0x3d43c794	0.047797754
39	0x3c346675	0.011010756
40	0x3d219095	0.039444525
41	0xbd9c1fbe	-0.07623242
42	0x3c90f93d	0.017696971
43	0x3c01e246	0.007927483
44	0xbc7d4596	-0.015458485
45	0xbd2b9458	-0.04188952
46	0x3d0a2af8	0.033732384
47	0xbe04d2b8	-0.12971008
48	0xbe10d8fc	-0.14145273
49	0xbd1100e2	-0.035401233
50	0xbdd008a2	-0.101578966
51	0xbda38178	-0.079836786
52	0x3b024728	0.0019878838
53	0xbdd475f6	-0.10374062
54	0x3d9be640	0.07612276
55	0xbde79d93	-0.11309352
56	0x3bbd3b0b	0.0057748607
57	0xbca43743	-0.020045882
58	0x3d4f802f	0.050659355
59	0x3c45e0a1	0.0120774815
60	0x3d54db20	0.051966786
61	0x3c5dd549	0.013539621
62	0x3d1f7e22	0.03893865
63	0x3dc1d3dc	0.09464237
64	0xbd1d7ebf	-0.038450953
65	0x3d4d2cf4	0.0500917
66	0x3cff096d	0.031132424
67	0x3d8cd6c3	0.068769
68	0xbc84576e	-0.016154971
69	0xbe1b4cae	-0.1516597
70	0xbd0532aa	-0.03251902
71	0x3d6948db	0.056954246
72	0xbb189007	-0.0023279206
73	0x3cecaf87	0.028892292
74	0x3da5ca38	0.08095211
75	0xbb738679	-0.003715901
76	0xbd9bb0cb	-0.0760208
77	0x3d0531b7	0.032518115
78	0xbc03fbe0	-0.008055657
79	0xbd597029	-0.05308548
80	0x3da4ba7a	0.0804338
81	0x3b4fc0f2	0.0031700698
82	0xbce54574	-0.02798722
83	0xba1787a6	-0.0005780406

fc_layers.2.weight f4 [10, 84]
0	0xbd83dccb	-0.06438597
1	0xbe0c5dcb	-0.13707654
2	0xbe022af5	-0.127117
3	0x3d618e9b	0.05506764
4	0xbe7cb1be	-0.24677178
5	0xbdeb43fc	-0.11487576
6	0xbe9cb001	-0.3060303
7	0xbaedbf40	-0.0018138662
8	0x3eb70f0c	0.35753667
9	0x3d920b45	0.07131056
10	0xbe81f3f2	-0.25381428
11	0xbe0ac2d5	-0.13550885
12	0xbec3966e	-0.38200706
13	0x3e0f48fe	0.13992688
14	0xbe503f34	-0.2033661
15	0xbd90d73d	-0.070723034
16	0x3e52d244	0.20588022
17	0x3ea06d2d	0.31333295
18	0xbaccbff5	-0.0015621172
19	0xbe1d2565	-0.15346296
20	0xbe6b8f30	-0.2300384
21	0x3daf8d89	0.085719176
22	0x3daf0a38	0.08546871
23	0x3e7e34fe	0.24824902
24	0xbe16a055	-0.147096
25	0xbdd00dbb	-0.10158869
26	0x3eb55bf2	0.3542171
27	0xbd795e5d	-0.060881007
28	0x3e5fc5a6	0.2185274
29	0x3e6bdc36	0.23033223
30	0xbec603e5	-0.38674846
31	0xbe06261a	-0.13100472
32	0x3ebd57d5	0.36981073
33	0xbe27a4a7	-0.16371404
34	0x3c1ebebb	0.009689028
35	0xbe00ea8c	-0.12589473
36	0x3dd3d9f7	0.10344308
37	0xbe26b5a9	-0.16280235
38	0x3ad8af41	0.0016531722
39	0xbe8828f0	-0.26593733
40	0x3df07bfd	0.11742399
41	0x3da3ced1	0.079984315
42	0xbcca7f85	-0.02471901
43	0xbc9354a4	-0.017984696
44	0x3db943ee	0.0904616
45	0x3e6f47cb	0.2336723
46	0xbbf2fa88	-0.0074151196
47	0xbe328a41	-0.17435552
48	0x3e972aea	0.29524928
49	0x3cb31b1a	0.021863509
50	0x3da26399	0.07929153
51	0xbd4bfd03	-0.049801838
52	0xbe2e099f	-0.16995858
53	0x3e2b2937	0.16714941
54	0xbb7de5ef	-0.0038741787
55	0xbd575b4b	-0.052577298
56	0x3da69cd7	0.081353836
57	0x3e24e45a	0.16102734
58	0xbbcbfb88	-0.006225053
59	0xbe823ad3	-0.25435504
60	0xbdef21a6	-0.1167634
61	0x3e1f4183	0.15552334
62	0xbe5f38ed	-0.21799059
63	0x3e6367b6	0.22207531
64	0x3e9d2805	0.30694595
65	0x3e1eda49	0.15512957
66	0xbda1d293	-0.07901492
67	0x3dbbfa61	0.09178615
68	0x3dc7eccf	0.097619645
69	0xbcd028c7	-0.02541007
70	0x3e9cd79d	0.3063325
71	0x3e90e6b6	0.28301018
72	0xbeb0b46d	-0.34512654
73	0x3b3a8d0e	0.0028465423
74	0x3e557072	0.20843676
75	0xbe31cac1	-0.173625
76	0x3d545b3d	0.051844824
77	0x3de1fdb1	0.11034716
78	0xbe7558e1	-0.23959686
79	0x3ebc3b87	0.36764166
80	0xbde680ae	-0.112550125
81	0x3ea52336	0.32253426
82	0xbe7e15f5	-0.24813063
83	0xbe575511	-0.21028544
84	0xbea6f54d	-0.32609025
85	0xbd9b3ff0	-0.075805545
86	0xbe3049c1	-0.17215635
87	0x3e2570b9	0.16156282
88	0x3e8f6d07	0.2801287
89	0x3ec6a616	0.3879859
90	0x3e1f3918	0.15549123
91	0xbe477cb8	-0.1948117
92	0x3e03a79b	0.12856905
93	0xbebc11bb	-0.36732277
94	0x3e914c43	0.28378496
95	0x3e3808d7	0.17972122
96	0x3de5cd59	0.112208076
97	0xbe5d0586	-0.21584138
98	0xbe7389f8	-0.237831
99	0x3d46ad05	0.048504848
100	0xbe2287b8	-0.15872085
101	0xbed7f5c1	-0.42179683
102	0xbe9071f4	-0.2821194
103	0x3d4e3c0e	0.05035024
104	0x3e8bc17f	0.27296063
105	0xbe8130d7	-0.25232574
106	0xbe264ab4	-0.16239434
107	0xbe44e0bd	-0.19226356
108	0x3d989a1e	0.074512705
109	0x3d83fea5	0.06445054
110	0xbe0ecfd6	-0.1394647
111	0xbe119f43	-0.1422091
112	0xbead67bf	-0.33868214
113	0xbdef281c	-0.11677572
114	0x3e049545	0.12947567
115	0x3dcf340d	0.1011735
116	0x3e0fbeaf	0.14037584
117	0x3e56652b	0.2093703
118	0x3ee98642	0.45610243
119	0x3db4dd92	0.08831324
120	0xbdff8413	-0.12476363
121	0xbd56d0b3	-0.052445125
122	0x3e014a43	0.12625985
123	0xbd4136ae	-0.047171287
124	0xbba99d41	-0.005176217
125	0xbd8aabf6	-0.0677108
126	0x3e394d24	0.18095833
127	0x3d5b52a7	0.05354562
128	0x3d38682b	0.045021217
129	0xbd68733d	-0.056750525
130	0xbe46a7ad	-0.193999
131	0xbe9021de	-0.2815084
132	0xbd429a5a	-0.047510482
133	0x3ce64124	0.028107233
134	0x3e2b5357	0.1673101
135	0xbeab16e0	-0.3341589
136	0x3e3fb6c5	0.18722065
137	0xbdbcdc3e	-0.09221695
138	0x3ecdeb0e	0.40218395
139	0xbb925f7a	-0.004466948
140	0xbd170b05	-0.036875743
141	0xbea907de	-0.33013815
142	0x3d451bd3	0.04812224
143	0xbd6577d0	-0.056022465
144	0xbd11edfd	-0.035627354
145	0xbe639c23	-0.2222753
146	0x3e5c3a42	0.21506599
147	0xbed6b8b8	-0.41937804
148	0xbe112cd2	-0.14177254
149	0xbeae7122	-0.34070688
150	0x3d007d05	0.031369228
151	0x3e3280fe	0.17432019
152	0xbdad1c85	-0.08452705
153	0xbea34300	-0.31887054
154	0xbed18027	-0.40918085
155	0x3e5ab904	0.2135964
156	0x3e8d38a0	0.27582264
157	0x3e9df654	0.30851996
158	0xbe80a6b2	-0.25127178
159	0x3dfdefd1	0.12399257
160	0x3e1411ea	0.14459959
161	0xbeab17b5	-0.33416525
162	0x3de97e7b	0.11401077
163	0xbdfe9a6e	-0.12431799
164	0x3e0351a5	0.12824114
165	0xbda7e00c	-0.081970304
166	0x3e191491	0.14949252
167	0x3e5f3f36	0.21801457
168	0xbe82460a	-0.2544406
169	0xbe8c6171	-0.27418092
170	0x3e8c9930	0.27460623
171	0x3c757cc1	0.014983357
172	0xbd8e85fa	-0.06959148
173	0xbe73045f	-0.23732136
174	0x3d431f4b	0.047637265
175	0x3e59ee28	0.21282256
176	0xbd042fd9	-0.032272194
177	0xbe04c618	-0.12966192
178	0x3d0662be	0.03280901
179	0xbe887555	-0.26652017
180	0xbe437bbd	-0.19090171
181	0xbe816fef	-0.2528071
182	0xbe552975	-0.20816596
183	0xbe81013c	-0.25196254
184	0x3e4a453f	0.19752978
185	0x3e400a4a	0.18753925
186	0x3d3bd7c9	0.045860086
187	0xbeac3ee3	-0.3364173
188	0x3d6839f3	0.05669589
189	0x3e4181a2	0.18897107
190	0xbe9a4c4f	-0.30136344
191	0xbe5b221a	-0.21399727
192	0x3eecc07b	0.462406
193	0xbe252b68	-0.1612984
194	0xbeaf0a6d	-0.34187642
195	0xbddabe4e	-0.10680829
196	0xbb654d99	-0.0034988879
197	0x3d6ccdce	0.05781346
198	0x3eb532c4	0.35390294
199	0x3e260b00	0.16215134
200	0xbc249d55	-0.0100472765
201	0xbed493e5	-0.41519085
202	0x3dc70f05	0.097196616
203	0xbe413616	-0.18868288
204	0xbeaf6372	-0.34255558
205	0x3db9fa58	0.090809524
206	0xbe6af892	-0.22946385
207	0xbb64de5b	-0.0034922573
208	0xbddbe769	-0.10737497
209	0x3ebf3a2f	0.37349078
210	0xbdcfb0ca	-0.10141142
211	0xbe33f139	-0.17572488
212	0xbe4cc51f	-0.1999707
213	0xbe11c9d4	-0.14237148
214	0xbebd3937	-0.36957714
215	0xbe3c8cf2	-0.18413141
216	0xbe9c155e	-0.30485052
217	0x3e633036	0.2218636
218	0xbe05a85d	-0.13052507
219	0x3e37ff81	0.17968561
220	0x3bd44dba	0.0064789923
221	0x3e86da9a	0.26338655
222	0x3ea344d0	0.31888437
223	0xbe199e61	-0.15001823
224	0xbe9ba2cb	-0.3039764
225	0x3eac4391	0.336453
226	0x3e9d18e4	0.30683053
227	0x3e082f5d	0.13299318
228	0x3dec6cb3	0.1154417
229	0xbda98155	-0.08276621
230	0xbd80c8cc	-0.06288299
231	0x3e2b13dd	0.16706796
232	0x3e1acaf1	0.15116479
233	0xbe92624d	-0.28590623
234	0x3e1c34c3	0.15254502
235	0x3d194f62	0.03742922
236	0xbd4b7026	-0.0496675
237	0x3bd7ae8c	0.006582087
238	0xbe322e81	-0.17400552
239	0x3e60a109	0.2193643
240	0x3e5cb9bb	0.21555226
241	0x3c91a25d	0.017777616
242	0x3d50b23d	0.05095123
243	0x3e829bc4	0.25509465
244	0xbea29657	-0.31755325
245	0xbe9cbd5a	-0.30613214
246	0xbe3e8f04	-0.18609244
247	0x3dc73a08	0.097278655
248	0xbca17789	-0.01971032
249	0x3e1e4087	0.15454303
250	0xbefd1d47	-0.494364
251	0x3ea4c256	0.32179517
252	0xbe0ad101	-0.13556291
253	0x3d80b647	0.06284767
254	0xbe3a5340	-0.1819582
255	0xbd920b2a	-0.071310356

fc_layers.2.bias f4 [10]
0	0xbe137857	-0.14401375
1	0x3b80eea1	0.003934697
2	0x3e909660	0.28239727
3	0x3bd911b9	0.006624427
4	0xbd2f1466	-0.042744063
5	0x3e40d053	0.1882947
6	0xbe33e32e	-0.17567131
7	0x3da56753	0.08076348
8	0xbe4e9069	-0.20172276
9	0xbdd060e4	-0.101747304
