trained_lenet5.pt (torch, 249991 bytes, 10 tensors)

conv_layers.0.weight f4 [6, 1, 5, 5]
0	0x3e93a76d	0.28838673
1	0x3e2abf61	0.16674568
2	0x3ebfe50d	0.3747944
3	0x3e5462b8	0.20740783
4	0x3f053e32	0.5204803
5	0x3e440f1d	0.1914639
6	0x3e5a74d4	0.21333629
7	0x3dd4b093	0.10385241
8	0x3ec51831	0.3849502
9	0x3ed012f4	0.4063946
10	0xbd83d49e	-0.06437038
11	0xbdf33cf6	-0.11876862
12	0xbe12eaab	-0.14347331
13	0x3d14b6b6	0.03630706
14	0x3e6a3035	0.22869952
15	0xbe9e3192	-0.30897194
16	0xbf0e738a	-0.5564505
17	0xbeef6cb7	-0.4676263
18	0xbeb459c7	-0.35224745
19	0xbe6fe110	-0.23425698
20	0xbf44d833	-0.76892394
21	0xbf0c2460	-0.54743004
22	0xbf171fc2	-0.59032834
23	0xbe9d2d71	-0.30698732
24	0xbe35c50c	-0.17750949
25	0xbd4c0975	-0.049813706
26	0xbe9619ca	-0.2931655
27	0xbecdd972	-0.4020496
28	0xbd7f3df5	-0.062314946
29	0xbd6062c7	-0.0547817
30	0xbe4fa66c	-0.20278329
31	0xbe76587c	-0.24057192
32	0xbe85786e	-0.26068443
33	0xbe6d958d	-0.2320158
34	0x3c263c9e	0.010146288
35	0xbe8fe896	-0.28107136
36	0x3dfc067a	0.12305923
37	0x3d6dfbfc	0.05810164
38	0x3d55a9a6	0.052163742
39	0x3dce2927	0.10066443
40	0xbd7caa0b	-0.061685603
41	0x3e3ea49b	0.1861748
42	0x3eb307de	0.3496694
43	0x3f037e92	0.51365006
44	0x3ebaefbd	0.3651103
45	0xbe59032e	-0.21192619
46	0x3e53b120	0.20673037
47	0x3ef4ddcf	0.47825477
48	0x3ea9b373	0.3314472
49	0x3ec83dd9	0.39109686
50	0x3dba4b55	0.090964
51	0x3e54e7cc	0.20791548
52	0x3ea39af0	0.31954145
53	0xbcf9bea6	-0.030486416
54	0xbf128991	-0.5724116
55	0x3ebff300	0.37490082
56	0x3f13b049	0.57690865
57	0x3edb296f	0.4280505
58	0x3e5a9c70	0.21348739
59	0xbe550ad6	-0.20804915
60	0x3ee287a0	0.442441
61	0x3f259509	0.64680535
62	0x3e881d7f	0.26585004
63	0x3d84f555	0.06492106
64	0xbe9a594a	-0.30146247
65	0x3e9c1eb2	0.3049217
66	0x3efcc553	0.49369296
67	0x3e39232f	0.18079828
68	0x3df9dbb1	0.12200106
69	0xbe8282aa	-0.25490314
70	0x3ebe1a50	0.3712945
71	0x3ea1709f	0.31531236
72	0x3da4994b	0.08037051
73	0xbec48b84	-0.38387692
74	0xbe825ab2	-0.2545982
75	0x3e0a81c6	0.13526067
76	0x3da494e0	0.08036208
77	0x3df0a7e5	0.11750773
78	0x3d2afb02	0.041743286
79	0x3e8bc23a	0.2729662
80	0x3e89b2bd	0.2689418
81	0x3e56c922	0.20975164
82	0x3e2e5268	0.17023623
83	0x3e01c786	0.12673768
84	0x3e1236cf	0.1427872
85	0xbe0b94a1	-0.13630916
86	0xbdd27193	-0.10275569
87	0x3c86090e	0.01636174
88	0x3d85767d	0.065167405
89	0xbe5077d1	-0.20358206
90	0xbec7b930	-0.39008474
91	0xbed5d21b	-0.4176186
92	0xbf0baa2e	-0.5455655
93	0xbe6a36d6	-0.22872481
94	0xbecd9969	-0.40156105
95	0xbed43117	-0.41443703
96	0xbed73884	-0.42035306
97	0xbea10955	-0.31452432
98	0xbe62562f	-0.22103189
99	0xbed6b35d	-0.41933718
100	0xbe8fddf2	-0.28099018
101	0xbeaca659	-0.33720663
102	0xbf06020b	-0.5234687
103	0xbeee441b	-0.46536335
104	0xbf01e788	-0.50743914
105	0xbeb93738	-0.3617494
106	0xbdc7f119	-0.097627826
107	0x3d934c7c	0.071923226
108	0x3dde72da	0.1086175
109	0xbe555835	-0.2083443
110	0xbe2e1594	-0.17000419
111	0x3d0ac685	0.03388073
112	0x3e5ad0c1	0.21368696
113	0x3ea2748c	0.31729543
114	0xbd3f3056	-0.046676956
115	0x3ba13d84	0.0049206633
116	0x3efd9764	0.49529564
117	0x3eade560	0.33964062
118	0x3f0bb38d	0.5457085
119	0x3e931d37	0.28733227
120	0x3e40df97	0.18835293
121	0x3ed68bb3	0.41903457
122	0x3f08dbf7	0.5346064
123	0x3ef71952	0.48261505
124	0x3ea5c357	0.32375595
125	0xbe1ea367	-0.1549202
126	0x3d4e9a5c	0.050440177
127	0x3e84222d	0.25807324
128	0x3efbaab0	0.49153662
129	0x3eed38b3	0.4633232
130	0xbe263ac0	-0.16233349
131	0x3e87e0fa	0.2653883
132	0x3f0c719b	0.5486085
133	0x3ee917a1	0.4552584
134	0x3e545dea	0.2073895
135	0xbdd045ac	-0.10169539
136	0x3e3dc65a	0.18532696
137	0x3f156cb9	0.5836902
138	0x3e3d61d6	0.18494353
139	0x3e69714b	0.22797124
140	0x3d6f575a	0.058432914
141	0x3eb1fe12	0.34764153
142	0x3de360e6	0.11102466
143	0x3d59195d	0.053002704
144	0xbe43902f	-0.1909797
145	0xbd2c8b7c	-0.04212521
146	0x3e98681f	0.29766938
147	0x3e607db8	0.21922958
148	0xbbadeb0f	-0.005307562
149	0xbf158ef1	-0.58421236

conv_layers.0.bias f4 [6]
0	0xbe7c963b	-0.24666683
1	0xbea75d87	-0.32688543
2	0xbf088da4	-0.53341126
3	0x3e8ca3ec	0.27468812
4	0xbe66128b	-0.22468011
5	0xbec673f0	-0.38760328

conv_layers.3.weight f4 [16, 6, 5, 5]
0	0x3ce01b84	0.02735687
1	0x3cfe8301	0.031068327
2	0x3d8a725e	0.06760095
3	0xbdbb7cc5	-0.09154657
4	0xbe5a0d75	-0.21294196
5	0xbdd513a8	-0.1040414
6	0xbc18ec5d	-0.009333697
7	0xbd44e5c7	-0.048070695
8	0xbc23a48f	-0.009987964
9	0x3c38d2d2	0.011280732
10	0x3d2a1199	0.04152069
11	0xbc828120	-0.015930712
12	0x3d776ea1	0.06040824
13	0x3dbf80bc	0.09350726
14	0xbcc62d1c	-0.024191432
15	0x3da71df8	0.08160013
16	0x3b93ce11	0.004510649
17	0x3c652bfd	0.013987538
18	0xbccf521f	-0.025307713
19	0xbdcd8547	-0.10035186
20	0xbcc65848	-0.024212018
21	0xbd848258	-0.064701736
22	0x3ce1c25f	0.027558504
23	0xbc731774	-0.014837135
24	0xbceb5cd3	-0.028730785
25	0x3c6dc57a	0.014512414
26	0x3dbedabe	0.093190655
27	0x3e0a5ef4	0.13512784
28	0x3e129964	0.14316326
29	0x3c25c860	0.010118574
30	0x3d2bd967	0.041955378
31	0x3e0f9941	0.14023305
32	0x3e30893a	0.17239848
33	0xbd548c0c	-0.05189137
34	0xbe362cd3	-0.17790537
35	0x3d6998e7	0.057030585
36	0x3d01b3db	0.031665664
37	0x3c2597a3	0.010106954
38	0xbdcf373e	-0.101179585
39	0xbe066dad	-0.13127775
40	0xbcfadaeb	-0.030621966
41	0xbc2f0eea	-0.010684708
42	0xbddf04af	-0.10889565
43	0x3c096999	0.008386993
44	0xbc658998	-0.014009856
45	0xbdd87fb8	-0.105712354
46	0xbd766b57	-0.06016096
47	0xbd8ac20d	-0.067752935
48	0xbcd549f2	-0.026036236
49	0xbdc3586d	-0.0953835
50	0x3debc420	0.11512017
51	0x3c7be620	0.01537469
52	0xbbdac3e5	-0.0066761845
53	0x3e4959e3	0.19663195
54	0x3e754a1c	0.23954052
55	0x3d130add	0.035899032
56	0xbcb476d0	-0.02202931
57	0xbd880ae9	-0.06642706
58	0x3e3847e8	0.1799618
59	0x3e10daa2	0.14145902
60	0x3df14226	0.11780195
61	0x3db6f0cd	0.08932648
62	0xbb87a5bf	-0.0041396315
63	0x3d9eb2ae	0.07748924
64	0x3db4d3da	0.0882947
65	0x3da4bc43	0.080437206
66	0x3d8666b3	0.06562557
67	0xbcbf39c3	-0.023342973
68	0x3cf1564f	0.0294601
69	0xbd099d95	-0.033597548
70	0xbb8f5a58	-0.0043747835
71	0xbd5c2940	-0.053750277
72	0xbdfd6f9c	-0.123748034
73	0xbd503592	-0.05083234
74	0xbc08c9b5	-0.008348872
75	0x3d893d2d	0.067011215
76	0x3d941e53	0.072323464
77	0xbce4ad4f	-0.027914671
78	0xbd96b2dc	-0.073583335
79	0xbda70651	-0.08155502
80	0x3d4f3656	0.05058893
81	0xbdf14e01	-0.11782456
82	0xbe0386c1	-0.12844373
83	0xbe106a99	-0.14103164
84	0xbd882965	-0.066485204
85	0x3c6f9a0c	0.01462413
86	0xbd3f8c82	-0.046764858
87	0xbd3baf02	-0.045821197
88	0xbd091367	-0.03346577
89	0x3d680dbc	0.056653723
90	0x3db08c09	0.086204596
91	0x3cf0d996	0.029400628
92	0x3d127e62	0.03576506
93	0xbb94570b	-0.004526978
94	0x3b849e20	0.0040471703
95	0xbcba2ecc	-0.022727393
96	0x3d857cba	0.0651793
97	0x3d7ef0e0	0.062241435
98	0x3c77d08d	0.015125406
99	0x3de54bff	0.11196136
100	0x3d0c11bf	0.03419661
101	0xbce6c8fc	-0.028172009
102	0x3dd51920	0.10405183
103	0x3e7cfb15	0.24705155
104	0x3e00aa7c	0.12565035
105	0x3c854f05	0.016273031
106	0x3d9adcab	0.0756162
107	0x3e014da0	0.12627268
108	0x3e334b02	0.17509082
109	0xbd073a43	-0.033014547
110	0xbc71c413	-0.01475622
111	0x3dca321f	0.09872841
112	0x3d96a2c0	0.07355261
113	0x3be525ec	0.006993046
114	0xbe134a9f	-0.14383934
115	0xbde6770d	-0.11253176
116	0xbd96385a	-0.07334967
117	0xbe269ac0	-0.1626997
118	0xbd976150	-0.07391608
119	0x3ce745c0	0.028231502
120	0xbacdf424	-0.0015713018
121	0xbd11744e	-0.035511307
122	0xbe14ecb8	-0.14543426
123	0xbd8cbca1	-0.068719156
124	0xbb1c44c0	-0.002384469
125	0xbcabfd6b	-0.020994863
126	0x3c78319c	0.015148547
127	0x3dbc2dfa	0.09188457
128	0x3e4cbfc7	0.19995032
129	0x3d9ae95b	0.0756404
130	0x3d698e9e	0.057020776
131	0x3d9d0ae9	0.076680966
132	0x3e3edee5	0.18639715
133	0x3e690376	0.22755226
134	0x3e09f79d	0.13473363
135	0x3ddb6db1	0.10714281
136	0xb9f17833	-0.00046056657
137	0x3e2201fa	0.15821066
138	0x3e4e9307	0.20173274
139	0x3dc5c05a	0.09655829
140	0x3c88c9ed	0.016697848
141	0x3d97b512	0.07407583
142	0xbc5c7d7f	-0.013457655
143	0xbd1e5b8a	-0.038661517
144	0x3d83dc9f	0.064385645
145	0x3d457c66	0.04821434
146	0xbd59c335	-0.05316468
147	0xbdb1f897	-0.08689993
148	0xbe06e4ed	-0.13173266
149	0x3a10af46	0.0005519282
150	0x3c30f74e	0.0108011495
151	0x3bf86788	0.0075807013
152	0x3e62a107	0.2213174
153	0x3e6d73be	0.23188683
154	0xbc937d40	-0.01800406
155	0x3de4d6b8	0.11173767
156	0x3e45852f	0.19289087
157	0x3e90159f	0.28141496
158	0x3e841d39	0.25803545
159	0x3e00ec67	0.1259018
160	0x3e089428	0.13337767
161	0x3ca4e132	0.020126913
162	0x3d429602	0.04750634
163	0x3dfac210	0.12244046
164	0x3db9315f	0.0904262
165	0xbde63cfb	-0.112421
166	0xbe100f9f	-0.14068459
167	0xbc7f7772	-0.015592443
168	0x3d00286f	0.03128856
169	0xbbf3b42f	-0.007437251
170	0xbc1e3bba	-0.009657795
171	0xbd926a3e	-0.0714917
172	0xbb8a26ae	-0.0042160368
173	0xbdaae6ec	-0.08344826
174	0xbc35db27	-0.011099613
175	0x3d12af88	0.03581193
176	0xbd22e47f	-0.039768692
177	0xbc812cef	-0.015768496
178	0x3e1f7104	0.15570456
179	0x3e431cae	0.19053909
180	0xbe417d74	-0.18895513
181	0xbe5efd20	-0.21776247
182	0xbe33cfa5	-0.17559679
183	0xbb018b59	-0.0019766896
184	0x3d0edeea	0.034880556
185	0xbaa27b92	-0.0012396446
186	0xbce4d36a	-0.027932841
187	0xbd2e0c6a	-0.042492308
188	0xbd13352b	-0.035939377
189	0x3c4c2ab6	0.012461355
190	0x3ce89f22	0.028396193
191	0x3d4e12e1	0.050310973
192	0x3dcd1208	0.10013205
193	0x3d66bf99	0.056335066
194	0xbd6f9b09	-0.058497462
195	0xbcdf5c69	-0.027265744
196	0x3d5326ba	0.051550604
197	0x3da2a32b	0.07941278
198	0xbcf93ac7	-0.030423535
199	0xbdb5c443	-0.088753246
200	0xbd8ee24b	-0.06976756
201	0x3c2c3a47	0.010511941
202	0xbda785e5	-0.08179835
203	0xbd31e6b2	-0.0434329
204	0x3e126889	0.1429769
205	0xbb3d7b65	-0.002891266
206	0xbd8de57a	-0.06928535
207	0xbdb73f31	-0.089476
208	0xbdd036d5	-0.101667084
209	0x3dd42f64	0.103606015
210	0xbdfee2dd	-0.124456145
211	0xbe395dea	-0.18102232
212	0xbe4814eb	-0.1953923
213	0xbe5a6333	-0.21326904
214	0x3cc8a1db	0.024491241
215	0xbcb264d9	-0.021776604
216	0xbce927d4	-0.028461374
217	0xbdb9e425	-0.09076718
218	0xbe124976	-0.14285836
219	0xbdeba916	-0.1150686
220	0x3e23ec16	0.16008028
221	0x3dd4bd58	0.10387677
222	0xbd35825e	-0.04431378
223	0xbd9e84ad	-0.0774015
224	0x3c5d529a	0.013508463
225	0xbcf72583	-0.030169254
226	0x3d655c42	0.055996187
227	0x3cad9ddb	0.021193435
228	0xbcc0d5c0	-0.023539424
229	0xbcb8a738	-0.022540674
230	0x3e576c80	0.21037483
231	0x3e161211	0.1465533
232	0x3dc48774	0.09596148
233	0x3d0daf26	0.034590863
234	0xbd505ce2	-0.05086983
235	0x3df92a30	0.1216625
236	0x3d772448	0.060337335
237	0x3d81c108	0.06335646
238	0x3e1546cf	0.14577793
239	0x3cb9fcaf	0.022703497
240	0x3cc0c91d	0.023533398
241	0x3c30de17	0.010795138
242	0x3d5fdd99	0.05465469
243	0xbd54c8be	-0.051949255
244	0xbd816203	-0.063175224
245	0x3ce3838b	0.027772686
246	0x3cfcc463	0.030855363
247	0x3bb02e87	0.0053766402
248	0x3d367220	0.04454243
249	0xbd3ae257	-0.04562601
250	0xbd72780e	-0.059196524
251	0xbdf078f3	-0.11741819
252	0xbdbd78bc	-0.09251544
253	0xbd7e447b	-0.062077027
254	0x3ddd0937	0.10792773
255	0xbe056455	-0.13026555

conv_layers.3.bias f4 [16]
0	0x3ccb9434	0.024850942
1	0x3db7aac6	0.08968119
2	0x3eb466d1	0.35234693
3	0x3e7f1973	0.24912052
4	0xbd321bc0	-0.043483496
5	0xbd869d36	-0.06572954
6	0xbda3979e	-0.07987903
7	0xbd1de3ce	-0.03854733
8	0x3e24ee06	0.16106424
9	0xbd5f0287	-0.05444577
10	0xbe3b5948	-0.18295777
11	0xbd82bd61	-0.063837774
12	0x3d47b531	0.048756782
13	0xbda0aa4e	-0.07844983
14	0x3d9e516a	0.07730372
15	0x3d999b29	0.075002976

conv_layers.6.weight f4 [120, 16, 5, 5]
0	0x3d9cf7c7	0.07664447
1	0x3d2656c1	0.04061008
2	0xbd5cbdde	-0.05389201
3	0x3d90148e	0.070351705
4	0xbc47a2c2	-0.012184801
5	0x3d02221d	0.031770814
6	0x3d33bbf1	0.043880407
7	0x3d230be0	0.039806247
8	0x3d4f249e	0.05057203
9	0xbd938e90	-0.07204926
10	0x3d3af2b5	0.04564162
11	0x3da7ea48	0.081989825
12	0xbb903ac7	-0.004401538
13	0xbd3a2443	-0.045444738
14	0x3cfc054c	0.030764244
15	0x3d650a68	0.055918127
16	0x3c4bcfa2	0.01243964
17	0x3ccaad18	0.02474074
18	0xbcc919c6	-0.024548423
19	0xbc8633c8	-0.016382113
20	0x3bbdbc02	0.0057902345
21	0xbc4987be	-0.01230043
22	0x3cd36cf8	0.025808796
23	0xbc435b25	-0.011923586
24	0x3d5aa4ad	0.053379703
25	0x3be863ce	0.007091976
26	0xbd6be73e	-0.057593577
27	0xbd4c188b	-0.049828093
28	0xbd817e2a	-0.06322892
29	0x3c5bcd2e	0.013415618
30	0x3b82fe45	0.0039975964
31	0xbda291d6	-0.07937972
32	0x3bac2ff4	0.00525474
33	0xbd65a517	-0.056065645
34	0x3c87af7c	0.01656317
35	0xbd6df459	-0.058094356
36	0xbc8dfa43	-0.017331248
37	0xbd9111fe	-0.0708351
38	0xbd66e455	-0.0563701
39	0xbcd8b58a	-0.026453752
40	0x3a11f45b	0.0005567723
41	0xbaee1fd4	-0.0018167445
42	0xbc1d942a	-0.009617845
43	0x3cd2826f	0.025696961
44	0x3ca1af3d	0.01973688
45	0x3d87c189	0.06628711
46	0xbc8c5992	-0.017132554
47	0xbcbc421c	-0.022980742
48	0x3c4e6e7b	0.012599583
49	0xbd5833f6	-0.05278393
50	0xbc198c38	-0.00937181
51	0x3c11ccfc	0.00889897
52	0xbcf6b5ca	-0.03011598
53	0x3c867163	0.016411489
54	0x3d56688f	0.05234581
55	0xbcc24749	-0.023715632
56	0x3cc7c3dc	0.024385385
57	0xbd41d549	-0.047322545
58	0xbd0d59cc	-0.034509465
59	0xbc3be428	-0.011467971
60	0x3b90d09b	0.004419399
61	0x3d797da7	0.060910847
62	0x3ccc14fe	0.024912354
63	0xbc35618f	-0.011070623
64	0xbb447455	-0.0029976566
65	0x3d24c4e8	0.040226847
66	0xbbe87c83	-0.007094921
67	0x3d8003f4	0.06250754
68	0xbd864105	-0.0655537
69	0xbc31f82d	-0.010862392
70	0x3dde044f	0.108406655
71	0x3c438b5b	0.01193508
72	0x3d35b63a	0.044363238
73	0x3d31a337	0.043368544
74	0xbc4d4cec	-0.012530547
75	0xbd147735	-0.036246497
76	0xbc9a8d8d	-0.018866325
77	0xbc792d81	-0.015208603
78	0xbd20f5be	-0.039296858
79	0xbd845e49	-0.06463296
80	0xbd708669	-0.058721934
81	0xbd3dc319	-0.046328638
82	0x3c02d1b3	0.0079845665
83	0xbcccbc4f	-0.024992136
84	0xbd173cd4	-0.036923245
85	0xbbcf891d	-0.006333484
86	0xbcf40014	-0.029785194
87	0x3c814079	0.015777813
88	0x3ca48622	0.02008349
89	0x3d21d9d9	0.039514396
90	0xbd6500f4	-0.055909112
91	0xbd91774d	-0.07102833
92	0x3d80c72e	0.062879905
93	0x3cce4039	0.025177108
94	0x3d20c50a	0.03925041
95	0xbd5a1865	-0.05324592
96	0x3c3f46c1	0.011674584
97	0x3c1d14fd	0.0095875235
98	0xbd2eca78	-0.042673558
99	0xbc952048	-0.01820387
100	0xbb232037	-0.0024891028
101	0xbd9e06a4	-0.0771611
102	0xbb28c621	-0.002575286
103	0xbc214fc4	-0.009845678
104	0xbddb4551	-0.107065804
105	0x3d15f1a4	0.0366074
106	0x3c164479	0.009171599
107	0x3d8903ef	0.066902034
108	0x3c042a42	0.008066716
109	0x3d71a549	0.05899552
110	0xbc71a361	-0.014748425
111	0xbcd76fa9	-0.02629836
112	0xbd3bb83d	-0.04583
113	0xbb8f123b	-0.004366187
114	0x3d24dc6c	0.040249273
115	0xbd2f9e49	-0.042875562
116	0xbcb7e5ca	-0.02244844
117	0xbd150f98	-0.036391824
118	0x3bb1ce91	0.005426236
119	0x3d69244e	0.05691939
120	0xbd3a1db8	-0.0454385
121	0x3d95d48c	0.07315931
122	0x3ca588dd	0.020206863
123	0x3d23ebd7	0.040019836
124	0xbc05d2fe	-0.00816798
125	0xbc1009f3	-0.008791435
126	0x3c4e867f	0.012605309
127	0xbd7c5711	-0.06160647
128	0xbcbb56fe	-0.02286863
129	0x3d2f77a5	0.04283871
130	0xbd2a4165	-0.04156627
131	0xbd0ea975	-0.034829576
132	0xbd0e6641	-0.034765486
133	0xbb1c8276	-0.0023881472
134	0x3d3ba602	0.045812614
135	0xbd5e0311	-0.054202143
136	0xbdc4975e	-0.095991835
137	0xbcebde60	-0.02879256
138	0x3d38fb40	0.045161486
139	0xbc5c1b44	-0.013434235
140	0xbd3b150d	-0.045674372
141	0xbd40fdba	-0.047116973
142	0x3d44c8fe	0.048043244
143	0x3d3947a5	0.04523434
144	0xbc630868	-0.013856985
145	0x3d24ba5e	0.040216796
146	0xbd041053	-0.03224213
147	0xbd1da85f	-0.03849065
148	0xbc22ba19	-0.009932064
149	0xbd06c617	-0.032903757
150	0xbd85d862	-0.06535412
151	0xbcdf1026	-0.02722938
152	0x3b8cb00f	0.0042934488
153	0xbda81b86	-0.08208375
154	0xbd0b46b9	-0.034002993
155	0xbd11d8bc	-0.035607085
156	0xbd8f3c9c	-0.06993982
157	0xbd4b205d	-0.04959141
158	0xbc701823	-0.014654192
159	0xbd121de2	-0.03567303
160	0xbd428657	-0.047491398
161	0xbc4491d5	-0.01199766
162	0x3c274a73	0.010210621
163	0x3ccfa05c	0.02534502
164	0xbd2412c9	-0.040056977
165	0xbd8a3e80	-0.06750202
166	0xbd7902a5	-0.060793538
167	0x3beca814	0.007222185
168	0x3d8a27a9	0.06745846
169	0x3c060a30	0.00818114
170	0xbc974c19	-0.018468903
171	0x3c9c4a8c	0.019078515
172	0xbd398764	-0.045295134
173	0x3c981d46	0.018568646
174	0x3cb9f072	0.022697661
175	0xbd28f3d8	-0.041248173
176	0x3ca74eae	0.02042326
177	0xbd0da18a	-0.034577884
178	0xbd144cdc	-0.03620611
179	0xbcb0fb36	-0.021604162
180	0xbc8caad0	-0.017171293
181	0xbbc58742	-0.006028087
182	0x3bb99506	0.005663517
183	0x3d55d00d	0.052200366
184	0xbd8ee515	-0.06977288
185	0xbd957f91	-0.07299722
186	0x3d53f534	0.051747516
187	0xbd3705f0	-0.044683397
188	0xbd5b291d	-0.053506006
189	0xbd1d34c8	-0.038380414
190	0x3beb2aa4	0.007176714
191	0xbd5880d4	-0.052857235
192	0xbcda69fd	-0.026661867
193	0x39be3620	0.0003627995
194	0x3cab8fdf	0.020942627
195	0x3cd29baa	0.025708992
196	0x3c1a9333	0.009434509
197	0x3c7f4a2a	0.015581647
198	0xbc8a24fe	-0.016863342
199	0x3cfe06e7	0.03100915
200	0x3cb1adfd	0.02168941
201	0x3d02c9d7	0.03193077
202	0x3c87fefe	0.016601082
203	0x3cf4654d	0.02983346
204	0xbd518fac	-0.051162407
205	0x3be3932e	0.0069450354
206	0x3d0fea14	0.035135344
207	0x3d612a92	0.05497224
208	0xbc2d25f9	-0.010568135
209	0x3d58291e	0.052773587
210	0x3da31062	0.07962109
211	0xbc9600be	-0.0183109
212	0xbd8c7129	-0.06857521
213	0xbd50a395	-0.050937254
214	0xbb9cc57b	-0.0047842837
215	0x3c875863	0.016521638
216	0x3c7c02a6	0.015381491
217	0x3c182d78	0.009288184
218	0x3a5dcda1	0.0008461122
219	0xbc14b160	-0.009075493
220	0xbcf047f0	-0.029331177
221	0xbc8a72b0	-0.01690039
222	0xbc35268e	-0.011056555
223	0xbd51e2bb	-0.051241618
224	0xbcbb5877	-0.022869332
225	0xbd18dd82	-0.03732062
226	0xbd1446db	-0.036200386
227	0x3d995455	0.07486788
228	0x3c68d0c4	0.01420993
229	0xbcf99600	-0.030467033
230	0xbd3c0392	-0.045901842
231	0xbd1245ff	-0.035711285
232	0xbd9bd25c	-0.07608482
233	0xbdf8f108	-0.12155348
234	0xbd6e43e6	-0.05817022
235	0x3cb47f32	0.022033308
236	0xbd37ba9c	-0.0448557
237	0xba66327e	-0.00087813276
238	0x3c0fde10	0.008780971
239	0x3bf7dde0	0.0075642914
240	0x3d5d54cf	0.054035958
241	0x3c213998	0.009840392
242	0xbd769802	-0.06020356
243	0xbc208092	-0.009796279
244	0xbc369634	-0.01114421
245	0xbcb15c16	-0.021650355
246	0x3c5d9ecf	0.013526632
247	0xbba3275d	-0.0049790577
248	0xbc9dc9e1	-0.019261302
249	0xbc2f01d8	-0.010681592
250	0xbc1fbb7c	-0.00974929
251	0x3b5e45ea	0.0033916184
252	0x3be6ab91	0.0070394953
253	0xbbccf4ff	-0.0062547917
254	0xbdb97fbf	-0.09057569
255	0xbc3429ab	-0.010996263

conv_layers.6.bias f4 [120]
0	0xbd817b0d	-0.06322298
1	0x3d1cfdfe	0.038328163
2	0xbd357b6c	-0.044307157
3	0xbda75e7e	-0.0817232
4	0xbd2d025c	-0.04223858
5	0x3d82e50b	0.06391343
6	0x3c915aab	0.01774343
7	0x3d0c486c	0.034248754
8	0x3c70521f	0.014668017
9	0xbdaddaae	-0.084889755
10	0x3d8052a7	0.06265765
11	0xbca18ff0	-0.019721955
12	0xbdf2f576	-0.11863224
13	0x3d016708	0.0315924
14	0x3b956cb4	0.0045600776
15	0x3d63a1c9	0.055574212
16	0xbb07f46d	-0.0020745054
17	0xbcfb5529	-0.030680256
18	0xbda1e43a	-0.07904859
19	0xbd9f4dc8	-0.077785075
20	0x3c98d358	0.018655464
21	0xbc333ec4	-0.010940257
22	0x3c52e2cf	0.012871458
23	0x3c0c2613	0.0085539995
24	0x3ca9abbc	0.020711772
25	0xbd7aabfc	-0.061199173
26	0xbc2d805b	-0.010589684
27	0xbc83546f	-0.016031472
28	0x3c1a89ca	0.009432266
29	0xbce7595c	-0.028240852
30	0xbda1a699	-0.07893104
31	0xbc207bf9	-0.009795182
32	0xbc315b3d	-0.010824976
33	0x3c718b24	0.014742646
34	0xbcfc808f	-0.03082302
35	0xbd71e1c4	-0.059053198
36	0xbdc493d5	-0.09598509
37	0xbacbaf10	-0.0015539844
38	0xbc4e893c	-0.012605961
39	0x3d89088c	0.06691083
40	0x3cf4e07d	0.0298922
41	0xbb03898b	-0.0020070996
42	0x3d0ef088	0.034897357
43	0xbd09727b	-0.033556443
44	0x3ccea3e5	0.025224635
45	0x3cc8c3d8	0.024507448
46	0xbbe4173f	-0.006960779
47	0xbdc49e06	-0.09600453
48	0xbd2a9c56	-0.041653
49	0xbd1cb799	-0.03826103
50	0xbc9cb759	-0.019130396
51	0x3c81837c	0.015809767
52	0xbd2ce3b2	-0.042209335
53	0xbc35903a	-0.01108175
54	0xbce71a39	-0.028210746
55	0x3d8b5a9b	0.06804391
56	0x3d16c541	0.03680921
57	0xbde6643c	-0.11249587
58	0xbd80ba4b	-0.062855326
59	0x3cee8eda	0.029120851
60	0xbd33e72c	-0.043921635
61	0x3ce3c509	0.027803915
62	0x3d06c21e	0.03289997
63	0xbb0247b4	-0.0019879164
64	0x3c3f8884	0.011690263
65	0x3d5113ec	0.05104439
66	0xbd62cad2	-0.055369206
67	0xbc7fecdc	-0.0156204365
68	0x3cd684a9	0.026186304
69	0x3ca9fa70	0.0207493
70	0x3d83b071	0.06430138
71	0x3c8d6a9b	0.017262748
72	0xbd137662	-0.03600157
73	0x3c481918	0.012213014
74	0xbca9d56b	-0.020731648
75	0x3c9726ef	0.018451182
76	0x3d671266	0.05641403
77	0x3cae5363	0.021279996
78	0x3d97f6e0	0.074201345
79	0x3d267d70	0.04064697
80	0x3cbba9da	0.02290814
81	0xbda855ad	-0.08219466
82	0xbd947b4f	-0.07250082
83	0xbbb047db	-0.0053796596
84	0xbd581f1c	-0.052764043
85	0x3a7db6e7	0.00096784387
86	0x3d6a2949	0.05716828
87	0xbc3f8650	-0.011689737
88	0xbd7cf82b	-0.06176011
89	0x3ca50361	0.020143213
90	0xbda12cc5	-0.07869867
91	0xbd80dda7	-0.06292277
92	0x3d03dc97	0.032192793
93	0x3d4da962	0.050210364
94	0x3dab1cd4	0.08355108
95	0xbc7b94b6	-0.01535528
96	0x3bc111dc	0.0058920216
97	0xbcf9e834	-0.03050623
98	0x3c837948	0.016049042
99	0xbce7b323	-0.028283661
100	0xbd44859f	-0.047978994
101	0x3d75b76f	0.05998939
102	0xbdb844b6	-0.089974806
103	0x3dccd8ca	0.10002287
104	0xbd789f56	-0.06069883
105	0xbd243cdb	-0.0400971
106	0xbd842877	-0.064530306
107	0xbd1672e5	-0.036730666
108	0x3d26679b	0.04062615
109	0x3c44b305	0.012005572
110	0xbc73b3bd	-0.014874396
111	0x3ced7236	0.028985124
112	0x3d4766de	0.048682086
113	0x3c8a1833	0.016857242
114	0xbd89137a	-0.06693168
115	0x3d3f39b6	0.046685897
116	0xbce57b6a	-0.02801295
117	0x3c58284b	0.0131932
118	0xbc81a47c	-0.015825503
119	0xbdbe3069	-0.09286577

fc_layers.0.weight f4 [84, 120]
0	0xbcb7ba89	-0.022427814
1	0x3d42248a	0.047398128
2	0x3d9129b5	0.07088033
3	0x3ca0ff62	0.019653026
4	0xbd736398	-0.059421152
5	0xbd5b4f3c	-0.05354236
6	0xbda0fcfc	-0.07860753
7	0x3d462f54	0.04838498
8	0x3d50f8dd	0.051018585
9	0x3d890fd7	0.06692474
10	0xbc92a038	-0.017898664
11	0x3ddc93da	0.10770388
12	0x3c17d607	0.009267337
13	0xbd86fcea	-0.06591208
14	0x3d5e4c76	0.054272138
15	0x3c8914b7	0.01673351
16	0xbd8fe7cd	-0.07026634
17	0xbc2c4f03	-0.010516885
18	0x3b3ec0b4	0.002910656
19	0xbc192015	-0.009346028
20	0xbde72522	-0.112863794
21	0xbc3b0e1b	-0.011416937
22	0x3d6e9115	0.05824383
23	0xbdf72b6d	-0.1206883
24	0xbc611f42	-0.013740363
25	0xbdaf9e60	-0.085751295
26	0x3d98b31a	0.07456036
27	0xbdc962d7	-0.09833305
28	0x3d1a89c4	0.03772904
29	0xbe06b914	-0.13156539
30	0x3d6ced57	0.057843532
31	0xbdc45548	-0.095865786
32	0xbd61be4b	-0.05511312
33	0x3da4d897	0.08049124
34	0xbb8a08df	-0.0042124833
35	0x3d056bef	0.032573637
36	0xbde8c41b	-0.11365529
37	0x3dd1dcf9	0.10247225
38	0xbdf636dd	-0.12022183
39	0xbd8b4ec3	-0.06802132
40	0x3d8d80d3	0.06909337
41	0xbd5e69a4	-0.054299966
42	0x3d9157f7	0.07096856
43	0x3d204205	0.03912546
44	0x3dbadf1f	0.09124588
45	0x3d88d189	0.06680591
46	0x3d538176	0.051637135
47	0x3d9b79f7	0.07591622
48	0x3d126d49	0.035748754
49	0x3d6b497e	0.057443134
50	0x3bf1c246	0.0073778955
51	0xbdc1967e	-0.09452532
52	0xbdc20333	-0.094732665
53	0xbda70684	-0.0815554
54	0x3d1219c2	0.035669096
55	0xbdba5c63	-0.090996526
56	0xbca23c9d	-0.019804293
57	0x3c89fe48	0.016844884
58	0x3d95d947	0.07316833
59	0x3cc834b2	0.02443919
60	0x3cbb77f9	0.022884356
61	0xbd44efe4	-0.04808034
62	0xbdea1415	-0.114296116
63	0x3da523e7	0.080634885
64	0x3d9ee994	0.07759395
65	0xbd967c8c	-0.07347974
66	0xbd3169b4	-0.043313697
67	0xbdb4c48d	-0.088265516
68	0xbcbe51a8	-0.023232296
69	0x3de21292	0.11038698
70	0xbd84f492	-0.064919606
71	0xbdd47096	-0.103730366
72	0x3b024663	0.001987838
73	0x3db2e5c1	0.08735228
74	0x3c12d955	0.008962949
75	0x3cb3a1d7	0.021927757
76	0xbd626596	-0.05527266
77	0x3c9f71ad	0.019463385
78	0x3d856f53	0.06515374
79	0x3dd3a6dd	0.10334561
80	0xbd8cf723	-0.06883075
81	0xbd033493	-0.03203256
82	0xbdc0031d	-0.09375594
83	0xbde12322	-0.10993029
84	0x3dbdb199	0.0926239
85	0x3d4909e7	0.04908171
86	0x3dd1a053	0.102356575
87	0x3c57054f	0.013123824
88	0x3e2766d3	0.16347818
89	0x3be6cd12	0.0070434893
90	0x3db6c437	0.08924144
91	0x3d56bfdf	0.052429076
92	0xbd4640ee	-0.048401766
93	0xbd02bd2b	-0.031918686
94	0xbc348a1e	-0.011019258
95	0x3dcdc6ef	0.10047709
96	0x3c38cefe	0.0112798195
97	0xbd9e9ebd	-0.07745121
98	0xbd762ae3	-0.060099494
99	0xbddbbd3f	-0.10729455
100	0xbd96e0ec	-0.07367119
101	0xbcd7e631	-0.026354881
102	0x3ce9241c	0.028459601
103	0x3cb93d01	0.022612097
104	0x3a26cb4f	0.0006362693
105	0xbc8700f4	-0.016479947
106	0xbdc1e68e	-0.09467803
107	0xbd7b6945	-0.06137969
108	0x3d2e00dc	0.04248129
109	0x3d95b494	0.07309833
110	0x3d4e3f22	0.050353177
111	0x3d0c87cb	0.03430919
112	0x3d7c3057	0.061569538
113	0xbe249d3f	-0.1607561
114	0xbd0a4dbe	-0.033765547
115	0x3d00a889	0.031410728
116	0xbe006746	-0.12539396
117	0xbd580c73	-0.052746248
118	0x3d087088	0.033310443
119	0xbdcb51c1	-0.09927703
120	0xbd963938	-0.07335132
121	0x3cf9c7a7	0.03049071
122	0xbd20e371	-0.039279405
123	0xbd8bde5e	-0.068295226
124	0x3d460420	0.048343778
125	0x3c3d591e	0.011556892
126	0x3d9f3ad8	0.077748954
127	0x39bfe5b3	0.00036601498
128	0x3d97d42a	0.07413514
129	0x3e0abf41	0.1354952
130	0x3d8aa0c5	0.067689456
131	0xbd8d9489	-0.069130965
132	0xbb6623c0	-0.0035116524
133	0x3d09b205	0.03361704
134	0x3d560f6c	0.0522608
135	0xbda42561	-0.08014942
136	0xbd416d6a	-0.047223486
137	0xbd7b34f1	-0.061329786
138	0x3c8590b2	0.016304348
139	0x3dafd4bd	0.085854985
140	0x3d98b3c2	0.07456161
141	0x3e2e31ef	0.17011236
142	0x3c836b8f	0.016042499
143	0xbdf63c0c	-0.12023172
144	0x3ccc947a	0.024973143
145	0xbcfed878	-0.03110908
146	0x3b3f2a52	0.0029169512
147	0x3d07a0be	0.03311228
148	0xbdf8a62c	-0.1214107
149	0x3d753ee0	0.059874415
150	0xbd691f09	-0.056914363
151	0x3d1d54ba	0.03841088
152	0xbd00c468	-0.031437308
153	0x3d490b03	0.049082767
154	0xbd0fd3cb	-0.03511409
155	0x3c5c9100	0.013462305
156	0x3ced070e	0.028934028
157	0x3ca9cd9d	0.020727927
158	0xbcd0b52a	-0.02547701
159	0xbdbd8fbf	-0.09255933
160	0x3d045d12	0.03231532
161	0xbd027f2d	-0.031859566
162	0xbb3665e3	-0.0027831725
163	0xbd7e1d61	-0.062039737
164	0xbcde03d4	-0.027101435
165	0xbcfdda1a	-0.030987788
166	0x3d8ecc3a	0.06972547
167	0x3d05d268	0.032671362
168	0xba138d31	-0.0005628644
169	0xbdc4b210	-0.09604275
170	0xbd32f374	-0.043689206
171	0x3d16cf48	0.036818773
172	0x3c669a3b	0.014074857
173	0xbd1fadb6	-0.038984023
174	0x3d3fed7d	0.046857346
175	0x3de9bccc	0.11412963
176	0x3ca22114	0.019791164
177	0xbda6bdf2	-0.08141698
178	0x3e0123e2	0.12611344
179	0x3ce40822	0.02783591
180	0xbd94e5d2	-0.07270397
181	0xbc75c095	-0.014999528
182	0xbe0804a7	-0.13283025
183	0x3dec626e	0.115422115
184	0x3cd428bd	0.025898332
185	0xbdb4b951	-0.08824409
186	0xbd8d270c	-0.06892213
187	0xbca83963	-0.020535177
188	0xbd773a72	-0.060358472
189	0x3d4f0333	0.05054016
190	0xbd3e4de8	-0.046461016
191	0xbd3c71db	-0.04600702
192	0x3d8b2e99	0.06795997
193	0x3c41c240	0.011826098
194	0x3d321a6e	0.043482237
195	0xbdfcca79	-0.12343306
196	0xbd4da76a	-0.050208487
197	0xbdb7596f	-0.08952605
198	0x3e0b56e1	0.1360736
199	0x3d0410dc	0.03224264
200	0xba5753b3	-0.0008214071
201	0x3da1bac3	0.0789695
202	0xbbb717e8	-0.0055875666
203	0xbdc29167	-0.095003895
204	0x3cb894a8	0.022531822
205	0x3d97dee0	0.07415557
206	0x3bb5f00a	0.0055522965
207	0xbc964991	-0.018345626
208	0xbd291d7a	-0.041287877
209	0x3de7f03e	0.113251194
210	0x3db3186a	0.08744891
211	0xbb07798c	-0.0020671813
212	0x3cfedc12	0.031110797
213	0xbd95be82	-0.07311727
214	0xbdb3d2c3	-0.08780434
215	0x3d86678a	0.06562717
216	0x3dec30f0	0.115327716
217	0xbd2fd124	-0.04292406
218	0xbd484285	-0.048891563
219	0xbd0a65e4	-0.033788577
220	0xbddece80	-0.108792305
221	0x3d1ccceb	0.038281363
222	0xbd851fbd	-0.06500194
223	0xbd0f37b4	-0.034965232
224	0x3dc3360e	0.095317945
225	0x3db632a9	0.088963814
226	0x3d04549a	0.032307245
227	0x3bc1d254	0.0059149656
228	0xbd7482e6	-0.059695147
229	0x3cd60ec7	0.026130093
230	0x3be7dbd6	0.007075767
231	0xbbac06f0	-0.0052498505
232	0xbd0e19d6	-0.034692608
233	0xbdcce91c	-0.100053996
234	0x3ccbc981	0.024876358
235	0xbdb474ab	-0.08811315
236	0x3c0fd35f	0.008778422
237	0x3d76a95a	0.0602201
238	0x3d7b2adb	0.061320167
239	0x3ce011f9	0.02735232
240	0x3d37a585	0.044835586
241	0xbdca8d67	-0.098902516
242	0x3d5a2b00	0.053263664
243	0xbccfce85	-0.02536703
244	0x3d1a0a28	0.037607342
245	0xbdabe15a	-0.08392592
246	0x3dae7387	0.08518129
247	0x3c713bfc	0.014723774
248	0xbc0977a6	-0.008390343
249	0xbdb2e8dc	-0.08735821
250	0xbd8f7a00	-0.070056915
251	0x3c1995da	0.009374106
252	0xbda5a401	-0.08087922
253	0x3dbe90a1	0.093049295
254	0x3d646c0d	0.055767108
255	0xbc49ec59	-0.012324416

fc_layers.0.bias f4 [84]
0	0x3d03d557	0.03218588
1	0xbda7d33f	-0.08194589
2	0xbd9c2b5a	-0.07625456
3	0x3d0bb84f	0.034111317
4	0x3d8ce141	0.06878901
5	0xbdcab00e	-0.09896861
6	0xbdce66d4	-0.10078207
7	0xbcf87363	-0.030328458
8	0x3db03fc1	0.0860591
9	0xb92f22b8	-0.00016702234
10	0xbc3d37f6	-0.011548987
11	0xbce067c5	-0.027393231
12	0x3bb5c695	0.0055473545
13	0xbcbff17d	-0.02343058
14	0xbda8bb81	-0.082388885
15	0xbd71d151	-0.05903751
16	0x3d8ecb7b	0.069724046
17	0xbbfc90a5	-0.0077076727
18	0xbe10ff5d	-0.14159913
19	0x3c2c7776	0.010526529
20	0x3d746fad	0.059676815
21	0xbdd87b6a	-0.10570414
22	0xbc74b618	-0.014935993
23	0xbdef8dda	-0.11696978
24	0xbd3b9b0f	-0.045802172
25	0xbb4685f0	-0.0030292235
26	0xbd193694	-0.037405565
27	0x3c2893b4	0.010289121
28	0xbdb964b0	-0.09052408
29	0xbd224d89	-0.039624725
30	0x3cf8f167	0.030388547
31	0x3d4a85c6	0.049443983
32	0xbc1faf11	-0.009746329
33	0x3cecba56	0.028897446
34	0xbd33a522	-0.043858655
35	0x3df4a5cb	0.11945685
36	0x3de46744	0.11152509
37	0xbd296815	-0.041359026
38	0x3c34e486	0.011040812
39	0x3dbcca1c	0.09218237
40	0x3d5ad488	0.05342534
41	0x3d3ebe53	0.046568226
42	0x3df7828b	0.12085446
43	0x3e01f7df	0.12692212
44	0xbe2436e4	-0.16036564
45	0xbd880c54	-0.066429764
46	0x3bc97903	0.006148459
47	0xbddf87bb	-0.109145604
48	0xbde87c80	-0.113518715
49	0xbdbaef27	-0.09127646
50	0xbe5bb9cc	-0.21457595
51	0xbd88dc64	-0.06682661
52	0x3ce7b6a1	0.028285326
53	0x3da82a24	0.08211163
54	0xbdb59e3d	-0.08868072
55	0x3d187380	0.037219524
56	0xbc1e4c81	-0.009661795
57	0x3d0bc467	0.03412285
58	0xbd0373f0	-0.03209299
59	0x3d096d56	0.033551537
60	0xbdb46495	-0.08808247
61	0x3c5dd414	0.013539333
62	0x3d35f37c	0.044421658
63	0x3d6f8b3f	0.058482405
64	0x3d0d658e	0.03452068
65	0xbdee7df8	-0.116451204
66	0xbcf2277b	-0.029559841
67	0xbdad6667	-0.08466797
68	0xbc3ee320	-0.0116508305
69	0xbd7b3b6b	-0.061335962
70	0x3ae34c03	0.0017341379
71	0xbda80b91	-0.08205331
72	0x3d4ace16	0.049512945
73	0x3d1714d4	0.036885098
74	0x3d4a74fa	0.049427964
75	0x3e315958	0.17319238
76	0x3d6d8a4c	0.05799322
77	0x3d01f34a	0.03172616
78	0x3da583e4	0.08081797
79	0xbc09dbe9	-0.008414247
80	0xbca47edd	-0.020080024
81	0xbd02d704	-0.031943336
82	0xbcfa42be	-0.030549403
83	0x3d8d89d3	0.069110535

fc_layers.2.weight f4 [10, 84]
0	0x3cd1ca1b	0.025609067
1	0x3e8e3680	0.27775955
2	0x3cfd5d80	0.030928373
3	0x3e4ef589	0.20210852
4	0xbe428d7b	-0.18999283
5	0x3e5ea64b	0.21743123
6	0xbe191ca0	-0.14952326
7	0xbe866a69	-0.2625306
8	0xbccb319b	-0.024803927
9	0xbe5954dd	-0.21223779
10	0xbeb94f53	-0.36193332
11	0xbb360eea	-0.0027779886
12	0x3e912916	0.2835166
13	0xbd48e828	-0.049049526
14	0x3e4db68d	0.20089169
15	0xbd49796b	-0.04918806
16	0xbe2bccf0	-0.16777396
17	0xbe7cf245	-0.24701793
18	0x3ebb3f3e	0.36571687
19	0xbea8193a	-0.32831746
20	0xbe32fb2d	-0.17478628
21	0x3decb6a0	0.115582705
22	0x3d9d8daa	0.07693036
23	0xbd8119b7	-0.06303733
24	0xbe26f11c	-0.16302913
25	0x3e430a21	0.19046833
26	0xbcae5503	-0.021280771
27	0xbdbaebfe	-0.09127043
28	0x3e8f6dc4	0.28013432
29	0xbd9fb8e1	-0.07798935
30	0x3dcdc3c3	0.10047104
31	0xbe56fb5a	-0.2099432
32	0x3b1904ce	0.002334881
33	0xbe669655	-0.22518285
34	0xbe414e28	-0.1887747
35	0x3ed1d855	0.4098536
36	0x3d8d2fcb	0.068938814
37	0x3e676351	0.2259648
38	0xbe48e01b	-0.1961674
39	0xbc9fcaa2	-0.019505803
40	0x3e986cd9	0.29770544
41	0x3e4dfdb7	0.20116316
42	0x3ddd4b76	0.10805409
43	0x3e52983f	0.2056589
44	0xbe8b771c	-0.2723931
45	0xbe94b1d9	-0.29041937
46	0xbd18dfa7	-0.037322666
47	0x3ecd860b	0.4014133
48	0x3eac0717	0.3359916
49	0x3ea36aa9	0.31917313
50	0x3e0e7614	0.1391223
51	0x3e3e7e1d	0.18602796
52	0xbde18a5b	-0.11012717
53	0x3ea3da84	0.32002652
54	0xbd944f76	-0.072417185
55	0x3dcf2be5	0.10115794
56	0xbdc18578	-0.09449285
57	0xbe81cb08	-0.25350213
58	0xbe3f5365	-0.18684156
59	0xbd984ad3	-0.074361466
60	0xbddf52c6	-0.1090446
61	0x3e544abc	0.20731634
62	0x3e52387a	0.20529357
63	0x3e0f6fc4	0.14007479
64	0xbeb47d4a	-0.35251838
65	0x3e01f766	0.12692031
66	0xbe750abc	-0.23929876
67	0xbe93d374	-0.28872263
68	0x3e277a00	0.16355133
69	0xbe8d5c6f	-0.27609584
70	0xbe8965de	-0.2683553
71	0xbd541d89	-0.05178598
72	0xbd1657ef	-0.036704954
73	0xbe04a1c0	-0.12952328
74	0xbbcd7200	-0.0062696934
75	0xbeaf03f7	-0.34182712
76	0xbe081921	-0.13290836
77	0x3e1a46e8	0.15066111
78	0xbd8c22f2	-0.06842603
79	0xbd083b95	-0.033259947
80	0x3e5dd1e1	0.21662094
81	0x3e981707	0.29705068
82	0x3e1f1967	0.15537034
83	0x3d7ac5e6	0.061223887
84	0xbd3ea5e9	-0.046544943
85	0xbea6ef9b	-0.3260468
86	0x3dc7bb79	0.097525544
87	0xbe37017d	-0.17871661
88	0x3e57e35d	0.21082826
89	0xbe0c524e	-0.13703272
90	0xbdca31d9	-0.09872789
91	0x3ebb00ab	0.36523947
92	0xbe67725c	-0.22602218
93	0x3e67224b	0.22571675
94	0xbd8c8c08	-0.06862646
95	0xbe1ccb36	-0.15311894
96	0x3e56904c	0.20953482
97	0xbe87a195	-0.26490465
98	0xbe8274af	-0.25479648
99	0xbe689693	-0.2271369
100	0x3e3ac1f5	0.18238051
101	0x3e9f0a7b	0.31062683
102	0xbd43a7a6	-0.047767304
103	0x3dddc01f	0.1082766
104	0x3e2135d6	0.15743193
105	0xbdd84c15	-0.105613865
106	0xbe32af15	-0.17449601
107	0x3e876c5e	0.26449865
108	0x3e61f356	0.22065482
109	0x3e72bb5a	0.23704281
110	0x3e8bebe1	0.273284
111	0xbe71a5b4	-0.23598367
112	0xbeeae4bd	-0.45877638
113	0xbe10a7fe	-0.14126584
114	0xbe01ab4c	-0.12663001
115	0x3e9fb005	0.3118898
116	0x3ef63fc6	0.4809553
117	0x3e68cc35	0.22734149
118	0x3e3b3faa	0.18286005
119	0xbe4799d5	-0.19492276
120	0x3dfdf7c7	0.124007754
121	0x3d5ca2bc	0.053866133
122	0x3e48fd17	0.19627796
123	0x3e82d118	0.2555015
124	0x3d455a5d	0.04818188
125	0x3e1af94e	0.15134165
126	0xbe8d97c1	-0.27654842
127	0x3ea18c60	0.3155241
128	0x3e8f1569	0.27946022
129	0x3e9c3d49	0.30515507
130	0xbe9fbdab	-0.31199393
131	0xbea7e6f7	-0.327934
132	0xbd896697	-0.067090206
133	0xbd966595	-0.07343594
134	0xbebe27f8	-0.3713987
135	0x3e1f0a9b	0.1553139
136	0xbeb6e50d	-0.35721627
137	0x3dd20e17	0.10256594
138	0x3d42b52d	0.047536064
139	0x3e222a27	0.15836392
140	0x3e304c02	0.17216495
141	0x3eb04143	0.3442479
142	0x3c7827d1	0.015146212
143	0x3d81e63b	0.06342741
144	0xbe4163e2	-0.18885759
145	0xbd000314	-0.031252936
146	0xbe74d3b1	-0.23908879
147	0xbc82e751	-0.01597944
148	0x3e82a7cd	0.25518647
149	0x3d5cc51b	0.053898912
150	0x3c63ba8d	0.013899458
151	0x3e772898	0.24136579
152	0x3e666c60	0.2250228
153	0x3eb0ec62	0.34555346
154	0x3db6b359	0.089209266
155	0x3dfa41f0	0.12219608
156	0xbef6ac11	-0.4817815
157	0x3eb23846	0.34808558
158	0xbe0a28f3	-0.13492183
159	0xbbec1f52	-0.007205882
160	0xbcbf0851	-0.023319395
161	0x3e91656e	0.28397697
162	0xbe979787	-0.29607794
163	0xbd444057	-0.04791292
164	0xbd54ea9c	-0.051981553
165	0xbe971b81	-0.2951317
166	0x3dd7b1f4	0.10531989
167	0xbe4c8b26	-0.19974956
168	0x3d6b4855	0.057442028
169	0x3d7d3dfe	0.0618267
170	0xbe2c8ad2	-0.16849831
171	0xbc89a1a0	-0.016800702
172	0x3e98df00	0.29857635
173	0xbcd0284e	-0.025409844
174	0xbd425db9	-0.047452662
175	0x3dde985a	0.108689025
176	0xbeec8043	-0.46191606
177	0x3e1c94bb	0.15291111
178	0xbc9d7580	-0.019221067
179	0xbeb0b39e	-0.34512037
180	0x3eae15f3	0.3400112
181	0x3b37924f	0.002801079
182	0x3ec51771	0.38494447
183	0x3e69d94c	0.22836798
184	0x3e2a004c	0.16601676
185	0xbe0f434e	-0.13990518
186	0x3e5f87a2	0.21829084
187	0xbee77f80	-0.45214462
188	0x3e579175	0.21051581
189	0xbd26ae9c	-0.040693864
190	0x3e961d49	0.29319218
191	0xbd75a543	-0.05997206
192	0xbd30b1ab	-0.043138187
193	0xbe7897df	-0.24276684
194	0xbc7abe32	-0.015304135
195	0x3e3199ad	0.17343779
196	0xbea0ff2d	-0.31444684
197	0x3ea08787	0.313534
198	0x3ebe7d55	0.37204996
199	0x3e84c08b	0.2592815
200	0xbcf2e597	-0.029650493
201	0xbebcf28b	-0.36903796
202	0x3dddc68d	0.10828886
203	0x3e6e2184	0.23254973
204	0xbea7db09	-0.32784298
205	0xbee064c7	-0.43826887
206	0xbe3b3a4e	-0.1828396
207	0x3de4c8a7	0.11171084
208	0x3cc1d935	0.023663143
209	0x3e96e344	0.29470265
210	0xbcd63048	-0.02614607
211	0x3e567ef9	0.20946874
212	0xbe9d8ab3	-0.30769882
213	0xbe64aeff	-0.2233238
214	0xbcbd4b52	-0.023107205
215	0x3e2aa4d4	0.1666444
216	0xbe5abc09	-0.21360792
217	0x3e5c0267	0.21485291
218	0xbd512c19	-0.051067445
219	0xbb4bba63	-0.0031086437
220	0xbcde1d0a	-0.027113456
221	0x3e8bd463	0.27310476
222	0x3e357e35	0.17723925
223	0x3e7064f8	0.23476017
224	0xbdf255b6	-0.11832754
225	0x3ed3a9e6	0.4134056
226	0x3e9f16de	0.31072134
227	0x3ec5c155	0.38624063
228	0xbe92fbb9	-0.28707674
229	0xbee5d7ef	-0.44891307
230	0x3de0e651	0.10981429
231	0x3e8a624a	0.27028114
232	0x3e77f5e0	0.24214888
233	0xbe7335eb	-0.23751037
234	0x3e2fc3b8	0.17164505
235	0x3c08d4e0	0.008351535
236	0x3e8b34b8	0.2718866
237	0x3e03688f	0.12832855
238	0x3db9a49e	0.09064601
239	0xbd95c98a	-0.07313831
240	0x3eb05f24	0.34447587
241	0xbe8684e9	-0.26273277
242	0x3ea92c2d	0.33041516
243	0x3df02995	0.11726681
244	0x3e66d814	0.22543365
245	0xbe3a6c6a	-0.18205419
246	0x3e7e850d	0.24855442
247	0x3eb1259d	0.3459901
248	0xbc250852	-0.0100727845
249	0x3da76066	0.081726834
250	0x3e6277e4	0.22116047
251	0xbea63f8b	-0.32470354
252	0xbeb5f714	-0.35540068
253	0xbe208968	-0.15677416
254	0xbdfb7697	-0.122784786
255	0x3e5c5537	0.21516882

fc_layers.2.bias f4 [10]
0	0xbdffa087	-0.1248179
1	0x3da90b98	0.082541645
2	0x3e72a4a1	0.23695613
3	0xbc5e1fcb	-0.013557385
4	0xbdd7a9f6	-0.10530464
5	0x3e911691	0.2833753
6	0xbe172fb7	-0.14764296
7	0x3df966b8	0.12177795
8	0xbe5386a9	-0.20656838
9	0x3ca23465	0.019800374
