trained_lenet5.pt (torch, 249991 bytes, 10 tensors)

conv_layers.0.weight f4 [6, 1, 5, 5]
-0.2655677 -0.6508631 -0.8031974 -0.43499124 -0.40847835 -0.6665806 -1.0048168 -0.47918773
-0.06755263 0.050654 -0.31552973 -0.36406913 0.2200674 0.41162196 0.43281385 -0.08203529
0.42559505 0.46466073 0.80279535 0.48059487 0.27676892 0.5176231 0.47413749 0.42959383
0.25931293 0.22444347 0.21581633 0.49235195 0.84738547 0.84271985 -0.24966383 -0.2663593
0.09892886 0.8518939 1.0179038 -0.6720805 -0.6252657 -0.15919971 0.38189796 0.51355886
-0.6807652 -0.63084346 -0.05735115 0.104270935 -0.24648933 -0.21490848 -0.24408089 -0.2186223
-0.39124528 -0.041349035 -0.07473981 0.4213116 0.42187345 0.473169 -0.0963884 0.37573856
0.94440675 0.9436494 0.69500214 -0.12868471 0.33410373 0.60118526 0.5800963 0.2348238
-0.12759237 -0.21227947 -0.111709654 -0.14246975 -0.22092113 -0.41043773 -0.69352037 -0.5472769
-0.7187192 -0.51094735 -0.49294928 -0.5243602 -0.60554826 -0.49996066 -0.39638093 0.14338776
0.21192 0.046946377 -0.023845041 0.49666342 0.4884943 0.6876655 0.42576233 0.63925695
0.7383176 0.5591643 0.59597737 0.5559179 0.50537294 0.52245593 0.1019939 0.63373494
0.34169915 0.23881939 -0.29141042 -0.20859033 -0.5348805 -0.12293953 0.10259526 0.49052697
0.03275397 -0.009883471 0.2590822 0.6391766 0.7647454 0.7090671 -0.0829905 0.09260704
0.64454913 0.91818506 0.5969827 -0.30845684 -0.20551592 0.11452864 0.07405646 -0.26578915
-0.5777293 -0.59705216 -0.6993928 -0.8847247 -0.40368003 0.70826787 0.098453775 -0.12373102
-0.46250215 -0.24896379 0.02502713 -0.017534772 -0.26467052 -0.53224117 -0.6177091 -0.03902329
-0.26193374 -0.67029023 -0.5369542 -0.40044168 -0.009621197 -0.27604735 -0.5415649 -0.6055767
-0.29171324 -0.2016694 -0.643501 -0.5582978 -0.6083918 -0.05055781
00000000: 7df8 87be f79e 26bf 589e 4dbf 2cb7 debe
00000010: 1324 d1be 07a5 2abf d69d 80bf 1858 f5be
00000020: 0959 8abd 927a 4f3d 1d8d a1be 4567 babe
00000030: 5959 613e 1dc0 d23e c799 dd3e 1e02 a8bd
00000040: 98e7 d93e 03e8 ed3e ff83 4d3f 8810 f63e
00000050: a8b4 8d3e f382 043f 26c2 f23e b9f3 db3e
00000060: aac4 843e 82d4 653e f5fe 5c3e 8e15 fc3e
00000070: 41ee 583f 7dbc 573f e0a7 7fbe 3f60 88be
00000080: 379b ca3d b815 5a3f ac4a 823f 780d 2cbf
00000090: 6a11 20bf 4005 23be 2188 c33e 9878 033f
000000a0: a146 2ebf f57e 21bf 0ae9 6abd 008c d53d
000000b0: b367 7cbe f810 5cbe 57f0 79be 86de 5fbe
000000c0: 4d51 c8be 9b5d 29bd 2f11 99bd 27b6 d73e
000000d0: ccff d73e 3543 f23e 4867 c5bd ce60 c03e
000000e0: a4c4 713f 0293 713f a9eb 313f edc5 03be
000000f0: a50f ab3e 47e7 193f 3181 143f a675 703e
00000100: 93a7 02be ca5f 59be 08c8 e4bd 97e3 11be
00000110: 2639 62be e524 d2be 8d8a 31bf 571a 0cbf
00000120: fbfd 37bf 72cd 02bf d963 fcbe 783c 06bf
00000130: 3605 1bbf d8fa ffbe 71f2 cabe 3ed4 123e
00000140: 8e01 593e d84a 403d ad56 c3bc ab4a fe3e
00000150: ed1b fa3e d90a 303f 85fd d93e 58a6 233f
00000160: 6202 3d3f 6425 0f3f f991 183f a350 0e3f
00000170: 1f60 013f acbf 053f 2ee2 d03d 743c 223f
00000180: 31f3 ae3e 128d 743e bf33 95be b498 55be
00000190: eeed 08bf b8c7 fbbd 771d d23d 5a26 fb3e
000001a0: 0729 063d 48ee 21bc 6ca6 843e 14a1 233f
000001b0: 5bc6 433f 6c85 353f ecf6 a9bd c3a8 bd3d
000001c0: 2c01 253f 2d0e 6b3f dcd3 183f 0eee 9dbe
000001d0: c472 52be fe8d ea3d eaaa 973d 8415 88be
000001e0: 11e6 13bf 69d8 18bf 680b 33bf 517d 62bf
000001f0: 26af cebe 0b51 353f 22a2 c93d b066 fdbd
00000200: 15cd ecbe 5df0 7ebe b205 cd3c 15a5 8fbc
00000210: e582 87be f540 08bf 2f22 1ebf e3d6 1fbd
00000220: 2e1c 86be 2498 2bbf d575 09bf b106 cdbe
00000230: 3aa2 1dbc 1456 8dbe ffa3 0abf 1307 1bbf
00000240: 705b 95be 6c82 4ebe 7bbc 24bf 9bec 0ebf
00000250: 91bf 1bbf b515 4fbd

conv_layers.0.bias f4 [6]
-0.0725353 -0.40148166 -0.2616918 -0.39063624 -0.07349281 0.51264757
00000000: 638d 94bd 018f cdbe 78fc 85be 7901 c8be
00000010: 6683 96bd df3c 033f

conv_layers.3.weight f4 [16, 6, 5, 5]
0.049351696 -0.051214676 -0.1464906 -0.15436117 -0.013038185 -0.05265462 0.043460127 0.39411613
0.30001852 0.12660399 -0.0015947293 0.18586715 0.3992812 0.52552795 0.5949562 -0.16833667
-0.29368666 -0.3181053 -0.09122019 0.32199785 -0.40704286 -0.04704637 0.029365411 0.16552997
0.4651016 -0.25295618 -0.22786812 0.095481664 0.20444643 0.049206145 -0.29381973 -0.36822334
-0.220909 0.12807907 0.34165603 -0.22957088 -0.21267772 -0.27297756 -0.341113 -0.29215497
-0.07268726 0.25373632 0.18689194 0.29033 -0.028747376 -0.0384908 -0.039799936 -0.08275696
0.13454798 0.13986032 -0.011722676 -0.122923635 -0.029243069 0.16987647 0.19548647 0.07429534
-0.26597387 -0.42861062 -0.4021492 -0.1709658 0.18996777 0.032699443 0.00596748 -0.26250887
-0.29961908 0.34670752 0.42174774 0.3877748 0.2546476 -0.04302036 0.34408855 0.11875644
-0.03791406 -0.20112845 -0.23809369 -0.056265283 -0.21627939 -0.0163518 -0.019169865 -0.12539834
0.11948268 0.1035885 -0.032074925 -0.13689443 -0.058236547 0.27410752 0.27650684 0.27621707
0.17365313 -0.12796685 0.39102682 0.2670986 0.3254614 0.26245934 0.119810455 0.07964357
0.0859687 0.0041102585 0.20520389 0.39137405 -0.08280954 -0.13152947 0.017030215 0.20658745
-0.003926813 -0.18832894 -0.35891095 -0.54666686 -0.256475 0.09828139 0.010095414 0.09558265
-0.10100598 0.06372081 0.09532865 -0.021829287 0.2182597 0.2471523 0.33718923 0.21946014
-0.01374277 -0.1090359 -0.15748228 0.019517638 0.28955534 0.19708726 0.045105815 -0.0511951
-0.06459613 0.09691932 -0.018141523 -0.19042481 -0.0129178045 -0.06527551 0.11401627 -0.17528693
-0.35941964 -0.29969054 -0.16793741 0.057092648 -0.15582447 -0.26787516 -0.2719254 -0.4018307
-0.024337016 0.062940165 0.005559218 0.14420335 -0.19062312 -0.4766019 -0.4098736 0.0860684
-0.004860638 0.0062180823 0.04678829 -0.010206229 0.0006837517 -0.39925885 -0.12554522 -0.03225686
0.19359411 -0.42159835 -0.4494535 0.025725506 -0.0250766 -0.18086113 -0.6863256 -0.24343067
0.15677033 -0.008560137 -0.36477193 -0.29625386 -0.12147027 -0.006771922 -0.06716483 -0.0055375504
0.0777334 -0.17305541 -0.1698511 -0.19894539 -0.0178796 0.08276675 -0.4026757 -0.028910706
-0.145665 0.30105376 -0.14587444 -0.2641396 0.24932198 -0.037337154 -0.01177936 -0.30532876
0.18187468 0.29306185 -0.00035724873 -0.18862253 -0.15565051 0.19345364 0.17332004 0.032903112
0.4102457 -0.022642272 0.014025907 -0.060660563 -0.07935793 0.05185115 0.28947282 0.19651997
0.030794784 -0.07418467 0.013990944 0.4863116 -0.012457593 -0.27610162 -0.23009841 0.3756689
0.22861232 -0.12794991 -0.28708512 -0.14921494 0.5541718 0.1645462 -0.091065355 -0.17312947
-0.15983613 0.033597328 0.070457235 0.06577829 -0.12248583 -0.047597837 0.11720094 0.09347196
-0.067818545 -0.1701419 -0.21503887 0.28926203 0.16456966 0.0046001594 -0.1167203 -0.1575211
0.52128285 0.29931673 -0.069937 -0.23008391 -0.23466016 0.4375368 -0.13849206 -0.23591565
-0.24299584 -0.39312455 0.22379477 0.0113220755 -0.049673907 0.013309854 -0.050062917 0.20949706
00000000: 0125 4a3d 7bc6 51bd a201 16be db10 1ebe
00000010: 1d9e 55bc 5fac 57bd 3f03 323d 97c9 c93e
00000020: 079c 993e 7aa4 013e 3c06 d1ba f553 3e3e
00000030: 966e cc3e 0089 063f 0d4f 183f 7360 2cbe
00000040: 195e 96be b3de a2be a7d1 babd e7dc a43e
00000050: ec67 d0be b2b3 40bd bb8f f03c b080 293e
00000060: cc21 ee3e 7983 81be 4356 69be e48b c33d
00000070: 685a 513e 628c 493d 8a6f 96be c587 bcbe
00000080: f835 62be 2927 033e 8aed ae3e a114 6bbe
00000090: 30c8 59be b7c3 8bbe 5da6 aebe 5695 95be
000000a0: 0fdd 94bd bae9 813e 9a60 3f3e 22a6 943e
000000b0: 9e7f ebbc 87a8 1dbd 4205 23bd 7b7c a9bd
000000c0: f2c6 093e 8b37 0f3e 7810 40bc 63bf fbbd
000000d0: 298f efbc 19f4 2d3e 9b2d 483e 2828 983d
000000e0: ba2d 88be da72 dbbe 80e6 cdbe a911 2fbe
000000f0: e986 423e daef 053d da8a c33b 9067 86be
00000100: ac67 99be a683 b13e 52ef d73e 6b8a c63e
00000110: 2c61 823e 1e36 30bd 602c b03e 9436 f33d
00000120: c64b 1bbd 9ef4 4dbe d5ce 73be 6d76 66bd
00000130: 5878 5dbe 36f4 85bc 1f0a 9dbc 6c68 00be
00000140: 56b3 f43d 3526 d43d ff60 03bd 0e2e 0cbe
00000150: 7289 6ebd d257 8c3e 4e92 8d3e 536c 8d3e
00000160: 20d2 313e be09 03be ab34 c83e 26c1 883e
00000170: e0a2 a63e 1261 863e 2f5f f53d 2b1c a33d
00000180: 5c10 b03d 59af 863b f820 523e 2e62 c83e
00000190: 0c98 a9bd a9af 06be f382 8b3c a98b 533e
000001a0: 7fac 80bb 4dd9 40be 2dc3 b7be 5cf2 0bbf
000001b0: b150 83be c147 c93d 3c67 253c d6c0 c33d
000001c0: 39dc cebd 0e80 823d ab3b c33d 55d3 b2bc
000001d0: 797f 5f3e 7e15 7d3e 11a4 ac3e 29ba 603e
000001e0: 5b29 61bc 374e dfbd 0943 21be 74e3 9f3c
000001f0: 9940 943e 3ed1 493e e0c0 383d f4b1 51bd
00000200: fa4a 84bd a37d c63d 889d 94bc b9fe 42be
00000210: 33a5 53bc 2baf 85bd 5d81 e93d 6b7e 33be
00000220: da05 b8be 0a71 99be c9f7 2bbe fbd9 693d
00000230: 7390 1fbe ef26 89be ce39 8bbe c1bc cdbe
00000240: 6c5e c7bc c6e6 803d 1a2a b63b 0baa 133e
00000250: b532 43be 2a05 f4be f4da d1be a144 b03d
00000260: fd45 9fbb 0ec1 cb3b 14a5 3f3d 0738 27bc
00000270: cd3d 333a a86b ccbe ed8e 00be c51f 04bd
00000280: 893d 463e bddb d7be c51e e6be 4cbe d23c
00000290: 716d cdbc a933 39be 09b3 2fbf e445 79be
000002a0: 6788 203e d13f 0cbc 63c3 babe 96ae 97be
000002b0: 68c5 f8bd 00e7 ddbb b78d 89bd 5774 b5bb
000002c0: b032 9f3d 7035 31be 72ed 2dbe 57b8 4bbe
000002d0: 3d78 92bc 9d81 a93d 822b cebe 25d6 ecbc
000002e0: 3529 15be b823 9a3e 1c60 15be 4e3d 87be
000002f0: 434e 7f3e d8ee 18bd 37fe 40bc 0d54 9cbe
00000300: 5b3d 3a3e 340c 963e 1d4d bbb9 4426 41be
00000310: d962 1fbe b618 463e cf7a 313e 6ac5 063d
00000320: b90b d23e 497c b9bc ebcc 653c 3677 78bd
00000330: 6986 a2bd df61 543d c835 943e 883c 493e
00000340: 5845 fc3c 22ee 97bd 463a 653c d6fd f83e
00000350: ef1a 4cbc 315d 8dbe eb9e 6bbe ad57 c03e
00000360: 5919 6a3e 4d05 03be d2fc 92be cdcb 18be
00000370: 34de 0d3f cd7e 283e 7980 babd da48 31be
00000380: 15ac 23be 5a9d 093d e24b 903d c5b6 863d
00000390: dad9 fabd f3f5 42bd 0c07 f03d 3a6e bf3d
000003a0: 73e4 8abd ae39 2ebe 2633 5cbe 271a 943e
000003b0: f384 283e efbc 963b 0d0b efbd 364d 21be
000003c0: cb72 053f 0b40 993e 213b 8fbd 1e9b 6bbe
000003d0: c14a 70be d304 e03e ddd0 0dbe df93 71be
000003e0: e7d3 78be 9f47 c9be 752a 653e 3a80 393c
000003f0: de76 4bbd 9311 5a3c c60e 4dbd 6686 563e

conv_layers.3.bias f4 [16]
-0.1682646 0.100180574 -0.0070065954 0.035140127 -0.021353435 0.43472773 0.06524506 -0.24821033
-0.31566817 0.18269299 -0.5071237 -0.046598587 -0.39472356 0.12103688 0.11010209 -0.4211876
00000000: 8e4d 2cbe 792b cd3d 9597 e5bb 18ef 0f3d
00000010: 66ed aebc a294 de3e 349f 853d d92a 7ebe
00000020: 429f a1be df13 3b3e dcd2 01bf 29de 3ebd
00000030: 3519 cabe 2fe2 f73d 347d e13d e7a5 d7be

conv_layers.6.weight f4 [120, 16, 5, 5]
-0.029600438 -0.023993371 0.10797644 0.039429925 0.033768915 -0.023815421 -0.002169961 -0.040726624
0.06947384 0.035893876 -0.0604308 -0.036873993 -0.077018306 -0.12058739 -0.04349062 -0.04822983
0.036820564 0.023757903 0.012475926 -0.055986427 0.03238394 -0.019502055 -0.0006942942 0.067036256
-0.051041584 0.0321204 -0.07723796 -0.03709909 0.020891944 -0.06878936 0.0026941646 -0.0813518
0.030945191 -0.03564106 -0.0857121 0.002745364 0.013473525 0.008576777 0.08345711 0.020596288
0.06102305 0.105140425 0.07691419 0.002095508 -0.030739931 -0.038539886 0.009991339 0.034834184
0.02561955 -0.047418486 0.06484616 -0.007148142 -0.08606352 -0.07513649 0.016487395 0.105619095
-0.057354808 -0.068346605 -0.07834636 -0.091394976 0.015613865 -0.01817559 0.016988097 0.09056466
0.022929963 0.042757854 -0.06910383 -0.034673035 0.119418666 7.163882e-05 -0.023213243 -0.08553134
0.05380137 -0.063110076 -0.05760733 -0.013326041 -0.049302023 0.007553638 0.067675024 0.060106967
-0.0024091618 -0.08454965 -0.062267143 -0.083506785 -0.03581373 0.062458396 -0.018257467 -0.025495086
-0.08251543 -0.026042622 0.035119865 0.08784291 0.014509272 0.09743543 0.035857715 -0.021400198
-0.059036065 -0.057029378 -0.0031114377 -0.030109486 -0.005042666 0.020742929 -0.050385784 0.0030004696
-0.060953233 0.003984548 0.08956396 0.061881498 -0.08360758 -0.09690699 -0.03736529 0.04392611
0.034057025 -0.058766123 0.06355576 -0.044285435 -0.008581663 -0.03678895 -0.032372102 0.005746477
0.006315758 -0.06895269 -0.012717162 0.015610232 0.03629789 0.034360237 0.017378021 0.016998682
-0.024274932 -0.07371056 0.092981026 0.04021958 0.07153041 -0.007451892 -0.020192076 -0.018039616
-0.06551099 -0.11226393 -0.12718534 -0.049490247 0.041296706 0.00035546115 -0.00840726 -0.03698311
0.09069862 -0.085914075 0.03542684 -0.019652909 0.041298583 0.055593506 0.04599059 0.03198318
0.09889724 0.047134463 0.105358884 -0.072633274 -0.020605356 0.01843672 0.118198924 0.040941734
0.05222829 -0.0470989 -0.08801652 0.03565749 0.0057309424 0.04435687 -0.012670347 0.08283384
0.016355326 0.076250024 -0.04192579 0.03693185 0.078706495 0.0043516057 -0.055631395 0.05593234
-0.017068233 -0.119687386 0.026382899 -0.008256613 0.11530561 0.021648437 -0.028555918 -0.09992538
-0.028114924 -0.03388609 -0.058103804 0.13345096 -0.065769136 -0.04308934 -0.10025635 -0.04640231
-0.0699546 0.0056554857 -0.027665744 0.010718081 -0.08328962 0.014751021 0.034025438 0.02902454
-0.058366165 -0.05636723 0.07401387 0.037615724 0.07009097 0.005406398 -0.075674176 -0.07486341
0.06185459 -0.010105689 0.04907913 0.040600576 -0.07619077 0.049227044 -0.014907405 0.038520478
-0.018822672 0.025693785 -0.10413399 -0.06357277 -0.0050352374 -0.014293557 -0.093376145 -0.062359195
0.009937869 -0.006068021 0.015934065 -0.03375868 0.03081034 0.05249919 0.011641788 0.04692403
0.0788429 -0.08203296 -0.056603424 -0.020755604 0.08683967 0.18950638 0.16786124 0.056941953
-0.021303684 -0.07782188 0.04736521 0.024735916 -0.04774011 0.0002230933 0.0792722 -0.0017977188
-0.081623465 -0.063684456 0.015357076 -0.070641145 0.014514577 -0.06444743 0.026933989 -0.00836579
00000000: 9e7c f2bc bf8d c4bc c022 dd3d 4681 213d
00000010: 4651 0a3d 8f18 c3bc e835 0ebb f6d0 26bd
00000020: 4d48 8e3d 7505 133d 4986 77bd 2f09 17bd
00000030: c6bb 9dbd 86f6 f6bd 3823 32bd a48c 45bd
00000040: 29d1 163d ef9f c23c d467 4c3c 0652 65bd
00000050: 06a5 043d c6c2 9fbc 4c01 36ba 4e4a 893d
00000060: fb10 51bd ae90 033d f02e 9ebd 37f5 17bd
00000070: 9525 ab3c 70e1 8cbd 9590 303b c69b a6bd
00000080: c580 fd3c 5cfc 11bd d389 afbd 91eb 333b
00000090: 0fc0 5c3c 9c85 0c3c 90eb aa3d 8cb9 a83c
000000a0: 4ef3 793d dd53 d73d 3085 9d3d ca54 093b
000000b0: 4fd2 fbbc 00dc 1dbd b7b2 233c 4aae 0e3d
000000c0: 17e0 d13c e339 42bd 10ce 843d f63a eabb
000000d0: 1242 b0bd 29e1 99bd 9310 873c d34e d83d
000000e0: e0ec 6abd 4ef9 8bbd 0e74 a0bd 4a2d bbbd
000000f0: 4cd1 7f3c fae4 94bc 9f2a 8b3c f779 b93d
00000100: 9ed7 bb3c dc22 2f3d 4f86 8dbd 5005 0ebd
00000110: c691 f43d cc3c 9638 b329 bebc 0e2b afbd
00000120: d35e 5c3d db3f 81bd aaf5 6bbd 7855 5abc
00000130: ebf0 49bd 8284 f73b 3499 8a3d b932 763d
00000140: 07e3 1dbb 5e28 adbd d50b 7fbd 9b05 abbd
00000150: 6bb1 12bd 60d4 7f3d af90 95bc 12db d0bc
00000160: dafd a8bd 5657 d5bc d9d9 0f3d fce6 b33d
00000170: 4cb8 6d3c 3a8c c73d 8adf 123d 784f afbc
00000180: cdcf 71bd a397 69bd 43e9 4bbb 2ba8 f6bc
00000190: f33c a5bb 13ed a93c 5361 4ebd 87a3 443b
000001a0: 19aa 79bd d090 823b 4f6d b73d 7477 7d3d
000001b0: 733a abbd 2c77 c6bd 590c 19bd ddeb 333d
000001c0: 617f 0b3d bfb4 70bd 8629 823d a564 35bd
000001d0: 1a9a 0cbc 03b0 16bd 9c98 04bd f14c bc3b
000001e0: 6bf4 ce3b 1137 8dbd a55b 50bc 0fc2 7f3c
000001f0: 19ad 143d 52bd 0c3d 5a5c 8e3c d240 8b3c
00000200: 39dc c6bc 90f5 96bd d66c be3d 49bd 243d
00000210: 897e 923d 002f f4bb da69 a5bc d1c7 93bc
00000220: a02a 86bd a2ea e5bd e03c 02be 49b6 4abd
00000230: bc26 293d 305d ba39 9bbe 09bc 9a7b 17bd
00000240: 33c0 b93d b8f3 afbd bc1b 113d 23ff a0bc
00000250: b428 293d 04b6 633d a160 3c3d cc00 033d
00000260: a38a ca3d 1110 413d 66c6 d73d c1c0 94bd
00000270: 90cc a8bc 9b08 973c 4712 f23d 85b2 273d
00000280: 55ed 553d c7ea 40bd 0142 b4bd 970d 123d
00000290: a1ca bb3b 8daf 353d 4997 4fbc caa4 a93d
000002a0: 9bfb 853c f928 9c3d 61ba 2bbd da45 173d
000002b0: df30 a13d ea97 8e3b bfdd 63bd 4f19 653d
000002c0: aed2 8bbc a91e f5bd f320 d83c bf46 07bc
000002d0: 5925 ec3d 1058 b13c 1aee e9bc ada5 ccbd
000002e0: 4551 e6bc 24cc 0abd 41fe 6dbd 5ea7 083e
000002f0: f8b1 86bd 737e 30bd 3453 cdbd 5910 3ebd
00000300: 5b44 8fbd a751 b93b 45a3 e2bc e49a 2f3c
00000310: c093 aabd 44ae 713c 425e 0b3d dfc4 ed3c
00000320: 5c11 6fbd 53e1 66bd 9594 973d f212 1a3d
00000330: db8b 8f3d 2728 b13b 10fb 9abd fd51 99bd
00000340: 3d5b 7d3d 5592 25bc 3307 493d ca4c 263d
00000350: e809 9cbd 4ca2 493d 303e 74bc a6c7 1d3d
00000360: 0132 9abc c67b d23c 3444 d5bd 7132 82bd
00000370: a2fe a4bb 862f 6abc fe3b bfbd 5b6c 7fbd
00000380: 72d2 223c 40d6 c6bb 2888 823c 8b46 0abd
00000390: f765 fc3c 6409 573d 33bd 3e3c 6933 403d
000003a0: 6378 a13d e600 a8bd fed8 67bd a807 aabc
000003b0: ffd8 b13d f60d 423e d1e3 2b3e f73b 693d
000003c0: 1085 aebc 1461 9fbd 0602 423d faa2 ca3c
000003d0: 228b 43bd 27ee 6939 7759 a23d 6fa1 ebba
000003e0: 342a a7bd ff6c 82bd 3f9c 7b3c 4eac 90bd
000003f0: 8cce 6d3c 04fd 83bd aba4 dc3c ab10 09bc

conv_layers.6.bias f4 [120]
0.048066314 0.03130334 0.06530177 0.037719157 -0.09218884 0.032642286 -0.12565133 -0.024319364
-0.11616651 0.03722234 -0.15183584 0.037083626 -0.026800664 -0.051471557 -0.020222241 0.0014320092
0.06639115 0.069210224 0.075275175 -0.06501099 0.07118193 0.0076116687 0.05359882 0.05314204
0.08657904 0.002227322 -0.101956874 -0.0026219385 0.02614618 -0.027014818 -0.010799967 -0.06635394
-0.019947935 0.09508919 -0.09183108 0.0061472054 0.038415637 0.03025227 -0.00027256392 -0.038214818
-0.026657116 -0.0804023 0.026040861 0.036563694 -0.096713856 0.11291597 -0.035493527 0.106138825
-0.1584606 0.056103516 -0.043054298 0.038729798 0.08243584 0.065962404 -0.026815169 -0.03463275
-0.0638258 -0.028648002 -0.032353148 -0.06598555 0.116012655 -0.09046963 0.029115655 0.011686479
0.0478772 0.08550141 0.15635563 -0.055570178 -0.10135989 0.0699305 0.006063136 -0.0818387
0.022014389 -0.0961377 0.04813882 -0.006246599 0.117959954 0.0169488 -0.03094009 -0.11500987
0.0069366107 -0.13186833 -0.025659192 -0.044323552 0.06584382 -0.037568796 -0.044590812 -0.039114874
-0.015724871 0.1708767 0.09997885 -0.082722634 -0.00027680275 0.03424558 0.0168454 -0.044940274
-0.0180001 -0.039800424 -0.09456944 -0.0010375095 0.020626118 0.030068384 0.032514837 -0.14775974
0.09420664 0.08096439 0.077313215 -0.051974427 0.0024883107 0.08397806 -0.012955922 -0.15354893
-0.09339188 -0.0050443863 -0.097500764 -0.036443673 0.012899145 -0.07193202 0.12608555 0.16258451
00000000: 2fe1 443d ee37 003d efbc 853d 677f 1a3d
00000010: 81cd bcbd ebb3 053d beaa 00be 6739 c7bc
00000020: b5e8 edbd 7476 183d db7a 1bbe 00e5 173d
00000030: 118d dbbc d7d3 52bd 1da9 a5bc 41b2 bb3a
00000040: 15f8 873d 17be 8d3d df29 9a3d 7b24 85bd
00000050: d5c7 913d 4e6b f93b 708a 5b3d 78ab 593d
00000060: 5a50 b13d 43f8 113b c4ce d0bd d4d4 2bbb
00000070: 8430 d63c 2e4e ddbc 58f2 30bc 93e4 87bd
00000080: da69 a3bc 1fbe c23d ef11 bcbd 7f6e c93b
00000090: b759 1d3d 9cd3 f73c e9e6 8eb9 2487 1cbd
000000a0: 0660 dabc f6a9 a4bd a553 d53c d0c3 153d
000000b0: ea11 c6bd 7d40 e73d a961 11bd 505f d93d
000000c0: 7f43 22be cdcc 653d b459 30bd 23a3 1e3d
000000d0: 1fd4 a83d 4c17 873d 7cab dbbc 12db 0dbd
000000e0: 1ab7 82bd 37af eabc bc84 04bd 6f23 87bd
000000f0: 0b98 ed3d 2448 b9bd f483 ee3c a578 3f3c
00000100: e21a 443d 5d1b af3d b11b 203e 8e9d 63bd
00000110: c695 cfbd b937 8f3d 45ad c63b 0c9b a7bd
00000120: 8557 b43c d8e3 c4bd 362d 453d 45b0 ccbb
00000130: fd94 f13d 36d8 8a3c 1276 fdbc 4b8a ebbd
00000140: 824c e33b 7e08 07be 3a33 d2bc 9d8c 35bd
00000150: 20d9 863d bde1 19bd dba4 36bd eb36 20bd
00000160: 72d1 80bc 4dfa 2e3e b6c1 cc3d 7c6a a9bd
00000170: d61f 91b9 1845 0c3d 5dff 893c 4b13 38bd
00000180: f274 93bc c505 23bd 9fad c1bd 0bfd 87ba
00000190: 1bf8 a83c f951 f63c 472e 053d 544e 17be
000001a0: 69ef c03d a8d0 a53d 6456 9e3d 23e3 54bd
000001b0: ed12 233b b0fc ab3d 1345 54bc ee3b 1dbe
000001c0: 3e44 bfbd 614b a5bb 7bae c7bd f645 15bd
000001d0: ef56 533c 1851 93bd 921c 013e 8e7c 263e

fc_layers.0.weight f4 [84, 120]
0.0 0.0 0.0 0.0 0.0 0.0 0.0 0.0
0.0 0.0 0.0 0.0 0.0 0.0 0.0 0.0
0.0 0.0 0.0 0.0 0.0 0.0 0.0 0.0
0.0 0.0 0.0 0.0 0.0 0.0 0.0 0.0
0.0 0.0 0.0 0.0 0.0 0.0 0.0 0.0
0.0 0.0 0.0 0.0 0.0 0.0 0.0 0.0
0.0 0.0 0.0 0.0 0.0 0.0 0.0 0.0
0.0 0.0 0.0 0.0 0.0 0.0 0.0 0.0
0.0 0.0 0.0 0.0 0.0 0.0 0.0 0.0
0.0 0.0 0.0 0.0 0.0 0.0 0.0 0.0
0.0 0.0 0.0 0.0 0.0 0.0 0.0 0.0
0.0 0.0 0.0 0.0 0.0 0.0 0.0 0.0
0.0 0.0 0.0 0.0 0.0 0.0 0.0 0.0
0.0 0.0 0.0 0.0 0.0 0.0 0.0 0.0
0.0 0.0 0.0 0.0 0.0 0.0 0.0 0.0
0.0 0.0 0.0 0.0 0.0 0.0 0.0 0.0
0.0 0.0 0.0 0.0 0.0 0.0 0.0 0.0
0.0 0.0 0.0 0.0 0.0 0.0 0.0 0.0
0.0 0.0 0.0 0.0 0.0 0.0 0.0 0.0
0.0 0.0 0.0 0.0 0.0 0.0 0.0 0.0
0.0 0.0 0.0 0.0 0.0 0.0 0.0 0.0
0.0 0.0 0.0 0.0 0.0 0.0 0.0 0.0
0.0 0.0 0.0 0.0 0.0 0.0 0.0 0.0
0.0 0.0 0.0 0.0 0.0 0.0 0.0 0.0
0.0 0.0 0.0 0.0 0.0 0.0 0.0 0.0
0.0 0.0 0.0 0.0 0.0 0.0 0.0 0.0
0.0 0.0 0.0 0.0 0.0 0.0 0.0 0.0
0.0 0.0 0.0 0.0 0.0 0.0 0.0 0.0
0.0 0.0 0.0 0.0 0.0 0.0 0.0 0.0
0.0 0.0 0.0 0.0 0.0 0.0 0.0 0.0
0.0 0.0 0.0 0.0 0.0 0.0 0.0 0.0
0.0 0.0 0.0 0.0 0.0 0.0 0.0 0.0
00000000: 0000 0000 0000 0000 0000 0000 0000 0000
00000010: 0000 0000 0000 0000 0000 0000 0000 0000
00000020: 0000 0000 0000 0000 0000 0000 0000 0000
00000030: 0000 0000 0000 0000 0000 0000 0000 0000
00000040: 0000 0000 0000 0000 0000 0000 0000 0000
00000050: 0000 0000 0000 0000 0000 0000 0000 0000
00000060: 0000 0000 0000 0000 0000 0000 0000 0000
00000070: 0000 0000 0000 0000 0000 0000 0000 0000
00000080: 0000 0000 0000 0000 0000 0000 0000 0000
00000090: 0000 0000 0000 0000 0000 0000 0000 0000
000000a0: 0000 0000 0000 0000 0000 0000 0000 0000
000000b0: 0000 0000 0000 0000 0000 0000 0000 0000
000000c0: 0000 0000 0000 0000 0000 0000 0000 0000
000000d0: 0000 0000 0000 0000 0000 0000 0000 0000
000000e0: 0000 0000 0000 0000 0000 0000 0000 0000
000000f0: 0000 0000 0000 0000 0000 0000 0000 0000
00000100: 0000 0000 0000 0000 0000 0000 0000 0000
00000110: 0000 0000 0000 0000 0000 0000 0000 0000
00000120: 0000 0000 0000 0000 0000 0000 0000 0000
00000130: 0000 0000 0000 0000 0000 0000 0000 0000
00000140: 0000 0000 0000 0000 0000 0000 0000 0000
00000150: 0000 0000 0000 0000 0000 0000 0000 0000
00000160: 0000 0000 0000 0000 0000 0000 0000 0000
00000170: 0000 0000 0000 0000 0000 0000 0000 0000
00000180: 0000 0000 0000 0000 0000 0000 0000 0000
00000190: 0000 0000 0000 0000 0000 0000 0000 0000
000001a0: 0000 0000 0000 0000 0000 0000 0000 0000
000001b0: 0000 0000 0000 0000 0000 0000 0000 0000
000001c0: 0000 0000 0000 0000 0000 0000 0000 0000
000001d0: 0000 0000 0000 0000 0000 0000 0000 0000
000001e0: 0000 0000 0000 0000 0000 0000 0000 0000
000001f0: 0000 0000 0000 0000 0000 0000 0000 0000
00000200: 0000 0000 0000 0000 0000 0000 0000 0000
00000210: 0000 0000 0000 0000 0000 0000 0000 0000
00000220: 0000 0000 0000 0000 0000 0000 0000 0000
00000230: 0000 0000 0000 0000 0000 0000 0000 0000
00000240: 0000 0000 0000 0000 0000 0000 0000 0000
00000250: 0000 0000 0000 0000 0000 0000 0000 0000
00000260: 0000 0000 0000 0000 0000 0000 0000 0000
00000270: 0000 0000 0000 0000 0000 0000 0000 0000
00000280: 0000 0000 0000 0000 0000 0000 0000 0000
00000290: 0000 0000 0000 0000 0000 0000 0000 0000
000002a0: 0000 0000 0000 0000 0000 0000 0000 0000
000002b0: 0000 0000 0000 0000 0000 0000 0000 0000
000002c0: 0000 0000 0000 0000 0000 0000 0000 0000
000002d0: 0000 0000 0000 0000 0000 0000 0000 0000
000002e0: 0000 0000 0000 0000 0000 0000 0000 0000
000002f0: 0000 0000 0000 0000 0000 0000 0000 0000
00000300: 0000 0000 0000 0000 0000 0000 0000 0000
00000310: 0000 0000 0000 0000 0000 0000 0000 0000
00000320: 0000 0000 0000 0000 0000 0000 0000 0000
00000330: 0000 0000 0000 0000 0000 0000 0000 0000
00000340: 0000 0000 0000 0000 0000 0000 0000 0000
00000350: 0000 0000 0000 0000 0000 0000 0000 0000
00000360: 0000 0000 0000 0000 0000 0000 0000 0000
00000370: 0000 0000 0000 0000 0000 0000 0000 0000
00000380: 0000 0000 0000 0000 0000 0000 0000 0000
00000390: 0000 0000 0000 0000 0000 0000 0000 0000
000003a0: 0000 0000 0000 0000 0000 0000 0000 0000
000003b0: 0000 0000 0000 0000 0000 0000 0000 0000
000003c0: 0000 0000 0000 0000 0000 0000 0000 0000
000003d0: 0000 0000 0000 0000 0000 0000 0000 0000
000003e0: 0000 0000 0000 0000 0000 0000 0000 0000
000003f0: 0000 0000 0000 0000 0000 0000 0000 0000

fc_layers.0.bias f4 [84]
0.041372895 -0.038876873 0.111543074 0.05165573 0.22893812 0.0366948 -0.070662774 0.11505835
0.0056659323 -0.0045945286 -0.023167392 -0.08140797 0.0457565 0.1809272 -0.10998433 -0.106036164
0.31982577 0.026631257 -0.19391169 -0.075664744 0.06366799 0.20455447 -0.20036736 0.28278932
-0.06868168 -0.16331445 0.17374219 0.23065661 0.037052546 -0.12062633 0.020377474 -0.006141086
0.11880842 -0.07843725 -0.30620924 -0.035921205 -0.11702718 0.017003546 -0.057035483 -0.020140842
0.053457662 0.031219447 0.092225105 0.03895716 0.008227203 0.19927308 -0.100692034 -0.0014989884
0.02450834 0.031136317 0.34899235 -0.006865263 0.10072221 -0.120331034 -0.12672468 0.028490717
0.018109191 -0.17204054 0.0292613 -0.104595646 0.038593728 0.035680037 -0.25834495 -0.05864253
-0.023757378 -0.02450601 -0.044464566 -0.18936461 0.016633753 0.2623495 -0.028594999 0.099812336
0.11217437 -0.0042010997 -0.033177853 -0.12523699 -0.009493428 -0.09587343 -0.08131947 -0.13698396
-0.060871758 0.17356783 0.35914943 -0.22128513
00000000: a076 293d 5b3d 1fbd b270 e43d f594 533d
00000010: c16e 6a3e 494d 163d a5b7 90bd b6a3 eb3d
00000020: 49a9 b93b b38d 96bb 8bc9 bdbc 39b9 a6bd
00000030: 2b6b 3b3d fb44 393e 773f e1bd 7d29 d9bd
00000040: 34c0 a33e cb29 da3c c990 46be 1ef6 9abd
00000050: 5d64 823d ba76 513e 1a2d 4dbe c3c9 903e
00000060: fba8 8cbd e73b 27be 79e9 313e 3f31 6c3e
00000070: 69c4 173d f00a f7bd a9ee a63c 2a3b c9bb
00000080: d451 f33d b5a3 a0bd 75c7 9cbe 1d22 13bd
00000090: f2ab efbd 054b 8b3c 0a9e 69bd 68fe a4bc
000000a0: 6cf6 5a3d edbf ff3c 84e0 bc3d 8b91 1f3d
000000b0: 64cb 063c 3e0e 4c3e a037 cebd b479 c4ba
000000c0: b7c5 c83c 9711 ff3c 20af b23e 00f6 e0bb
000000d0: 7247 ce3d 1e70 f6bd 1dc4 01be 5d65 e93c
000000e0: ba59 943c 652b 30be 65b5 ef3c 3e36 d6bd
000000f0: 7514 1e3d 3b25 123d ca45 84be 2633 70bd
00000100: d59e c2bc d4c0 c8bc 7a20 36bd cce8 41be
00000110: 8243 883c ac52 863e 0f40 eabc 696a cc3d
00000120: adbb e53d 61a9 89bb 80e5 07bd 203e 00be
00000130: 538a 1bbc 4a59 c4bd d38a a6bd 8645 0cbe
00000140: aa54 79bd c4bb 313e 6fe2 b73e 9298 62be

fc_layers.2.weight f4 [10, 84]
0.0 0.0 0.0 0.0 0.0 0.0 0.0 1.0399383
0.0 0.0 -1.5142145 0.0 0.0 0.0 0.0 0.0
0.0 0.0 1.4719834 0.0 0.0 0.0 0.0 0.0
0.0 0.0 0.0 0.0 0.0 0.0 0.0 0.0
0.0 0.0 0.0 0.0 0.0 0.0 0.0 0.0
0.0 0.0 0.0 0.0 0.0 -1.0002406 0.0 0.0
0.0 0.0 -1.8105963 0.0 0.0 0.0 0.0 0.0
0.0 0.0 0.0 0.0 0.0 0.0 1.7677275 0.0
0.0 0.0 0.0 0.0 0.0 0.0 0.0 0.0
0.0 0.0 0.0 -1.6046653 0.0 0.0 0.0 0.0
0.0 0.0 0.0 1.3417331 0.0 0.0 0.0 1.6204606
0.0 0.0 0.0 -1.4459224 0.0 0.0 -1.4910392 0.0
0.0 0.0 0.0 0.0 0.0 0.0 0.0 0.0
0.0 0.0 0.0 1.0909282 -0.9883151 0.0 0.0 -1.3888142
0.0 -1.3510306 0.0 0.0 0.0 0.0 0.0 0.0
0.0 0.0 0.0 0.0 0.0 0.0 1.4921429 0.0
0.0 0.0 0.0 0.0 0.0 0.0 0.0 0.0
0.0 0.0 0.0 0.0 0.0 0.0 0.0 0.0
0.0 0.0 0.0 0.0 0.0 0.0 0.0 0.0
0.0 0.0 0.0 0.0 0.0 -1.1380895 0.0 0.0
0.0 0.0 0.0 0.0 0.0 0.0 0.0 0.0
0.0 0.0 0.0 0.0 0.0 0.0 -1.301227 -1.3570244
0.0 0.0 0.0 0.0 0.0 0.0 -1.0633392 0.0
0.0 0.0 2.0062315 0.0 0.0 0.0 0.0 0.0
0.0 0.0 0.0 0.0 0.0 0.0 0.0 0.0
1.2080042 0.0 1.3546923 0.0 0.0 0.0 0.0 0.0
0.0 0.0 0.0 0.0 0.0 0.0 0.0 0.0
0.0 0.0 0.0 0.0 0.0 0.0 0.0 0.0
0.0 0.0 0.0 -1.6982962 0.0 0.0 0.0 0.0
0.0 0.0 0.0 0.0 0.0 0.0 0.0 0.0
0.0 0.0 0.0 -1.3657774 0.0 0.0 0.0 0.0
0.0 0.0 0.0 0.0 0.0 0.0 0.0 0.0
00000000: 0000 0000 0000 0000 0000 0000 0000 0000
00000010: 0000 0000 0000 0000 0000 0000 b31c 853f
00000020: 0000 0000 0000 0000 c8d1 c1bf 0000 0000
00000030: 0000 0000 0000 0000 0000 0000 0000 0000
00000040: 0000 0000 0000 0000 f469 bc3f 0000 0000
00000050: 0000 0000 0000 0000 0000 0000 0000 0000
00000060: 0000 0000 0000 0000 0000 0000 0000 0000
00000070: 0000 0000 0000 0000 0000 0000 0000 0000
00000080: 0000 0000 0000 0000 0000 0000 0000 0000
00000090: 0000 0000 0000 0000 0000 0000 0000 0000
000000a0: 0000 0000 0000 0000 0000 0000 0000 0000
000000b0: 0000 0000 e207 80bf 0000 0000 0000 0000
000000c0: 0000 0000 0000 0000 9fc1 e7bf 0000 0000
000000d0: 0000 0000 0000 0000 0000 0000 0000 0000
000000e0: 0000 0000 0000 0000 0000 0000 0000 0000
000000f0: 0000 0000 0000 0000 e544 e23f 0000 0000
00000100: 0000 0000 0000 0000 0000 0000 0000 0000
00000110: 0000 0000 0000 0000 0000 0000 0000 0000
00000120: 0000 0000 0000 0000 0000 0000 ac65 cdbf
00000130: 0000 0000 0000 0000 0000 0000 0000 0000
00000140: 0000 0000 0000 0000 0000 0000 e9bd ab3f
00000150: 0000 0000 0000 0000 0000 0000 416b cf3f
00000160: 0000 0000 0000 0000 0000 0000 fc13 b9bf
00000170: 0000 0000 0000 0000 5fda bebf 0000 0000
00000180: 0000 0000 0000 0000 0000 0000 0000 0000
00000190: 0000 0000 0000 0000 0000 0000 0000 0000
000001a0: 0000 0000 0000 0000 0000 0000 89a3 8b3f
000001b0: 3802 7dbf 0000 0000 0000 0000 aac4 b1bf
000001c0: 0000 0000 92ee acbf 0000 0000 0000 0000
000001d0: 0000 0000 0000 0000 0000 0000 0000 0000
000001e0: 0000 0000 0000 0000 0000 0000 0000 0000
000001f0: 0000 0000 0000 0000 8afe be3f 0000 0000
00000200: 0000 0000 0000 0000 0000 0000 0000 0000
00000210: 0000 0000 0000 0000 0000 0000 0000 0000
00000220: 0000 0000 0000 0000 0000 0000 0000 0000
00000230: 0000 0000 0000 0000 0000 0000 0000 0000
00000240: 0000 0000 0000 0000 0000 0000 0000 0000
00000250: 0000 0000 0000 0000 0000 0000 0000 0000
00000260: 0000 0000 0000 0000 0000 0000 0000 0000
00000270: 0000 0000 ebac 91bf 0000 0000 0000 0000
00000280: 0000 0000 0000 0000 0000 0000 0000 0000
00000290: 0000 0000 0000 0000 0000 0000 0000 0000
000002a0: 0000 0000 0000 0000 0000 0000 0000 0000
000002b0: 0000 0000 0000 0000 9b8e a6bf fab2 adbf
000002c0: 0000 0000 0000 0000 0000 0000 0000 0000
000002d0: 0000 0000 0000 0000 801b 88bf 0000 0000
000002e0: 0000 0000 0000 0000 1966 0040 0000 0000
000002f0: 0000 0000 0000 0000 0000 0000 0000 0000
00000300: 0000 0000 0000 0000 0000 0000 0000 0000
00000310: 0000 0000 0000 0000 0000 0000 0000 0000
00000320: e29f 9a3f 0000 0000 8f66 ad3f 0000 0000
00000330: 0000 0000 0000 0000 0000 0000 0000 0000
00000340: 0000 0000 0000 0000 0000 0000 0000 0000
00000350: 0000 0000 0000 0000 0000 0000 0000 0000
00000360: 0000 0000 0000 0000 0000 0000 0000 0000
00000370: 0000 0000 0000 0000 0000 0000 0000 0000
00000380: 0000 0000 0000 0000 0000 0000 c561 d9bf
00000390: 0000 0000 0000 0000 0000 0000 0000 0000
000003a0: 0000 0000 0000 0000 0000 0000 0000 0000
000003b0: 0000 0000 0000 0000 0000 0000 0000 0000
000003c0: 0000 0000 0000 0000 0000 0000 cbd1 aebf
000003d0: 0000 0000 0000 0000 0000 0000 0000 0000
000003e0: 0000 0000 0000 0000 0000 0000 0000 0000
000003f0: 0000 0000 0000 0000 0000 0000 0000 0000

fc_layers.2.bias f4 [10]
0.054995596 0.26656437 0.022171255 -0.22197375 -0.011947864 -0.046857126 0.2170346 0.3497013
-0.2798038 -0.5356182
00000000: 1043 613d 207b 883e 7ea0 b53c 164d 63be
00000010: f9c0 43bc 42ed 3fbd 513e 5e3e 0c0c b33e
00000020: 7242 8fbe 461e 09bf
